…
I0108 08:49:39.263310    66 caffe.cpp:279] GPU device name: Tesla P100-SXM2-16GB
I0108 08:49:41.033412    66 net.cpp:51] Initializing net from parameters: 
name: "ResNet-50"
state {
  phase: TEST
  level: 0
  stage: ""
}
layer {
  name: "data"
  type: "Data"
  top: "data"
  top: "label"
  include {
    phase: TEST
  }
  transform_param {
    mirror: false
    crop_size: 224
    mean_file: "../newFood724_TEST/newFood724_aug_mean.binaryproto"
  }
  data_param {
    source: "../newFood724_TEST/newFood724_test_lmdb"
    batch_size: 16
    backend: LMDB
  }
}
layer {
  name: "conv1"
  type: "Convolution"
  bottom: "data"
  top: "conv1"
  convolution_param {
    num_output: 64
    pad: 3
    kernel_size: 7
    stride: 2
  }
}
layer {
  name: "bn_conv1"
  type: "BatchNorm"
  bottom: "conv1"
  top: "conv1"
  batch_norm_param {
    use_global_stats: true
  }
}
layer {
  name: "scale_conv1"
  type: "Scale"
  bottom: "conv1"
  top: "conv1"
  scale_param {
    bias_term: true
  }
}
layer {
  name: "conv1_relu"
  type: "ReLU"
  bottom: "conv1"
  top: "conv1"
}
layer {
  name: "pool1"
  type: "Pooling"
  bottom: "conv1"
  top: "pool1"
  pooling_param {
    pool: MAX
    kernel_size: 3
    stride: 2
  }
}
layer {
  name: "res2a_branch1"
  type: "Convolution"
  bottom: "pool1"
  top: "res2a_branch1"
  convolution_param {
    num_output: 256
    bias_term: false
    pad: 0
    kernel_size: 1
    stride: 1
  }
}
layer {
  name: "bn2a_branch1"
  type: "BatchNorm"
  bottom: "res2a_branch1"
  top: "res2a_branch1"
  batch_norm_param {
    use_global_stats: true
  }
}
layer {
  name: "scale2a_branch1"
  type: "Scale"
  bottom: "res2a_branch1"
  top: "res2a_branch1"
  scale_param {
    bias_term: true
  }
}
layer {
  name: "res2a_branch2a"
  type: "Convolution"
  bottom: "pool1"
  top: "res2a_branch2a"
  convolution_param {
    num_output: 64
    bias_term: false
    pad: 0
    kernel_size: 1
    stride: 1
  }
}
layer {
  name: "bn2a_branch2a"
  type: "BatchNorm"
  bottom: "res2a_branch2a"
  top: "res2a_branch2a"
  batch_norm_param {
    use_global_stats: true
  }
}
layer {
  name: "scale2a_branch2a"
  type: "Scale"
  bottom: "res2a_branch2a"
  top: "res2a_branch2a"
  scale_param {
    bias_term: true
  }
}
layer {
  name: "res2a_branch2a_relu"
  type: "ReLU"
  bottom: "res2a_branch2a"
  top: "res2a_branch2a"
}
layer {
  name: "res2a_branch2b"
  type: "Convolution"
  bottom: "res2a_branch2a"
  top: "res2a_branch2b"
  convolution_param {
    num_output: 64
    bias_term: false
    pad: 1
    kernel_size: 3
    stride: 1
  }
}
layer {
  name: "bn2a_branch2b"
  type: "BatchNorm"
  bottom: "res2a_branch2b"
  top: "res2a_branch2b"
  batch_norm_param {
    use_global_stats: true
  }
}
layer {
  name: "scale2a_branch2b"
  type: "Scale"
  bottom: "res2a_branch2b"
  top: "res2a_branch2b"
  scale_param {
    bias_term: true
  }
}
layer {
  name: "res2a_branch2b_relu"
  type: "ReLU"
  bottom: "res2a_branch2b"
  top: "res2a_branch2b"
}
layer {
  name: "res2a_branch2c"
  type: "Convolution"
  bottom: "res2a_branch2b"
  top: "res2a_branch2c"
  convolution_param {
    num_output: 256
    bias_term: false
    pad: 0
    kernel_size: 1
    stride: 1
  }
}
layer {
  name: "bn2a_branch2c"
  type: "BatchNorm"
  bottom: "res2a_branch2c"
  top: "res2a_branch2c"
  batch_norm_param {
    use_global_stats: true
  }
}
layer {
  name: "scale2a_branch2c"
  type: "Scale"
  bottom: "res2a_branch2c"
  top: "res2a_branch2c"
  scale_param {
    bias_term: true
  }
}
layer {
  name: "res2a"
  type: "Eltwise"
  bottom: "res2a_branch1"
  bottom: "res2a_branch2c"
  top: "res2a"
}
layer {
  name: "res2a_relu"
  type: "ReLU"
  bottom: "res2a"
  top: "res2a"
}
layer {
  name: "res2b_branch2a"
  type: "Convolution"
  bottom: "res2a"
  top: "res2b_branch2a"
  convolution_param {
    num_output: 64
    bias_term: false
    pad: 0
    kernel_size: 1
    stride: 1
  }
}
layer {
  name: "bn2b_branch2a"
  type: "BatchNorm"
  bottom: "res2b_branch2a"
  top: "res2b_branch2a"
  batch_norm_param {
    use_global_stats: true
  }
}
layer {
  name: "scale2b_branch2a"
  type: "Scale"
  bottom: "res2b_branch2a"
  top: "res2b_branch2a"
  scale_param {
    bias_term: true
  }
}
layer {
  name: "res2b_branch2a_relu"
  type: "ReLU"
  bottom: "res2b_branch2a"
  top: "res2b_branch2a"
}
layer {
  name: "res2b_branch2b"
  type: "Convolution"
  bottom: "res2b_branch2a"
  top: "res2b_branch2b"
  convolution_param {
    num_output: 64
    bias_term: false
    pad: 1
    kernel_size: 3
    stride: 1
  }
}
layer {
  name: "bn2b_branch2b"
  type: "BatchNorm"
  bottom: "res2b_branch2b"
  top: "res2b_branch2b"
  batch_norm_param {
    use_global_stats: true
  }
}
layer {
  name: "scale2b_branch2b"
  type: "Scale"
  bottom: "res2b_branch2b"
  top: "res2b_branch2b"
  scale_param {
    bias_term: true
  }
}
layer {
  name: "res2b_branch2b_relu"
  type: "ReLU"
  bottom: "res2b_branch2b"
  top: "res2b_branch2b"
}
layer {
  name: "res2b_branch2c"
  type: "Convolution"
  bottom: "res2b_branch2b"
  top: "res2b_branch2c"
  convolution_param {
    num_output: 256
    bias_term: false
    pad: 0
    kernel_size: 1
    stride: 1
  }
}
layer {
  name: "bn2b_branch2c"
  type: "BatchNorm"
  bottom: "res2b_branch2c"
  top: "res2b_branch2c"
  batch_norm_param {
    use_global_stats: true
  }
}
layer {
  name: "scale2b_branch2c"
  type: "Scale"
  bottom: "res2b_branch2c"
  top: "res2b_branch2c"
  scale_param {
    bias_term: true
  }
}
layer {
  name: "res2b"
  type: "Eltwise"
  bottom: "res2a"
  bottom: "res2b_branch2c"
  top: "res2b"
}
layer {
  name: "res2b_relu"
  type: "ReLU"
  bottom: "res2b"
  top: "res2b"
}
layer {
  name: "res2c_branch2a"
  type: "Convolution"
  bottom: "res2b"
  top: "res2c_branch2a"
  convolution_param {
    num_output: 64
    bias_term: false
    pad: 0
    kernel_size: 1
    stride: 1
  }
}
layer {
  name: "bn2c_branch2a"
  type: "BatchNorm"
  bottom: "res2c_branch2a"
  top: "res2c_branch2a"
  batch_norm_param {
    use_global_stats: true
  }
}
layer {
  name: "scale2c_branch2a"
  type: "Scale"
  bottom: "res2c_branch2a"
  top: "res2c_branch2a"
  scale_param {
    bias_term: true
  }
}
layer {
  name: "res2c_branch2a_relu"
  type: "ReLU"
  bottom: "res2c_branch2a"
  top: "res2c_branch2a"
}
layer {
  name: "res2c_branch2b"
  type: "Convolution"
  bottom: "res2c_branch2a"
  top: "res2c_branch2b"
  convolution_param {
    num_output: 64
    bias_term: false
    pad: 1
    kernel_size: 3
    stride: 1
  }
}
layer {
  name: "bn2c_branch2b"
  type: "BatchNorm"
  bottom: "res2c_branch2b"
  top: "res2c_branch2b"
  batch_norm_param {
    use_global_stats: true
  }
}
layer {
  name: "scale2c_branch2b"
  type: "Scale"
  bottom: "res2c_branch2b"
  top: "res2c_branch2b"
  scale_param {
    bias_term: true
  }
}
layer {
  name: "res2c_branch2b_relu"
  type: "ReLU"
  bottom: "res2c_branch2b"
  top: "res2c_branch2b"
}
layer {
  name: "res2c_branch2c"
  type: "Convolution"
  bottom: "res2c_branch2b"
  top: "res2c_branch2c"
  convolution_param {
    num_output: 256
    bias_term: false
    pad: 0
    kernel_size: 1
    stride: 1
  }
}
layer {
  name: "bn2c_branch2c"
  type: "BatchNorm"
  bottom: "res2c_branch2c"
  top: "res2c_branch2c"
  batch_norm_param {
    use_global_stats: true
  }
}
layer {
  name: "scale2c_branch2c"
  type: "Scale"
  bottom: "res2c_branch2c"
  top: "res2c_branch2c"
  scale_param {
    bias_term: true
  }
}
layer {
  name: "res2c"
  type: "Eltwise"
  bottom: "res2b"
  bottom: "res2c_branch2c"
  top: "res2c"
}
layer {
  name: "res2c_relu"
  type: "ReLU"
  bottom: "res2c"
  top: "res2c"
}
layer {
  name: "res3a_branch1"
  type: "Convolution"
  bottom: "res2c"
  top: "res3a_branch1"
  convolution_param {
    num_output: 512
    bias_term: false
    pad: 0
    kernel_size: 1
    stride: 2
  }
}
layer {
  name: "bn3a_branch1"
  type: "BatchNorm"
  bottom: "res3a_branch1"
  top: "res3a_branch1"
  batch_norm_param {
    use_global_stats: true
  }
}
layer {
  name: "scale3a_branch1"
  type: "Scale"
  bottom: "res3a_branch1"
  top: "res3a_branch1"
  scale_param {
    bias_term: true
  }
}
layer {
  name: "res3a_branch2a"
  type: "Convolution"
  bottom: "res2c"
  top: "res3a_branch2a"
  convolution_param {
    num_output: 128
    bias_term: false
    pad: 0
    kernel_size: 1
    stride: 2
  }
}
layer {
  name: "bn3a_branch2a"
  type: "BatchNorm"
  bottom: "res3a_branch2a"
  top: "res3a_branch2a"
  batch_norm_param {
    use_global_stats: true
  }
}
layer {
  name: "scale3a_branch2a"
  type: "Scale"
  bottom: "res3a_branch2a"
  top: "res3a_branch2a"
  scale_param {
    bias_term: true
  }
}
layer {
  name: "res3a_branch2a_relu"
  type: "ReLU"
  bottom: "res3a_branch2a"
  top: "res3a_branch2a"
}
layer {
  name: "res3a_branch2b"
  type: "Convolution"
  bottom: "res3a_branch2a"
  top: "res3a_branch2b"
  convolution_param {
    num_output: 128
    bias_term: false
    pad: 1
    kernel_size: 3
    stride: 1
  }
}
layer {
  name: "bn3a_branch2b"
  type: "BatchNorm"
  bottom: "res3a_branch2b"
  top: "res3a_branch2b"
  batch_norm_param {
    use_global_stats: true
  }
}
layer {
  name: "scale3a_branch2b"
  type: "Scale"
  bottom: "res3a_branch2b"
  top: "res3a_branch2b"
  scale_param {
    bias_term: true
  }
}
layer {
  name: "res3a_branch2b_relu"
  type: "ReLU"
  bottom: "res3a_branch2b"
  top: "res3a_branch2b"
}
layer {
  name: "res3a_branch2c"
  type: "Convolution"
  bottom: "res3a_branch2b"
  top: "res3a_branch2c"
  convolution_param {
    num_output: 512
    bias_term: false
    pad: 0
    kernel_size: 1
    stride: 1
  }
}
layer {
  name: "bn3a_branch2c"
  type: "BatchNorm"
  bottom: "res3a_branch2c"
  top: "res3a_branch2c"
  batch_norm_param {
    use_global_stats: true
  }
}
layer {
  name: "scale3a_branch2c"
  type: "Scale"
  bottom: "res3a_branch2c"
  top: "res3a_branch2c"
  scale_param {
    bias_term: true
  }
}
layer {
  name: "res3a"
  type: "Eltwise"
  bottom: "res3a_branch1"
  bottom: "res3a_branch2c"
  top: "res3a"
}
layer {
  name: "res3a_relu"
  type: "ReLU"
  bottom: "res3a"
  top: "res3a"
}
layer {
  name: "res3b_branch2a"
  type: "Convolution"
  bottom: "res3a"
  top: "res3b_branch2a"
  convolution_param {
    num_output: 128
    bias_term: false
    pad: 0
    kernel_size: 1
    stride: 1
  }
}
layer {
  name: "bn3b_branch2a"
  type: "BatchNorm"
  bottom: "res3b_branch2a"
  top: "res3b_branch2a"
  batch_norm_param {
    use_global_stats: true
  }
}
layer {
  name: "scale3b_branch2a"
  type: "Scale"
  bottom: "res3b_branch2a"
  top: "res3b_branch2a"
  scale_param {
    bias_term: true
  }
}
layer {
  name: "res3b_branch2a_relu"
  type: "ReLU"
  bottom: "res3b_branch2a"
  top: "res3b_branch2a"
}
layer {
  name: "res3b_branch2b"
  type: "Convolution"
  bottom: "res3b_branch2a"
  top: "res3b_branch2b"
  convolution_param {
    num_output: 128
    bias_term: false
    pad: 1
    kernel_size: 3
    stride: 1
  }
}
layer {
  name: "bn3b_branch2b"
  type: "BatchNorm"
  bottom: "res3b_branch2b"
  top: "res3b_branch2b"
  batch_norm_param {
    use_global_stats: true
  }
}
layer {
  name: "scale3b_branch2b"
  type: "Scale"
  bottom: "res3b_branch2b"
  top: "res3b_branch2b"
  scale_param {
    bias_term: true
  }
}
layer {
  name: "res3b_branch2b_relu"
  type: "ReLU"
  bottom: "res3b_branch2b"
  top: "res3b_branch2b"
}
layer {
  name: "res3b_branch2c"
  type: "Convolution"
  bottom: "res3b_branch2b"
  top: "res3b_branch2c"
  convolution_param {
    num_output: 512
    bias_term: false
    pad: 0
    kernel_size: 1
    stride: 1
  }
}
layer {
  name: "bn3b_branch2c"
  type: "BatchNorm"
  bottom: "res3b_branch2c"
  top: "res3b_branch2c"
  batch_norm_param {
    use_global_stats: true
  }
}
layer {
  name: "scale3b_branch2c"
  type: "Scale"
  bottom: "res3b_branch2c"
  top: "res3b_branch2c"
  scale_param {
    bias_term: true
  }
}
layer {
  name: "res3b"
  type: "Eltwise"
  bottom: "res3a"
  bottom: "res3b_branch2c"
  top: "res3b"
}
layer {
  name: "res3b_relu"
  type: "ReLU"
  bottom: "res3b"
  top: "res3b"
}
layer {
  name: "res3c_branch2a"
  type: "Convolution"
  bottom: "res3b"
  top: "res3c_branch2a"
  convolution_param {
    num_output: 128
    bias_term: false
    pad: 0
    kernel_size: 1
    stride: 1
  }
}
layer {
  name: "bn3c_branch2a"
  type: "BatchNorm"
  bottom: "res3c_branch2a"
  top: "res3c_branch2a"
  batch_norm_param {
    use_global_stats: true
  }
}
layer {
  name: "scale3c_branch2a"
  type: "Scale"
  bottom: "res3c_branch2a"
  top: "res3c_branch2a"
  scale_param {
    bias_term: true
  }
}
layer {
  name: "res3c_branch2a_relu"
  type: "ReLU"
  bottom: "res3c_branch2a"
  top: "res3c_branch2a"
}
layer {
  name: "res3c_branch2b"
  type: "Convolution"
  bottom: "res3c_branch2a"
  top: "res3c_branch2b"
  convolution_param {
    num_output: 128
    bias_term: false
    pad: 1
    kernel_size: 3
    stride: 1
  }
}
layer {
  name: "bn3c_branch2b"
  type: "BatchNorm"
  bottom: "res3c_branch2b"
  top: "res3c_branch2b"
  batch_norm_param {
    use_global_stats: true
  }
}
layer {
  name: "scale3c_branch2b"
  type: "Scale"
  bottom: "res3c_branch2b"
  top: "res3c_branch2b"
  scale_param {
    bias_term: true
  }
}
layer {
  name: "res3c_branch2b_relu"
  type: "ReLU"
  bottom: "res3c_branch2b"
  top: "res3c_branch2b"
}
layer {
  name: "res3c_branch2c"
  type: "Convolution"
  bottom: "res3c_branch2b"
  top: "res3c_branch2c"
  convolution_param {
    num_output: 512
    bias_term: false
    pad: 0
    kernel_size: 1
    stride: 1
  }
}
layer {
  name: "bn3c_branch2c"
  type: "BatchNorm"
  bottom: "res3c_branch2c"
  top: "res3c_branch2c"
  batch_norm_param {
    use_global_stats: true
  }
}
layer {
  name: "scale3c_branch2c"
  type: "Scale"
  bottom: "res3c_branch2c"
  top: "res3c_branch2c"
  scale_param {
    bias_term: true
  }
}
layer {
  name: "res3c"
  type: "Eltwise"
  bottom: "res3b"
  bottom: "res3c_branch2c"
  top: "res3c"
}
layer {
  name: "res3c_relu"
  type: "ReLU"
  bottom: "res3c"
  top: "res3c"
}
layer {
  name: "res3d_branch2a"
  type: "Convolution"
  bottom: "res3c"
  top: "res3d_branch2a"
  convolution_param {
    num_output: 128
    bias_term: false
    pad: 0
    kernel_size: 1
    stride: 1
  }
}
layer {
  name: "bn3d_branch2a"
  type: "BatchNorm"
  bottom: "res3d_branch2a"
  top: "res3d_branch2a"
  batch_norm_param {
    use_global_stats: true
  }
}
layer {
  name: "scale3d_branch2a"
  type: "Scale"
  bottom: "res3d_branch2a"
  top: "res3d_branch2a"
  scale_param {
    bias_term: true
  }
}
layer {
  name: "res3d_branch2a_relu"
  type: "ReLU"
  bottom: "res3d_branch2a"
  top: "res3d_branch2a"
}
layer {
  name: "res3d_branch2b"
  type: "Convolution"
  bottom: "res3d_branch2a"
  top: "res3d_branch2b"
  convolution_param {
    num_output: 128
    bias_term: false
    pad: 1
    kernel_size: 3
    stride: 1
  }
}
layer {
  name: "bn3d_branch2b"
  type: "BatchNorm"
  bottom: "res3d_branch2b"
  top: "res3d_branch2b"
  batch_norm_param {
    use_global_stats: true
  }
}
layer {
  name: "scale3d_branch2b"
  type: "Scale"
  bottom: "res3d_branch2b"
  top: "res3d_branch2b"
  scale_param {
    bias_term: true
  }
}
layer {
  name: "res3d_branch2b_relu"
  type: "ReLU"
  bottom: "res3d_branch2b"
  top: "res3d_branch2b"
}
layer {
  name: "res3d_branch2c"
  type: "Convolution"
  bottom: "res3d_branch2b"
  top: "res3d_branch2c"
  convolution_param {
    num_output: 512
    bias_term: false
    pad: 0
    kernel_size: 1
    stride: 1
  }
}
layer {
  name: "bn3d_branch2c"
  type: "BatchNorm"
  bottom: "res3d_branch2c"
  top: "res3d_branch2c"
  batch_norm_param {
    use_global_stats: true
  }
}
layer {
  name: "scale3d_branch2c"
  type: "Scale"
  bottom: "res3d_branch2c"
  top: "res3d_branch2c"
  scale_param {
    bias_term: true
  }
}
layer {
  name: "res3d"
  type: "Eltwise"
  bottom: "res3c"
  bottom: "res3d_branch2c"
  top: "res3d"
}
layer {
  name: "res3d_relu"
  type: "ReLU"
  bottom: "res3d"
  top: "res3d"
}
layer {
  name: "res4a_branch1"
  type: "Convolution"
  bottom: "res3d"
  top: "res4a_branch1"
  convolution_param {
    num_output: 1024
    bias_term: false
    pad: 0
    kernel_size: 1
    stride: 2
  }
}
layer {
  name: "bn4a_branch1"
  type: "BatchNorm"
  bottom: "res4a_branch1"
  top: "res4a_branch1"
  batch_norm_param {
    use_global_stats: true
  }
}
layer {
  name: "scale4a_branch1"
  type: "Scale"
  bottom: "res4a_branch1"
  top: "res4a_branch1"
  scale_param {
    bias_term: true
  }
}
layer {
  name: "res4a_branch2a"
  type: "Convolution"
  bottom: "res3d"
  top: "res4a_branch2a"
  convolution_param {
    num_output: 256
    bias_term: false
    pad: 0
    kernel_size: 1
    stride: 2
  }
}
layer {
  name: "bn4a_branch2a"
  type: "BatchNorm"
  bottom: "res4a_branch2a"
  top: "res4a_branch2a"
  batch_norm_param {
    use_global_stats: true
  }
}
layer {
  name: "scale4a_branch2a"
  type: "Scale"
  bottom: "res4a_branch2a"
  top: "res4a_branch2a"
  scale_param {
    bias_term: true
  }
}
layer {
  name: "res4a_branch2a_relu"
  type: "ReLU"
  bottom: "res4a_branch2a"
  top: "res4a_branch2a"
}
layer {
  name: "res4a_branch2b"
  type: "Convolution"
  bottom: "res4a_branch2a"
  top: "res4a_branch2b"
  convolution_param {
    num_output: 256
    bias_term: false
    pad: 1
    kernel_size: 3
    stride: 1
  }
}
layer {
  name: "bn4a_branch2b"
  type: "BatchNorm"
  bottom: "res4a_branch2b"
  top: "res4a_branch2b"
  batch_norm_param {
    use_global_stats: true
  }
}
layer {
  name: "scale4a_branch2b"
  type: "Scale"
  bottom: "res4a_branch2b"
  top: "res4a_branch2b"
  scale_param {
    bias_term: true
  }
}
layer {
  name: "res4a_branch2b_relu"
  type: "ReLU"
  bottom: "res4a_branch2b"
  top: "res4a_branch2b"
}
layer {
  name: "res4a_branch2c"
  type: "Convolution"
  bottom: "res4a_branch2b"
  top: "res4a_branch2c"
  convolution_param {
    num_output: 1024
    bias_term: false
    pad: 0
    kernel_size: 1
    stride: 1
  }
}
layer {
  name: "bn4a_branch2c"
  type: "BatchNorm"
  bottom: "res4a_branch2c"
  top: "res4a_branch2c"
  batch_norm_param {
    use_global_stats: true
  }
}
layer {
  name: "scale4a_branch2c"
  type: "Scale"
  bottom: "res4a_branch2c"
  top: "res4a_branch2c"
  scale_param {
    bias_term: true
  }
}
layer {
  name: "res4a"
  type: "Eltwise"
  bottom: "res4a_branch1"
  bottom: "res4a_branch2c"
  top: "res4a"
}
layer {
  name: "res4a_relu"
  type: "ReLU"
  bottom: "res4a"
  top: "res4a"
}
layer {
  name: "res4b_branch2a"
  type: "Convolution"
  bottom: "res4a"
  top: "res4b_branch2a"
  convolution_param {
    num_output: 256
    bias_term: false
    pad: 0
    kernel_size: 1
    stride: 1
  }
}
layer {
  name: "bn4b_branch2a"
  type: "BatchNorm"
  bottom: "res4b_branch2a"
  top: "res4b_branch2a"
  batch_norm_param {
    use_global_stats: true
  }
}
layer {
  name: "scale4b_branch2a"
  type: "Scale"
  bottom: "res4b_branch2a"
  top: "res4b_branch2a"
  scale_param {
    bias_term: true
  }
}
layer {
  name: "res4b_branch2a_relu"
  type: "ReLU"
  bottom: "res4b_branch2a"
  top: "res4b_branch2a"
}
layer {
  name: "res4b_branch2b"
  type: "Convolution"
  bottom: "res4b_branch2a"
  top: "res4b_branch2b"
  convolution_param {
    num_output: 256
    bias_term: false
    pad: 1
    kernel_size: 3
    stride: 1
  }
}
layer {
  name: "bn4b_branch2b"
  type: "BatchNorm"
  bottom: "res4b_branch2b"
  top: "res4b_branch2b"
  batch_norm_param {
    use_global_stats: true
  }
}
layer {
  name: "scale4b_branch2b"
  type: "Scale"
  bottom: "res4b_branch2b"
  top: "res4b_branch2b"
  scale_param {
    bias_term: true
  }
}
layer {
  name: "res4b_branch2b_relu"
  type: "ReLU"
  bottom: "res4b_branch2b"
  top: "res4b_branch2b"
}
layer {
  name: "res4b_branch2c"
  type: "Convolution"
  bottom: "res4b_branch2b"
  top: "res4b_branch2c"
  convolution_param {
    num_output: 1024
    bias_term: false
    pad: 0
    kernel_size: 1
    stride: 1
  }
}
layer {
  name: "bn4b_branch2c"
  type: "BatchNorm"
  bottom: "res4b_branch2c"
  top: "res4b_branch2c"
  batch_norm_param {
    use_global_stats: true
  }
}
layer {
  name: "scale4b_branch2c"
  type: "Scale"
  bottom: "res4b_branch2c"
  top: "res4b_branch2c"
  scale_param {
    bias_term: true
  }
}
layer {
  name: "res4b"
  type: "Eltwise"
  bottom: "res4a"
  bottom: "res4b_branch2c"
  top: "res4b"
}
layer {
  name: "res4b_relu"
  type: "ReLU"
  bottom: "res4b"
  top: "res4b"
}
layer {
  name: "res4c_branch2a"
  type: "Convolution"
  bottom: "res4b"
  top: "res4c_branch2a"
  convolution_param {
    num_output: 256
    bias_term: false
    pad: 0
    kernel_size: 1
    stride: 1
  }
}
layer {
  name: "bn4c_branch2a"
  type: "BatchNorm"
  bottom: "res4c_branch2a"
  top: "res4c_branch2a"
  batch_norm_param {
    use_global_stats: true
  }
}
layer {
  name: "scale4c_branch2a"
  type: "Scale"
  bottom: "res4c_branch2a"
  top: "res4c_branch2a"
  scale_param {
    bias_term: true
  }
}
layer {
  name: "res4c_branch2a_relu"
  type: "ReLU"
  bottom: "res4c_branch2a"
  top: "res4c_branch2a"
}
layer {
  name: "res4c_branch2b"
  type: "Convolution"
  bottom: "res4c_branch2a"
  top: "res4c_branch2b"
  convolution_param {
    num_output: 256
    bias_term: false
    pad: 1
    kernel_size: 3
    stride: 1
  }
}
layer {
  name: "bn4c_branch2b"
  type: "BatchNorm"
  bottom: "res4c_branch2b"
  top: "res4c_branch2b"
  batch_norm_param {
    use_global_stats: true
  }
}
layer {
  name: "scale4c_branch2b"
  type: "Scale"
  bottom: "res4c_branch2b"
  top: "res4c_branch2b"
  scale_param {
    bias_term: true
  }
}
layer {
  name: "res4c_branch2b_relu"
  type: "ReLU"
  bottom: "res4c_branch2b"
  top: "res4c_branch2b"
}
layer {
  name: "res4c_branch2c"
  type: "Convolution"
  bottom: "res4c_branch2b"
  top: "res4c_branch2c"
  convolution_param {
    num_output: 1024
    bias_term: false
    pad: 0
    kernel_size: 1
    stride: 1
  }
}
layer {
  name: "bn4c_branch2c"
  type: "BatchNorm"
  bottom: "res4c_branch2c"
  top: "res4c_branch2c"
  batch_norm_param {
    use_global_stats: true
  }
}
layer {
  name: "scale4c_branch2c"
  type: "Scale"
  bottom: "res4c_branch2c"
  top: "res4c_branch2c"
  scale_param {
    bias_term: true
  }
}
layer {
  name: "res4c"
  type: "Eltwise"
  bottom: "res4b"
  bottom: "res4c_branch2c"
  top: "res4c"
}
layer {
  name: "res4c_relu"
  type: "ReLU"
  bottom: "res4c"
  top: "res4c"
}
layer {
  name: "res4d_branch2a"
  type: "Convolution"
  bottom: "res4c"
  top: "res4d_branch2a"
  convolution_param {
    num_output: 256
    bias_term: false
    pad: 0
    kernel_size: 1
    stride: 1
  }
}
layer {
  name: "bn4d_branch2a"
  type: "BatchNorm"
  bottom: "res4d_branch2a"
  top: "res4d_branch2a"
  batch_norm_param {
    use_global_stats: true
  }
}
layer {
  name: "scale4d_branch2a"
  type: "Scale"
  bottom: "res4d_branch2a"
  top: "res4d_branch2a"
  scale_param {
    bias_term: true
  }
}
layer {
  name: "res4d_branch2a_relu"
  type: "ReLU"
  bottom: "res4d_branch2a"
  top: "res4d_branch2a"
}
layer {
  name: "res4d_branch2b"
  type: "Convolution"
  bottom: "res4d_branch2a"
  top: "res4d_branch2b"
  convolution_param {
    num_output: 256
    bias_term: false
    pad: 1
    kernel_size: 3
    stride: 1
  }
}
layer {
  name: "bn4d_branch2b"
  type: "BatchNorm"
  bottom: "res4d_branch2b"
  top: "res4d_branch2b"
  batch_norm_param {
    use_global_stats: true
  }
}
layer {
  name: "scale4d_branch2b"
  type: "Scale"
  bottom: "res4d_branch2b"
  top: "res4d_branch2b"
  scale_param {
    bias_term: true
  }
}
layer {
  name: "res4d_branch2b_relu"
  type: "ReLU"
  bottom: "res4d_branch2b"
  top: "res4d_branch2b"
}
layer {
  name: "res4d_branch2c"
  type: "Convolution"
  bottom: "res4d_branch2b"
  top: "res4d_branch2c"
  convolution_param {
    num_output: 1024
    bias_term: false
    pad: 0
    kernel_size: 1
    stride: 1
  }
}
layer {
  name: "bn4d_branch2c"
  type: "BatchNorm"
  bottom: "res4d_branch2c"
  top: "res4d_branch2c"
  batch_norm_param {
    use_global_stats: true
  }
}
layer {
  name: "scale4d_branch2c"
  type: "Scale"
  bottom: "res4d_branch2c"
  top: "res4d_branch2c"
  scale_param {
    bias_term: true
  }
}
layer {
  name: "res4d"
  type: "Eltwise"
  bottom: "res4c"
  bottom: "res4d_branch2c"
  top: "res4d"
}
layer {
  name: "res4d_relu"
  type: "ReLU"
  bottom: "res4d"
  top: "res4d"
}
layer {
  name: "res4e_branch2a"
  type: "Convolution"
  bottom: "res4d"
  top: "res4e_branch2a"
  convolution_param {
    num_output: 256
    bias_term: false
    pad: 0
    kernel_size: 1
    stride: 1
  }
}
layer {
  name: "bn4e_branch2a"
  type: "BatchNorm"
  bottom: "res4e_branch2a"
  top: "res4e_branch2a"
  batch_norm_param {
    use_global_stats: true
  }
}
layer {
  name: "scale4e_branch2a"
  type: "Scale"
  bottom: "res4e_branch2a"
  top: "res4e_branch2a"
  scale_param {
    bias_term: true
  }
}
layer {
  name: "res4e_branch2a_relu"
  type: "ReLU"
  bottom: "res4e_branch2a"
  top: "res4e_branch2a"
}
layer {
  name: "res4e_branch2b"
  type: "Convolution"
  bottom: "res4e_branch2a"
  top: "res4e_branch2b"
  convolution_param {
    num_output: 256
    bias_term: false
    pad: 1
    kernel_size: 3
    stride: 1
  }
}
layer {
  name: "bn4e_branch2b"
  type: "BatchNorm"
  bottom: "res4e_branch2b"
  top: "res4e_branch2b"
  batch_norm_param {
    use_global_stats: true
  }
}
layer {
  name: "scale4e_branch2b"
  type: "Scale"
  bottom: "res4e_branch2b"
  top: "res4e_branch2b"
  scale_param {
    bias_term: true
  }
}
layer {
  name: "res4e_branch2b_relu"
  type: "ReLU"
  bottom: "res4e_branch2b"
  top: "res4e_branch2b"
}
layer {
  name: "res4e_branch2c"
  type: "Convolution"
  bottom: "res4e_branch2b"
  top: "res4e_branch2c"
  convolution_param {
    num_output: 1024
    bias_term: false
    pad: 0
    kernel_size: 1
    stride: 1
  }
}
layer {
  name: "bn4e_branch2c"
  type: "BatchNorm"
  bottom: "res4e_branch2c"
  top: "res4e_branch2c"
  batch_norm_param {
    use_global_stats: true
  }
}
layer {
  name: "scale4e_branch2c"
  type: "Scale"
  bottom: "res4e_branch2c"
  top: "res4e_branch2c"
  scale_param {
    bias_term: true
  }
}
layer {
  name: "res4e"
  type: "Eltwise"
  bottom: "res4d"
  bottom: "res4e_branch2c"
  top: "res4e"
}
layer {
  name: "res4e_relu"
  type: "ReLU"
  bottom: "res4e"
  top: "res4e"
}
layer {
  name: "res4f_branch2a"
  type: "Convolution"
  bottom: "res4e"
  top: "res4f_branch2a"
  convolution_param {
    num_output: 256
    bias_term: false
    pad: 0
    kernel_size: 1
    stride: 1
  }
}
layer {
  name: "bn4f_branch2a"
  type: "BatchNorm"
  bottom: "res4f_branch2a"
  top: "res4f_branch2a"
  batch_norm_param {
    use_global_stats: true
  }
}
layer {
  name: "scale4f_branch2a"
  type: "Scale"
  bottom: "res4f_branch2a"
  top: "res4f_branch2a"
  scale_param {
    bias_term: true
  }
}
layer {
  name: "res4f_branch2a_relu"
  type: "ReLU"
  bottom: "res4f_branch2a"
  top: "res4f_branch2a"
}
layer {
  name: "res4f_branch2b"
  type: "Convolution"
  bottom: "res4f_branch2a"
  top: "res4f_branch2b"
  convolution_param {
    num_output: 256
    bias_term: false
    pad: 1
    kernel_size: 3
    stride: 1
  }
}
layer {
  name: "bn4f_branch2b"
  type: "BatchNorm"
  bottom: "res4f_branch2b"
  top: "res4f_branch2b"
  batch_norm_param {
    use_global_stats: true
  }
}
layer {
  name: "scale4f_branch2b"
  type: "Scale"
  bottom: "res4f_branch2b"
  top: "res4f_branch2b"
  scale_param {
    bias_term: true
  }
}
layer {
  name: "res4f_branch2b_relu"
  type: "ReLU"
  bottom: "res4f_branch2b"
  top: "res4f_branch2b"
}
layer {
  name: "res4f_branch2c"
  type: "Convolution"
  bottom: "res4f_branch2b"
  top: "res4f_branch2c"
  convolution_param {
    num_output: 1024
    bias_term: false
    pad: 0
    kernel_size: 1
    stride: 1
  }
}
layer {
  name: "bn4f_branch2c"
  type: "BatchNorm"
  bottom: "res4f_branch2c"
  top: "res4f_branch2c"
  batch_norm_param {
    use_global_stats: true
  }
}
layer {
  name: "scale4f_branch2c"
  type: "Scale"
  bottom: "res4f_branch2c"
  top: "res4f_branch2c"
  scale_param {
    bias_term: true
  }
}
layer {
  name: "res4f"
  type: "Eltwise"
  bottom: "res4e"
  bottom: "res4f_branch2c"
  top: "res4f"
}
layer {
  name: "res4f_relu"
  type: "ReLU"
  bottom: "res4f"
  top: "res4f"
}
layer {
  name: "res5a_branch1"
  type: "Convolution"
  bottom: "res4f"
  top: "res5a_branch1"
  convolution_param {
    num_output: 2048
    bias_term: false
    pad: 0
    kernel_size: 1
    stride: 2
  }
}
layer {
  name: "bn5a_branch1"
  type: "BatchNorm"
  bottom: "res5a_branch1"
  top: "res5a_branch1"
  batch_norm_param {
    use_global_stats: true
  }
}
layer {
  name: "scale5a_branch1"
  type: "Scale"
  bottom: "res5a_branch1"
  top: "res5a_branch1"
  scale_param {
    bias_term: true
  }
}
layer {
  name: "res5a_branch2a"
  type: "Convolution"
  bottom: "res4f"
  top: "res5a_branch2a"
  convolution_param {
    num_output: 512
    bias_term: false
    pad: 0
    kernel_size: 1
    stride: 2
  }
}
layer {
  name: "bn5a_branch2a"
  type: "BatchNorm"
  bottom: "res5a_branch2a"
  top: "res5a_branch2a"
  batch_norm_param {
    use_global_stats: true
  }
}
layer {
  name: "scale5a_branch2a"
  type: "Scale"
  bottom: "res5a_branch2a"
  top: "res5a_branch2a"
  scale_param {
    bias_term: true
  }
}
layer {
  name: "res5a_branch2a_relu"
  type: "ReLU"
  bottom: "res5a_branch2a"
  top: "res5a_branch2a"
}
layer {
  name: "res5a_branch2b"
  type: "Convolution"
  bottom: "res5a_branch2a"
  top: "res5a_branch2b"
  convolution_param {
    num_output: 512
    bias_term: false
    pad: 1
    kernel_size: 3
    stride: 1
  }
}
layer {
  name: "bn5a_branch2b"
  type: "BatchNorm"
  bottom: "res5a_branch2b"
  top: "res5a_branch2b"
  batch_norm_param {
    use_global_stats: true
  }
}
layer {
  name: "scale5a_branch2b"
  type: "Scale"
  bottom: "res5a_branch2b"
  top: "res5a_branch2b"
  scale_param {
    bias_term: true
  }
}
layer {
  name: "res5a_branch2b_relu"
  type: "ReLU"
  bottom: "res5a_branch2b"
  top: "res5a_branch2b"
}
layer {
  name: "res5a_branch2c"
  type: "Convolution"
  bottom: "res5a_branch2b"
  top: "res5a_branch2c"
  convolution_param {
    num_output: 2048
    bias_term: false
    pad: 0
    kernel_size: 1
    stride: 1
  }
}
layer {
  name: "bn5a_branch2c"
  type: "BatchNorm"
  bottom: "res5a_b
I0108 08:49:41.034453    66 layer_factory.hpp:77] Creating layer data
I0108 08:49:41.040542    66 db_lmdb.cpp:35] Opened lmdb ../newFood724_TEST/newFood724_test_lmdb
I0108 08:49:41.041229    66 net.cpp:84] Creating Layer data
I0108 08:49:41.041254    66 net.cpp:380] data -> data
I0108 08:49:41.041290    66 net.cpp:380] data -> label
I0108 08:49:41.041316    66 data_transformer.cpp:25] Loading mean file from: ../newFood724_TEST/newFood724_aug_mean.binaryproto
I0108 08:49:41.143188    66 data_layer.cpp:45] output data size: 16,3,224,224
I0108 08:49:41.182785    66 net.cpp:122] Setting up data
I0108 08:49:41.182827    66 net.cpp:129] Top shape: 16 3 224 224 (2408448)
I0108 08:49:41.182840    66 net.cpp:129] Top shape: 16 (16)
I0108 08:49:41.182847    66 net.cpp:137] Memory required for data: 9633856
I0108 08:49:41.182862    66 layer_factory.hpp:77] Creating layer label_data_1_split
I0108 08:49:41.182886    66 net.cpp:84] Creating Layer label_data_1_split
I0108 08:49:41.182898    66 net.cpp:406] label_data_1_split <- label
I0108 08:49:41.182920    66 net.cpp:380] label_data_1_split -> label_data_1_split_0
I0108 08:49:41.182941    66 net.cpp:380] label_data_1_split -> label_data_1_split_1
I0108 08:49:41.182955    66 net.cpp:380] label_data_1_split -> label_data_1_split_2
I0108 08:49:41.183104    66 net.cpp:122] Setting up label_data_1_split
I0108 08:49:41.183120    66 net.cpp:129] Top shape: 16 (16)
I0108 08:49:41.183130    66 net.cpp:129] Top shape: 16 (16)
I0108 08:49:41.183140    66 net.cpp:129] Top shape: 16 (16)
I0108 08:49:41.183148    66 net.cpp:137] Memory required for data: 9634048
I0108 08:49:41.183156    66 layer_factory.hpp:77] Creating layer conv1
I0108 08:49:41.183185    66 net.cpp:84] Creating Layer conv1
I0108 08:49:41.183194    66 net.cpp:406] conv1 <- data
I0108 08:49:41.183205    66 net.cpp:380] conv1 -> conv1
I0108 08:49:41.681130    66 net.cpp:122] Setting up conv1
I0108 08:49:41.681167    66 net.cpp:129] Top shape: 16 64 112 112 (12845056)
I0108 08:49:41.681172    66 net.cpp:137] Memory required for data: 61014272
I0108 08:49:41.681200    66 layer_factory.hpp:77] Creating layer bn_conv1
I0108 08:49:41.681219    66 net.cpp:84] Creating Layer bn_conv1
I0108 08:49:41.681231    66 net.cpp:406] bn_conv1 <- conv1
I0108 08:49:41.681237    66 net.cpp:367] bn_conv1 -> conv1 (in-place)
I0108 08:49:41.681478    66 net.cpp:122] Setting up bn_conv1
I0108 08:49:41.681488    66 net.cpp:129] Top shape: 16 64 112 112 (12845056)
I0108 08:49:41.681493    66 net.cpp:137] Memory required for data: 112394496
I0108 08:49:41.681505    66 layer_factory.hpp:77] Creating layer scale_conv1
I0108 08:49:41.681520    66 net.cpp:84] Creating Layer scale_conv1
I0108 08:49:41.681555    66 net.cpp:406] scale_conv1 <- conv1
I0108 08:49:41.681561    66 net.cpp:367] scale_conv1 -> conv1 (in-place)
I0108 08:49:41.681618    66 layer_factory.hpp:77] Creating layer scale_conv1
I0108 08:49:41.681771    66 net.cpp:122] Setting up scale_conv1
I0108 08:49:41.681782    66 net.cpp:129] Top shape: 16 64 112 112 (12845056)
I0108 08:49:41.681787    66 net.cpp:137] Memory required for data: 163774720
I0108 08:49:41.681793    66 layer_factory.hpp:77] Creating layer conv1_relu
I0108 08:49:41.681802    66 net.cpp:84] Creating Layer conv1_relu
I0108 08:49:41.681807    66 net.cpp:406] conv1_relu <- conv1
I0108 08:49:41.681813    66 net.cpp:367] conv1_relu -> conv1 (in-place)
I0108 08:49:41.682031    66 net.cpp:122] Setting up conv1_relu
I0108 08:49:41.682044    66 net.cpp:129] Top shape: 16 64 112 112 (12845056)
I0108 08:49:41.682052    66 net.cpp:137] Memory required for data: 215154944
I0108 08:49:41.682056    66 layer_factory.hpp:77] Creating layer pool1
I0108 08:49:41.682065    66 net.cpp:84] Creating Layer pool1
I0108 08:49:41.682071    66 net.cpp:406] pool1 <- conv1
I0108 08:49:41.682077    66 net.cpp:380] pool1 -> pool1
I0108 08:49:41.682140    66 net.cpp:122] Setting up pool1
I0108 08:49:41.682149    66 net.cpp:129] Top shape: 16 64 56 56 (3211264)
I0108 08:49:41.682153    66 net.cpp:137] Memory required for data: 228000000
I0108 08:49:41.682157    66 layer_factory.hpp:77] Creating layer pool1_pool1_0_split
I0108 08:49:41.682163    66 net.cpp:84] Creating Layer pool1_pool1_0_split
I0108 08:49:41.682168    66 net.cpp:406] pool1_pool1_0_split <- pool1
I0108 08:49:41.682173    66 net.cpp:380] pool1_pool1_0_split -> pool1_pool1_0_split_0
I0108 08:49:41.682178    66 net.cpp:380] pool1_pool1_0_split -> pool1_pool1_0_split_1
I0108 08:49:41.682215    66 net.cpp:122] Setting up pool1_pool1_0_split
I0108 08:49:41.682224    66 net.cpp:129] Top shape: 16 64 56 56 (3211264)
I0108 08:49:41.682229    66 net.cpp:129] Top shape: 16 64 56 56 (3211264)
I0108 08:49:41.682232    66 net.cpp:137] Memory required for data: 253690112
I0108 08:49:41.682236    66 layer_factory.hpp:77] Creating layer res2a_branch1
I0108 08:49:41.682247    66 net.cpp:84] Creating Layer res2a_branch1
I0108 08:49:41.682252    66 net.cpp:406] res2a_branch1 <- pool1_pool1_0_split_0
I0108 08:49:41.682258    66 net.cpp:380] res2a_branch1 -> res2a_branch1
I0108 08:49:41.683990    66 net.cpp:122] Setting up res2a_branch1
I0108 08:49:41.684011    66 net.cpp:129] Top shape: 16 256 56 56 (12845056)
I0108 08:49:41.684015    66 net.cpp:137] Memory required for data: 305070336
I0108 08:49:41.684022    66 layer_factory.hpp:77] Creating layer bn2a_branch1
I0108 08:49:41.684031    66 net.cpp:84] Creating Layer bn2a_branch1
I0108 08:49:41.684034    66 net.cpp:406] bn2a_branch1 <- res2a_branch1
I0108 08:49:41.684041    66 net.cpp:367] bn2a_branch1 -> res2a_branch1 (in-place)
I0108 08:49:41.685890    66 net.cpp:122] Setting up bn2a_branch1
I0108 08:49:41.685909    66 net.cpp:129] Top shape: 16 256 56 56 (12845056)
I0108 08:49:41.685912    66 net.cpp:137] Memory required for data: 356450560
I0108 08:49:41.685926    66 layer_factory.hpp:77] Creating layer scale2a_branch1
I0108 08:49:41.685935    66 net.cpp:84] Creating Layer scale2a_branch1
I0108 08:49:41.685940    66 net.cpp:406] scale2a_branch1 <- res2a_branch1
I0108 08:49:41.685945    66 net.cpp:367] scale2a_branch1 -> res2a_branch1 (in-place)
I0108 08:49:41.685992    66 layer_factory.hpp:77] Creating layer scale2a_branch1
I0108 08:49:41.686115    66 net.cpp:122] Setting up scale2a_branch1
I0108 08:49:41.686125    66 net.cpp:129] Top shape: 16 256 56 56 (12845056)
I0108 08:49:41.686128    66 net.cpp:137] Memory required for data: 407830784
I0108 08:49:41.686136    66 layer_factory.hpp:77] Creating layer res2a_branch2a
I0108 08:49:41.686146    66 net.cpp:84] Creating Layer res2a_branch2a
I0108 08:49:41.686153    66 net.cpp:406] res2a_branch2a <- pool1_pool1_0_split_1
I0108 08:49:41.686159    66 net.cpp:380] res2a_branch2a -> res2a_branch2a
I0108 08:49:41.688011    66 net.cpp:122] Setting up res2a_branch2a
I0108 08:49:41.688050    66 net.cpp:129] Top shape: 16 64 56 56 (3211264)
I0108 08:49:41.688055    66 net.cpp:137] Memory required for data: 420675840
I0108 08:49:41.688062    66 layer_factory.hpp:77] Creating layer bn2a_branch2a
I0108 08:49:41.688071    66 net.cpp:84] Creating Layer bn2a_branch2a
I0108 08:49:41.688076    66 net.cpp:406] bn2a_branch2a <- res2a_branch2a
I0108 08:49:41.688083    66 net.cpp:367] bn2a_branch2a -> res2a_branch2a (in-place)
I0108 08:49:41.688328    66 net.cpp:122] Setting up bn2a_branch2a
I0108 08:49:41.688343    66 net.cpp:129] Top shape: 16 64 56 56 (3211264)
I0108 08:49:41.688346    66 net.cpp:137] Memory required for data: 433520896
I0108 08:49:41.688360    66 layer_factory.hpp:77] Creating layer scale2a_branch2a
I0108 08:49:41.688369    66 net.cpp:84] Creating Layer scale2a_branch2a
I0108 08:49:41.688372    66 net.cpp:406] scale2a_branch2a <- res2a_branch2a
I0108 08:49:41.688377    66 net.cpp:367] scale2a_branch2a -> res2a_branch2a (in-place)
I0108 08:49:41.688426    66 layer_factory.hpp:77] Creating layer scale2a_branch2a
I0108 08:49:41.688560    66 net.cpp:122] Setting up scale2a_branch2a
I0108 08:49:41.688570    66 net.cpp:129] Top shape: 16 64 56 56 (3211264)
I0108 08:49:41.688573    66 net.cpp:137] Memory required for data: 446365952
I0108 08:49:41.688580    66 layer_factory.hpp:77] Creating layer res2a_branch2a_relu
I0108 08:49:41.688586    66 net.cpp:84] Creating Layer res2a_branch2a_relu
I0108 08:49:41.688591    66 net.cpp:406] res2a_branch2a_relu <- res2a_branch2a
I0108 08:49:41.688596    66 net.cpp:367] res2a_branch2a_relu -> res2a_branch2a (in-place)
I0108 08:49:41.688809    66 net.cpp:122] Setting up res2a_branch2a_relu
I0108 08:49:41.688822    66 net.cpp:129] Top shape: 16 64 56 56 (3211264)
I0108 08:49:41.688832    66 net.cpp:137] Memory required for data: 459211008
I0108 08:49:41.688835    66 layer_factory.hpp:77] Creating layer res2a_branch2b
I0108 08:49:41.688843    66 net.cpp:84] Creating Layer res2a_branch2b
I0108 08:49:41.688848    66 net.cpp:406] res2a_branch2b <- res2a_branch2a
I0108 08:49:41.688853    66 net.cpp:380] res2a_branch2b -> res2a_branch2b
I0108 08:49:41.691869    66 net.cpp:122] Setting up res2a_branch2b
I0108 08:49:41.691890    66 net.cpp:129] Top shape: 16 64 56 56 (3211264)
I0108 08:49:41.691895    66 net.cpp:137] Memory required for data: 472056064
I0108 08:49:41.691901    66 layer_factory.hpp:77] Creating layer bn2a_branch2b
I0108 08:49:41.691911    66 net.cpp:84] Creating Layer bn2a_branch2b
I0108 08:49:41.691915    66 net.cpp:406] bn2a_branch2b <- res2a_branch2b
I0108 08:49:41.691921    66 net.cpp:367] bn2a_branch2b -> res2a_branch2b (in-place)
I0108 08:49:41.692142    66 net.cpp:122] Setting up bn2a_branch2b
I0108 08:49:41.692152    66 net.cpp:129] Top shape: 16 64 56 56 (3211264)
I0108 08:49:41.692155    66 net.cpp:137] Memory required for data: 484901120
I0108 08:49:41.692163    66 layer_factory.hpp:77] Creating layer scale2a_branch2b
I0108 08:49:41.692173    66 net.cpp:84] Creating Layer scale2a_branch2b
I0108 08:49:41.692178    66 net.cpp:406] scale2a_branch2b <- res2a_branch2b
I0108 08:49:41.692183    66 net.cpp:367] scale2a_branch2b -> res2a_branch2b (in-place)
I0108 08:49:41.692227    66 layer_factory.hpp:77] Creating layer scale2a_branch2b
I0108 08:49:41.692358    66 net.cpp:122] Setting up scale2a_branch2b
I0108 08:49:41.692368    66 net.cpp:129] Top shape: 16 64 56 56 (3211264)
I0108 08:49:41.692371    66 net.cpp:137] Memory required for data: 497746176
I0108 08:49:41.692378    66 layer_factory.hpp:77] Creating layer res2a_branch2b_relu
I0108 08:49:41.692384    66 net.cpp:84] Creating Layer res2a_branch2b_relu
I0108 08:49:41.692389    66 net.cpp:406] res2a_branch2b_relu <- res2a_branch2b
I0108 08:49:41.692394    66 net.cpp:367] res2a_branch2b_relu -> res2a_branch2b (in-place)
I0108 08:49:41.692595    66 net.cpp:122] Setting up res2a_branch2b_relu
I0108 08:49:41.692605    66 net.cpp:129] Top shape: 16 64 56 56 (3211264)
I0108 08:49:41.692610    66 net.cpp:137] Memory required for data: 510591232
I0108 08:49:41.692613    66 layer_factory.hpp:77] Creating layer res2a_branch2c
I0108 08:49:41.692641    66 net.cpp:84] Creating Layer res2a_branch2c
I0108 08:49:41.692649    66 net.cpp:406] res2a_branch2c <- res2a_branch2b
I0108 08:49:41.692656    66 net.cpp:380] res2a_branch2c -> res2a_branch2c
I0108 08:49:41.694066    66 net.cpp:122] Setting up res2a_branch2c
I0108 08:49:41.694082    66 net.cpp:129] Top shape: 16 256 56 56 (12845056)
I0108 08:49:41.694087    66 net.cpp:137] Memory required for data: 561971456
I0108 08:49:41.694093    66 layer_factory.hpp:77] Creating layer bn2a_branch2c
I0108 08:49:41.694102    66 net.cpp:84] Creating Layer bn2a_branch2c
I0108 08:49:41.694106    66 net.cpp:406] bn2a_branch2c <- res2a_branch2c
I0108 08:49:41.694113    66 net.cpp:367] bn2a_branch2c -> res2a_branch2c (in-place)
I0108 08:49:41.694330    66 net.cpp:122] Setting up bn2a_branch2c
I0108 08:49:41.694340    66 net.cpp:129] Top shape: 16 256 56 56 (12845056)
I0108 08:49:41.694344    66 net.cpp:137] Memory required for data: 613351680
I0108 08:49:41.694352    66 layer_factory.hpp:77] Creating layer scale2a_branch2c
I0108 08:49:41.694360    66 net.cpp:84] Creating Layer scale2a_branch2c
I0108 08:49:41.694365    66 net.cpp:406] scale2a_branch2c <- res2a_branch2c
I0108 08:49:41.694370    66 net.cpp:367] scale2a_branch2c -> res2a_branch2c (in-place)
I0108 08:49:41.694414    66 layer_factory.hpp:77] Creating layer scale2a_branch2c
I0108 08:49:41.694538    66 net.cpp:122] Setting up scale2a_branch2c
I0108 08:49:41.694548    66 net.cpp:129] Top shape: 16 256 56 56 (12845056)
I0108 08:49:41.694552    66 net.cpp:137] Memory required for data: 664731904
I0108 08:49:41.694558    66 layer_factory.hpp:77] Creating layer res2a
I0108 08:49:41.694571    66 net.cpp:84] Creating Layer res2a
I0108 08:49:41.694576    66 net.cpp:406] res2a <- res2a_branch1
I0108 08:49:41.694582    66 net.cpp:406] res2a <- res2a_branch2c
I0108 08:49:41.694588    66 net.cpp:380] res2a -> res2a
I0108 08:49:41.694619    66 net.cpp:122] Setting up res2a
I0108 08:49:41.694628    66 net.cpp:129] Top shape: 16 256 56 56 (12845056)
I0108 08:49:41.694631    66 net.cpp:137] Memory required for data: 716112128
I0108 08:49:41.694636    66 layer_factory.hpp:77] Creating layer res2a_relu
I0108 08:49:41.694641    66 net.cpp:84] Creating Layer res2a_relu
I0108 08:49:41.694645    66 net.cpp:406] res2a_relu <- res2a
I0108 08:49:41.694650    66 net.cpp:367] res2a_relu -> res2a (in-place)
I0108 08:49:41.694855    66 net.cpp:122] Setting up res2a_relu
I0108 08:49:41.694866    66 net.cpp:129] Top shape: 16 256 56 56 (12845056)
I0108 08:49:41.694870    66 net.cpp:137] Memory required for data: 767492352
I0108 08:49:41.694875    66 layer_factory.hpp:77] Creating layer res2a_res2a_relu_0_split
I0108 08:49:41.694880    66 net.cpp:84] Creating Layer res2a_res2a_relu_0_split
I0108 08:49:41.694885    66 net.cpp:406] res2a_res2a_relu_0_split <- res2a
I0108 08:49:41.694890    66 net.cpp:380] res2a_res2a_relu_0_split -> res2a_res2a_relu_0_split_0
I0108 08:49:41.694897    66 net.cpp:380] res2a_res2a_relu_0_split -> res2a_res2a_relu_0_split_1
I0108 08:49:41.694939    66 net.cpp:122] Setting up res2a_res2a_relu_0_split
I0108 08:49:41.694947    66 net.cpp:129] Top shape: 16 256 56 56 (12845056)
I0108 08:49:41.694953    66 net.cpp:129] Top shape: 16 256 56 56 (12845056)
I0108 08:49:41.694957    66 net.cpp:137] Memory required for data: 870252800
I0108 08:49:41.694959    66 layer_factory.hpp:77] Creating layer res2b_branch2a
I0108 08:49:41.694967    66 net.cpp:84] Creating Layer res2b_branch2a
I0108 08:49:41.694972    66 net.cpp:406] res2b_branch2a <- res2a_res2a_relu_0_split_0
I0108 08:49:41.694977    66 net.cpp:380] res2b_branch2a -> res2b_branch2a
I0108 08:49:41.696369    66 net.cpp:122] Setting up res2b_branch2a
I0108 08:49:41.696388    66 net.cpp:129] Top shape: 16 64 56 56 (3211264)
I0108 08:49:41.696391    66 net.cpp:137] Memory required for data: 883097856
I0108 08:49:41.696398    66 layer_factory.hpp:77] Creating layer bn2b_branch2a
I0108 08:49:41.696406    66 net.cpp:84] Creating Layer bn2b_branch2a
I0108 08:49:41.696410    66 net.cpp:406] bn2b_branch2a <- res2b_branch2a
I0108 08:49:41.696436    66 net.cpp:367] bn2b_branch2a -> res2b_branch2a (in-place)
I0108 08:49:41.696658    66 net.cpp:122] Setting up bn2b_branch2a
I0108 08:49:41.696668    66 net.cpp:129] Top shape: 16 64 56 56 (3211264)
I0108 08:49:41.696672    66 net.cpp:137] Memory required for data: 895942912
I0108 08:49:41.696686    66 layer_factory.hpp:77] Creating layer scale2b_branch2a
I0108 08:49:41.696693    66 net.cpp:84] Creating Layer scale2b_branch2a
I0108 08:49:41.696697    66 net.cpp:406] scale2b_branch2a <- res2b_branch2a
I0108 08:49:41.696703    66 net.cpp:367] scale2b_branch2a -> res2b_branch2a (in-place)
I0108 08:49:41.696751    66 layer_factory.hpp:77] Creating layer scale2b_branch2a
I0108 08:49:41.696882    66 net.cpp:122] Setting up scale2b_branch2a
I0108 08:49:41.696892    66 net.cpp:129] Top shape: 16 64 56 56 (3211264)
I0108 08:49:41.696895    66 net.cpp:137] Memory required for data: 908787968
I0108 08:49:41.696902    66 layer_factory.hpp:77] Creating layer res2b_branch2a_relu
I0108 08:49:41.696908    66 net.cpp:84] Creating Layer res2b_branch2a_relu
I0108 08:49:41.696913    66 net.cpp:406] res2b_branch2a_relu <- res2b_branch2a
I0108 08:49:41.696918    66 net.cpp:367] res2b_branch2a_relu -> res2b_branch2a (in-place)
I0108 08:49:41.697124    66 net.cpp:122] Setting up res2b_branch2a_relu
I0108 08:49:41.697134    66 net.cpp:129] Top shape: 16 64 56 56 (3211264)
I0108 08:49:41.697139    66 net.cpp:137] Memory required for data: 921633024
I0108 08:49:41.697142    66 layer_factory.hpp:77] Creating layer res2b_branch2b
I0108 08:49:41.697150    66 net.cpp:84] Creating Layer res2b_branch2b
I0108 08:49:41.697154    66 net.cpp:406] res2b_branch2b <- res2b_branch2a
I0108 08:49:41.697160    66 net.cpp:380] res2b_branch2b -> res2b_branch2b
I0108 08:49:41.698585    66 net.cpp:122] Setting up res2b_branch2b
I0108 08:49:41.698603    66 net.cpp:129] Top shape: 16 64 56 56 (3211264)
I0108 08:49:41.698607    66 net.cpp:137] Memory required for data: 934478080
I0108 08:49:41.698614    66 layer_factory.hpp:77] Creating layer bn2b_branch2b
I0108 08:49:41.698621    66 net.cpp:84] Creating Layer bn2b_branch2b
I0108 08:49:41.698626    66 net.cpp:406] bn2b_branch2b <- res2b_branch2b
I0108 08:49:41.698632    66 net.cpp:367] bn2b_branch2b -> res2b_branch2b (in-place)
I0108 08:49:41.698851    66 net.cpp:122] Setting up bn2b_branch2b
I0108 08:49:41.698861    66 net.cpp:129] Top shape: 16 64 56 56 (3211264)
I0108 08:49:41.698865    66 net.cpp:137] Memory required for data: 947323136
I0108 08:49:41.698873    66 layer_factory.hpp:77] Creating layer scale2b_branch2b
I0108 08:49:41.698880    66 net.cpp:84] Creating Layer scale2b_branch2b
I0108 08:49:41.698884    66 net.cpp:406] scale2b_branch2b <- res2b_branch2b
I0108 08:49:41.698889    66 net.cpp:367] scale2b_branch2b -> res2b_branch2b (in-place)
I0108 08:49:41.698935    66 layer_factory.hpp:77] Creating layer scale2b_branch2b
I0108 08:49:41.699066    66 net.cpp:122] Setting up scale2b_branch2b
I0108 08:49:41.699076    66 net.cpp:129] Top shape: 16 64 56 56 (3211264)
I0108 08:49:41.699079    66 net.cpp:137] Memory required for data: 960168192
I0108 08:49:41.699086    66 layer_factory.hpp:77] Creating layer res2b_branch2b_relu
I0108 08:49:41.699095    66 net.cpp:84] Creating Layer res2b_branch2b_relu
I0108 08:49:41.699100    66 net.cpp:406] res2b_branch2b_relu <- res2b_branch2b
I0108 08:49:41.699105    66 net.cpp:367] res2b_branch2b_relu -> res2b_branch2b (in-place)
I0108 08:49:41.699921    66 net.cpp:122] Setting up res2b_branch2b_relu
I0108 08:49:41.699939    66 net.cpp:129] Top shape: 16 64 56 56 (3211264)
I0108 08:49:41.699942    66 net.cpp:137] Memory required for data: 973013248
I0108 08:49:41.699946    66 layer_factory.hpp:77] Creating layer res2b_branch2c
I0108 08:49:41.699956    66 net.cpp:84] Creating Layer res2b_branch2c
I0108 08:49:41.699960    66 net.cpp:406] res2b_branch2c <- res2b_branch2b
I0108 08:49:41.699967    66 net.cpp:380] res2b_branch2c -> res2b_branch2c
I0108 08:49:41.701380    66 net.cpp:122] Setting up res2b_branch2c
I0108 08:49:41.701401    66 net.cpp:129] Top shape: 16 256 56 56 (12845056)
I0108 08:49:41.701422    66 net.cpp:137] Memory required for data: 1024393472
I0108 08:49:41.701431    66 layer_factory.hpp:77] Creating layer bn2b_branch2c
I0108 08:49:41.701442    66 net.cpp:84] Creating Layer bn2b_branch2c
I0108 08:49:41.701447    66 net.cpp:406] bn2b_branch2c <- res2b_branch2c
I0108 08:49:41.701452    66 net.cpp:367] bn2b_branch2c -> res2b_branch2c (in-place)
I0108 08:49:41.701673    66 net.cpp:122] Setting up bn2b_branch2c
I0108 08:49:41.701684    66 net.cpp:129] Top shape: 16 256 56 56 (12845056)
I0108 08:49:41.701689    66 net.cpp:137] Memory required for data: 1075773696
I0108 08:49:41.701699    66 layer_factory.hpp:77] Creating layer scale2b_branch2c
I0108 08:49:41.701705    66 net.cpp:84] Creating Layer scale2b_branch2c
I0108 08:49:41.701709    66 net.cpp:406] scale2b_branch2c <- res2b_branch2c
I0108 08:49:41.701714    66 net.cpp:367] scale2b_branch2c -> res2b_branch2c (in-place)
I0108 08:49:41.701761    66 layer_factory.hpp:77] Creating layer scale2b_branch2c
I0108 08:49:41.701894    66 net.cpp:122] Setting up scale2b_branch2c
I0108 08:49:41.701902    66 net.cpp:129] Top shape: 16 256 56 56 (12845056)
I0108 08:49:41.701905    66 net.cpp:137] Memory required for data: 1127153920
I0108 08:49:41.701912    66 layer_factory.hpp:77] Creating layer res2b
I0108 08:49:41.701918    66 net.cpp:84] Creating Layer res2b
I0108 08:49:41.701923    66 net.cpp:406] res2b <- res2a_res2a_relu_0_split_1
I0108 08:49:41.701928    66 net.cpp:406] res2b <- res2b_branch2c
I0108 08:49:41.701933    66 net.cpp:380] res2b -> res2b
I0108 08:49:41.701961    66 net.cpp:122] Setting up res2b
I0108 08:49:41.701967    66 net.cpp:129] Top shape: 16 256 56 56 (12845056)
I0108 08:49:41.701970    66 net.cpp:137] Memory required for data: 1178534144
I0108 08:49:41.701973    66 layer_factory.hpp:77] Creating layer res2b_relu
I0108 08:49:41.701978    66 net.cpp:84] Creating Layer res2b_relu
I0108 08:49:41.701982    66 net.cpp:406] res2b_relu <- res2b
I0108 08:49:41.701987    66 net.cpp:367] res2b_relu -> res2b (in-place)
I0108 08:49:41.702196    66 net.cpp:122] Setting up res2b_relu
I0108 08:49:41.702208    66 net.cpp:129] Top shape: 16 256 56 56 (12845056)
I0108 08:49:41.702213    66 net.cpp:137] Memory required for data: 1229914368
I0108 08:49:41.702216    66 layer_factory.hpp:77] Creating layer res2b_res2b_relu_0_split
I0108 08:49:41.702226    66 net.cpp:84] Creating Layer res2b_res2b_relu_0_split
I0108 08:49:41.702234    66 net.cpp:406] res2b_res2b_relu_0_split <- res2b
I0108 08:49:41.702239    66 net.cpp:380] res2b_res2b_relu_0_split -> res2b_res2b_relu_0_split_0
I0108 08:49:41.702245    66 net.cpp:380] res2b_res2b_relu_0_split -> res2b_res2b_relu_0_split_1
I0108 08:49:41.702291    66 net.cpp:122] Setting up res2b_res2b_relu_0_split
I0108 08:49:41.702301    66 net.cpp:129] Top shape: 16 256 56 56 (12845056)
I0108 08:49:41.702306    66 net.cpp:129] Top shape: 16 256 56 56 (12845056)
I0108 08:49:41.702308    66 net.cpp:137] Memory required for data: 1332674816
I0108 08:49:41.702312    66 layer_factory.hpp:77] Creating layer res2c_branch2a
I0108 08:49:41.702320    66 net.cpp:84] Creating Layer res2c_branch2a
I0108 08:49:41.702350    66 net.cpp:406] res2c_branch2a <- res2b_res2b_relu_0_split_0
I0108 08:49:41.702356    66 net.cpp:380] res2c_branch2a -> res2c_branch2a
I0108 08:49:41.703917    66 net.cpp:122] Setting up res2c_branch2a
I0108 08:49:41.703938    66 net.cpp:129] Top shape: 16 64 56 56 (3211264)
I0108 08:49:41.703943    66 net.cpp:137] Memory required for data: 1345519872
I0108 08:49:41.703949    66 layer_factory.hpp:77] Creating layer bn2c_branch2a
I0108 08:49:41.703958    66 net.cpp:84] Creating Layer bn2c_branch2a
I0108 08:49:41.703961    66 net.cpp:406] bn2c_branch2a <- res2c_branch2a
I0108 08:49:41.703970    66 net.cpp:367] bn2c_branch2a -> res2c_branch2a (in-place)
I0108 08:49:41.704216    66 net.cpp:122] Setting up bn2c_branch2a
I0108 08:49:41.704226    66 net.cpp:129] Top shape: 16 64 56 56 (3211264)
I0108 08:49:41.704229    66 net.cpp:137] Memory required for data: 1358364928
I0108 08:49:41.704258    66 layer_factory.hpp:77] Creating layer scale2c_branch2a
I0108 08:49:41.704269    66 net.cpp:84] Creating Layer scale2c_branch2a
I0108 08:49:41.704277    66 net.cpp:406] scale2c_branch2a <- res2c_branch2a
I0108 08:49:41.704282    66 net.cpp:367] scale2c_branch2a -> res2c_branch2a (in-place)
I0108 08:49:41.704340    66 layer_factory.hpp:77] Creating layer scale2c_branch2a
I0108 08:49:41.704486    66 net.cpp:122] Setting up scale2c_branch2a
I0108 08:49:41.704496    66 net.cpp:129] Top shape: 16 64 56 56 (3211264)
I0108 08:49:41.704500    66 net.cpp:137] Memory required for data: 1371209984
I0108 08:49:41.704507    66 layer_factory.hpp:77] Creating layer res2c_branch2a_relu
I0108 08:49:41.704516    66 net.cpp:84] Creating Layer res2c_branch2a_relu
I0108 08:49:41.704520    66 net.cpp:406] res2c_branch2a_relu <- res2c_branch2a
I0108 08:49:41.704525    66 net.cpp:367] res2c_branch2a_relu -> res2c_branch2a (in-place)
I0108 08:49:41.704744    66 net.cpp:122] Setting up res2c_branch2a_relu
I0108 08:49:41.704758    66 net.cpp:129] Top shape: 16 64 56 56 (3211264)
I0108 08:49:41.704762    66 net.cpp:137] Memory required for data: 1384055040
I0108 08:49:41.704766    66 layer_factory.hpp:77] Creating layer res2c_branch2b
I0108 08:49:41.704774    66 net.cpp:84] Creating Layer res2c_branch2b
I0108 08:49:41.704778    66 net.cpp:406] res2c_branch2b <- res2c_branch2a
I0108 08:49:41.704787    66 net.cpp:380] res2c_branch2b -> res2c_branch2b
I0108 08:49:41.706349    66 net.cpp:122] Setting up res2c_branch2b
I0108 08:49:41.706367    66 net.cpp:129] Top shape: 16 64 56 56 (3211264)
I0108 08:49:41.706372    66 net.cpp:137] Memory required for data: 1396900096
I0108 08:49:41.706377    66 layer_factory.hpp:77] Creating layer bn2c_branch2b
I0108 08:49:41.706388    66 net.cpp:84] Creating Layer bn2c_branch2b
I0108 08:49:41.706393    66 net.cpp:406] bn2c_branch2b <- res2c_branch2b
I0108 08:49:41.706403    66 net.cpp:367] bn2c_branch2b -> res2c_branch2b (in-place)
I0108 08:49:41.706648    66 net.cpp:122] Setting up bn2c_branch2b
I0108 08:49:41.706657    66 net.cpp:129] Top shape: 16 64 56 56 (3211264)
I0108 08:49:41.706661    66 net.cpp:137] Memory required for data: 1409745152
I0108 08:49:41.706671    66 layer_factory.hpp:77] Creating layer scale2c_branch2b
I0108 08:49:41.706678    66 net.cpp:84] Creating Layer scale2c_branch2b
I0108 08:49:41.706686    66 net.cpp:406] scale2c_branch2b <- res2c_branch2b
I0108 08:49:41.706692    66 net.cpp:367] scale2c_branch2b -> res2c_branch2b (in-place)
I0108 08:49:41.706743    66 layer_factory.hpp:77] Creating layer scale2c_branch2b
I0108 08:49:41.706888    66 net.cpp:122] Setting up scale2c_branch2b
I0108 08:49:41.706900    66 net.cpp:129] Top shape: 16 64 56 56 (3211264)
I0108 08:49:41.706904    66 net.cpp:137] Memory required for data: 1422590208
I0108 08:49:41.706912    66 layer_factory.hpp:77] Creating layer res2c_branch2b_relu
I0108 08:49:41.706918    66 net.cpp:84] Creating Layer res2c_branch2b_relu
I0108 08:49:41.706921    66 net.cpp:406] res2c_branch2b_relu <- res2c_branch2b
I0108 08:49:41.706926    66 net.cpp:367] res2c_branch2b_relu -> res2c_branch2b (in-place)
I0108 08:49:41.707144    66 net.cpp:122] Setting up res2c_branch2b_relu
I0108 08:49:41.707155    66 net.cpp:129] Top shape: 16 64 56 56 (3211264)
I0108 08:49:41.707159    66 net.cpp:137] Memory required for data: 1435435264
I0108 08:49:41.707162    66 layer_factory.hpp:77] Creating layer res2c_branch2c
I0108 08:49:41.707172    66 net.cpp:84] Creating Layer res2c_branch2c
I0108 08:49:41.707181    66 net.cpp:406] res2c_branch2c <- res2c_branch2b
I0108 08:49:41.707190    66 net.cpp:380] res2c_branch2c -> res2c_branch2c
I0108 08:49:41.708729    66 net.cpp:122] Setting up res2c_branch2c
I0108 08:49:41.708747    66 net.cpp:129] Top shape: 16 256 56 56 (12845056)
I0108 08:49:41.708751    66 net.cpp:137] Memory required for data: 1486815488
I0108 08:49:41.708758    66 layer_factory.hpp:77] Creating layer bn2c_branch2c
I0108 08:49:41.708768    66 net.cpp:84] Creating Layer bn2c_branch2c
I0108 08:49:41.708772    66 net.cpp:406] bn2c_branch2c <- res2c_branch2c
I0108 08:49:41.708796    66 net.cpp:367] bn2c_branch2c -> res2c_branch2c (in-place)
I0108 08:49:41.709044    66 net.cpp:122] Setting up bn2c_branch2c
I0108 08:49:41.709054    66 net.cpp:129] Top shape: 16 256 56 56 (12845056)
I0108 08:49:41.709059    66 net.cpp:137] Memory required for data: 1538195712
I0108 08:49:41.709079    66 layer_factory.hpp:77] Creating layer scale2c_branch2c
I0108 08:49:41.709089    66 net.cpp:84] Creating Layer scale2c_branch2c
I0108 08:49:41.709092    66 net.cpp:406] scale2c_branch2c <- res2c_branch2c
I0108 08:49:41.709097    66 net.cpp:367] scale2c_branch2c -> res2c_branch2c (in-place)
I0108 08:49:41.709149    66 layer_factory.hpp:77] Creating layer scale2c_branch2c
I0108 08:49:41.709290    66 net.cpp:122] Setting up scale2c_branch2c
I0108 08:49:41.709300    66 net.cpp:129] Top shape: 16 256 56 56 (12845056)
I0108 08:49:41.709303    66 net.cpp:137] Memory required for data: 1589575936
I0108 08:49:41.709311    66 layer_factory.hpp:77] Creating layer res2c
I0108 08:49:41.709316    66 net.cpp:84] Creating Layer res2c
I0108 08:49:41.709321    66 net.cpp:406] res2c <- res2b_res2b_relu_0_split_1
I0108 08:49:41.709326    66 net.cpp:406] res2c <- res2c_branch2c
I0108 08:49:41.709333    66 net.cpp:380] res2c -> res2c
I0108 08:49:41.709360    66 net.cpp:122] Setting up res2c
I0108 08:49:41.709369    66 net.cpp:129] Top shape: 16 256 56 56 (12845056)
I0108 08:49:41.709372    66 net.cpp:137] Memory required for data: 1640956160
I0108 08:49:41.709377    66 layer_factory.hpp:77] Creating layer res2c_relu
I0108 08:49:41.709384    66 net.cpp:84] Creating Layer res2c_relu
I0108 08:49:41.709388    66 net.cpp:406] res2c_relu <- res2c
I0108 08:49:41.709393    66 net.cpp:367] res2c_relu -> res2c (in-place)
I0108 08:49:41.709627    66 net.cpp:122] Setting up res2c_relu
I0108 08:49:41.709640    66 net.cpp:129] Top shape: 16 256 56 56 (12845056)
I0108 08:49:41.709645    66 net.cpp:137] Memory required for data: 1692336384
I0108 08:49:41.709647    66 layer_factory.hpp:77] Creating layer res2c_res2c_relu_0_split
I0108 08:49:41.709653    66 net.cpp:84] Creating Layer res2c_res2c_relu_0_split
I0108 08:49:41.709657    66 net.cpp:406] res2c_res2c_relu_0_split <- res2c
I0108 08:49:41.709663    66 net.cpp:380] res2c_res2c_relu_0_split -> res2c_res2c_relu_0_split_0
I0108 08:49:41.709671    66 net.cpp:380] res2c_res2c_relu_0_split -> res2c_res2c_relu_0_split_1
I0108 08:49:41.709719    66 net.cpp:122] Setting up res2c_res2c_relu_0_split
I0108 08:49:41.709728    66 net.cpp:129] Top shape: 16 256 56 56 (12845056)
I0108 08:49:41.709733    66 net.cpp:129] Top shape: 16 256 56 56 (12845056)
I0108 08:49:41.709736    66 net.cpp:137] Memory required for data: 1795096832
I0108 08:49:41.709739    66 layer_factory.hpp:77] Creating layer res3a_branch1
I0108 08:49:41.709749    66 net.cpp:84] Creating Layer res3a_branch1
I0108 08:49:41.709753    66 net.cpp:406] res3a_branch1 <- res2c_res2c_relu_0_split_0
I0108 08:49:41.709760    66 net.cpp:380] res3a_branch1 -> res3a_branch1
I0108 08:49:41.712026    66 net.cpp:122] Setting up res3a_branch1
I0108 08:49:41.712045    66 net.cpp:129] Top shape: 16 512 28 28 (6422528)
I0108 08:49:41.712049    66 net.cpp:137] Memory required for data: 1820786944
I0108 08:49:41.712056    66 layer_factory.hpp:77] Creating layer bn3a_branch1
I0108 08:49:41.712066    66 net.cpp:84] Creating Layer bn3a_branch1
I0108 08:49:41.712071    66 net.cpp:406] bn3a_branch1 <- res3a_branch1
I0108 08:49:41.712077    66 net.cpp:367] bn3a_branch1 -> res3a_branch1 (in-place)
I0108 08:49:41.713899    66 net.cpp:122] Setting up bn3a_branch1
I0108 08:49:41.713917    66 net.cpp:129] Top shape: 16 512 28 28 (6422528)
I0108 08:49:41.713920    66 net.cpp:137] Memory required for data: 1846477056
I0108 08:49:41.713930    66 layer_factory.hpp:77] Creating layer scale3a_branch1
I0108 08:49:41.713938    66 net.cpp:84] Creating Layer scale3a_branch1
I0108 08:49:41.713943    66 net.cpp:406] scale3a_branch1 <- res3a_branch1
I0108 08:49:41.713948    66 net.cpp:367] scale3a_branch1 -> res3a_branch1 (in-place)
I0108 08:49:41.714025    66 layer_factory.hpp:77] Creating layer scale3a_branch1
I0108 08:49:41.714156    66 net.cpp:122] Setting up scale3a_branch1
I0108 08:49:41.714166    66 net.cpp:129] Top shape: 16 512 28 28 (6422528)
I0108 08:49:41.714170    66 net.cpp:137] Memory required for data: 1872167168
I0108 08:49:41.714177    66 layer_factory.hpp:77] Creating layer res3a_branch2a
I0108 08:49:41.714188    66 net.cpp:84] Creating Layer res3a_branch2a
I0108 08:49:41.714195    66 net.cpp:406] res3a_branch2a <- res2c_res2c_relu_0_split_1
I0108 08:49:41.714201    66 net.cpp:380] res3a_branch2a -> res3a_branch2a
I0108 08:49:41.715781    66 net.cpp:122] Setting up res3a_branch2a
I0108 08:49:41.715800    66 net.cpp:129] Top shape: 16 128 28 28 (1605632)
I0108 08:49:41.715804    66 net.cpp:137] Memory required for data: 1878589696
I0108 08:49:41.715811    66 layer_factory.hpp:77] Creating layer bn3a_branch2a
I0108 08:49:41.715826    66 net.cpp:84] Creating Layer bn3a_branch2a
I0108 08:49:41.715829    66 net.cpp:406] bn3a_branch2a <- res3a_branch2a
I0108 08:49:41.715838    66 net.cpp:367] bn3a_branch2a -> res3a_branch2a (in-place)
I0108 08:49:41.716074    66 net.cpp:122] Setting up bn3a_branch2a
I0108 08:49:41.716084    66 net.cpp:129] Top shape: 16 128 28 28 (1605632)
I0108 08:49:41.716089    66 net.cpp:137] Memory required for data: 1885012224
I0108 08:49:41.716096    66 layer_factory.hpp:77] Creating layer scale3a_branch2a
I0108 08:49:41.716106    66 net.cpp:84] Creating Layer scale3a_branch2a
I0108 08:49:41.716110    66 net.cpp:406] scale3a_branch2a <- res3a_branch2a
I0108 08:49:41.716115    66 net.cpp:367] scale3a_branch2a -> res3a_branch2a (in-place)
I0108 08:49:41.716169    66 layer_factory.hpp:77] Creating layer scale3a_branch2a
I0108 08:49:41.716307    66 net.cpp:122] Setting up scale3a_branch2a
I0108 08:49:41.716317    66 net.cpp:129] Top shape: 16 128 28 28 (1605632)
I0108 08:49:41.716320    66 net.cpp:137] Memory required for data: 1891434752
I0108 08:49:41.716327    66 layer_factory.hpp:77] Creating layer res3a_branch2a_relu
I0108 08:49:41.716337    66 net.cpp:84] Creating Layer res3a_branch2a_relu
I0108 08:49:41.716341    66 net.cpp:406] res3a_branch2a_relu <- res3a_branch2a
I0108 08:49:41.716349    66 net.cpp:367] res3a_branch2a_relu -> res3a_branch2a (in-place)
I0108 08:49:41.717195    66 net.cpp:122] Setting up res3a_branch2a_relu
I0108 08:49:41.717211    66 net.cpp:129] Top shape: 16 128 28 28 (1605632)
I0108 08:49:41.717216    66 net.cpp:137] Memory required for data: 1897857280
I0108 08:49:41.717219    66 layer_factory.hpp:77] Creating layer res3a_branch2b
I0108 08:49:41.717231    66 net.cpp:84] Creating Layer res3a_branch2b
I0108 08:49:41.717236    66 net.cpp:406] res3a_branch2b <- res3a_branch2a
I0108 08:49:41.717243    66 net.cpp:380] res3a_branch2b -> res3a_branch2b
I0108 08:49:41.719630    66 net.cpp:122] Setting up res3a_branch2b
I0108 08:49:41.719648    66 net.cpp:129] Top shape: 16 128 28 28 (1605632)
I0108 08:49:41.719653    66 net.cpp:137] Memory required for data: 1904279808
I0108 08:49:41.719660    66 layer_factory.hpp:77] Creating layer bn3a_branch2b
I0108 08:49:41.719671    66 net.cpp:84] Creating Layer bn3a_branch2b
I0108 08:49:41.719674    66 net.cpp:406] bn3a_branch2b <- res3a_branch2b
I0108 08:49:41.719681    66 net.cpp:367] bn3a_branch2b -> res3a_branch2b (in-place)
I0108 08:49:41.719929    66 net.cpp:122] Setting up bn3a_branch2b
I0108 08:49:41.719939    66 net.cpp:129] Top shape: 16 128 28 28 (1605632)
I0108 08:49:41.719944    66 net.cpp:137] Memory required for data: 1910702336
I0108 08:49:41.719952    66 layer_factory.hpp:77] Creating layer scale3a_branch2b
I0108 08:49:41.719961    66 net.cpp:84] Creating Layer scale3a_branch2b
I0108 08:49:41.719965    66 net.cpp:406] scale3a_branch2b <- res3a_branch2b
I0108 08:49:41.719970    66 net.cpp:367] scale3a_branch2b -> res3a_branch2b (in-place)
I0108 08:49:41.720018    66 layer_factory.hpp:77] Creating layer scale3a_branch2b
I0108 08:49:41.720163    66 net.cpp:122] Setting up scale3a_branch2b
I0108 08:49:41.720172    66 net.cpp:129] Top shape: 16 128 28 28 (1605632)
I0108 08:49:41.720196    66 net.cpp:137] Memory required for data: 1917124864
I0108 08:49:41.720203    66 layer_factory.hpp:77] Creating layer res3a_branch2b_relu
I0108 08:49:41.720211    66 net.cpp:84] Creating Layer res3a_branch2b_relu
I0108 08:49:41.720213    66 net.cpp:406] res3a_branch2b_relu <- res3a_branch2b
I0108 08:49:41.720221    66 net.cpp:367] res3a_branch2b_relu -> res3a_branch2b (in-place)
I0108 08:49:41.721010    66 net.cpp:122] Setting up res3a_branch2b_relu
I0108 08:49:41.721027    66 net.cpp:129] Top shape: 16 128 28 28 (1605632)
I0108 08:49:41.721031    66 net.cpp:137] Memory required for data: 1923547392
I0108 08:49:41.721035    66 layer_factory.hpp:77] Creating layer res3a_branch2c
I0108 08:49:41.721055    66 net.cpp:84] Creating Layer res3a_branch2c
I0108 08:49:41.721060    66 net.cpp:406] res3a_branch2c <- res3a_branch2b
I0108 08:49:41.721066    66 net.cpp:380] res3a_branch2c -> res3a_branch2c
I0108 08:49:41.722316    66 net.cpp:122] Setting up res3a_branch2c
I0108 08:49:41.722348    66 net.cpp:129] Top shape: 16 512 28 28 (6422528)
I0108 08:49:41.722352    66 net.cpp:137] Memory required for data: 1949237504
I0108 08:49:41.722359    66 layer_factory.hpp:77] Creating layer bn3a_branch2c
I0108 08:49:41.722370    66 net.cpp:84] Creating Layer bn3a_branch2c
I0108 08:49:41.722374    66 net.cpp:406] bn3a_branch2c <- res3a_branch2c
I0108 08:49:41.722380    66 net.cpp:367] bn3a_branch2c -> res3a_branch2c (in-place)
I0108 08:49:41.722622    66 net.cpp:122] Setting up bn3a_branch2c
I0108 08:49:41.722632    66 net.cpp:129] Top shape: 16 512 28 28 (6422528)
I0108 08:49:41.722635    66 net.cpp:137] Memory required for data: 1974927616
I0108 08:49:41.722646    66 layer_factory.hpp:77] Creating layer scale3a_branch2c
I0108 08:49:41.722656    66 net.cpp:84] Creating Layer scale3a_branch2c
I0108 08:49:41.722659    66 net.cpp:406] scale3a_branch2c <- res3a_branch2c
I0108 08:49:41.722664    66 net.cpp:367] scale3a_branch2c -> res3a_branch2c (in-place)
I0108 08:49:41.722714    66 layer_factory.hpp:77] Creating layer scale3a_branch2c
I0108 08:49:41.722851    66 net.cpp:122] Setting up scale3a_branch2c
I0108 08:49:41.722862    66 net.cpp:129] Top shape: 16 512 28 28 (6422528)
I0108 08:49:41.722867    66 net.cpp:137] Memory required for data: 2000617728
I0108 08:49:41.722872    66 layer_factory.hpp:77] Creating layer res3a
I0108 08:49:41.722883    66 net.cpp:84] Creating Layer res3a
I0108 08:49:41.722889    66 net.cpp:406] res3a <- res3a_branch1
I0108 08:49:41.722894    66 net.cpp:406] res3a <- res3a_branch2c
I0108 08:49:41.722898    66 net.cpp:380] res3a -> res3a
I0108 08:49:41.722932    66 net.cpp:122] Setting up res3a
I0108 08:49:41.722941    66 net.cpp:129] Top shape: 16 512 28 28 (6422528)
I0108 08:49:41.722945    66 net.cpp:137] Memory required for data: 2026307840
I0108 08:49:41.722949    66 layer_factory.hpp:77] Creating layer res3a_relu
I0108 08:49:41.722956    66 net.cpp:84] Creating Layer res3a_relu
I0108 08:49:41.722960    66 net.cpp:406] res3a_relu <- res3a
I0108 08:49:41.722965    66 net.cpp:367] res3a_relu -> res3a (in-place)
I0108 08:49:41.723776    66 net.cpp:122] Setting up res3a_relu
I0108 08:49:41.723793    66 net.cpp:129] Top shape: 16 512 28 28 (6422528)
I0108 08:49:41.723798    66 net.cpp:137] Memory required for data: 2051997952
I0108 08:49:41.723801    66 layer_factory.hpp:77] Creating layer res3a_res3a_relu_0_split
I0108 08:49:41.723811    66 net.cpp:84] Creating Layer res3a_res3a_relu_0_split
I0108 08:49:41.723815    66 net.cpp:406] res3a_res3a_relu_0_split <- res3a
I0108 08:49:41.723821    66 net.cpp:380] res3a_res3a_relu_0_split -> res3a_res3a_relu_0_split_0
I0108 08:49:41.723829    66 net.cpp:380] res3a_res3a_relu_0_split -> res3a_res3a_relu_0_split_1
I0108 08:49:41.723883    66 net.cpp:122] Setting up res3a_res3a_relu_0_split
I0108 08:49:41.723892    66 net.cpp:129] Top shape: 16 512 28 28 (6422528)
I0108 08:49:41.723897    66 net.cpp:129] Top shape: 16 512 28 28 (6422528)
I0108 08:49:41.723901    66 net.cpp:137] Memory required for data: 2103378176
I0108 08:49:41.723903    66 layer_factory.hpp:77] Creating layer res3b_branch2a
I0108 08:49:41.723938    66 net.cpp:84] Creating Layer res3b_branch2a
I0108 08:49:41.723944    66 net.cpp:406] res3b_branch2a <- res3a_res3a_relu_0_split_0
I0108 08:49:41.723951    66 net.cpp:380] res3b_branch2a -> res3b_branch2a
I0108 08:49:41.725488    66 net.cpp:122] Setting up res3b_branch2a
I0108 08:49:41.725507    66 net.cpp:129] Top shape: 16 128 28 28 (1605632)
I0108 08:49:41.725510    66 net.cpp:137] Memory required for data: 2109800704
I0108 08:49:41.725517    66 layer_factory.hpp:77] Creating layer bn3b_branch2a
I0108 08:49:41.725527    66 net.cpp:84] Creating Layer bn3b_branch2a
I0108 08:49:41.725530    66 net.cpp:406] bn3b_branch2a <- res3b_branch2a
I0108 08:49:41.725538    66 net.cpp:367] bn3b_branch2a -> res3b_branch2a (in-place)
I0108 08:49:41.725775    66 net.cpp:122] Setting up bn3b_branch2a
I0108 08:49:41.725783    66 net.cpp:129] Top shape: 16 128 28 28 (1605632)
I0108 08:49:41.725787    66 net.cpp:137] Memory required for data: 2116223232
I0108 08:49:41.725796    66 layer_factory.hpp:77] Creating layer scale3b_branch2a
I0108 08:49:41.725805    66 net.cpp:84] Creating Layer scale3b_branch2a
I0108 08:49:41.725807    66 net.cpp:406] scale3b_branch2a <- res3b_branch2a
I0108 08:49:41.725814    66 net.cpp:367] scale3b_branch2a -> res3b_branch2a (in-place)
I0108 08:49:41.725862    66 layer_factory.hpp:77] Creating layer scale3b_branch2a
I0108 08:49:41.726002    66 net.cpp:122] Setting up scale3b_branch2a
I0108 08:49:41.726012    66 net.cpp:129] Top shape: 16 128 28 28 (1605632)
I0108 08:49:41.726016    66 net.cpp:137] Memory required for data: 2122645760
I0108 08:49:41.726023    66 layer_factory.hpp:77] Creating layer res3b_branch2a_relu
I0108 08:49:41.726029    66 net.cpp:84] Creating Layer res3b_branch2a_relu
I0108 08:49:41.726033    66 net.cpp:406] res3b_branch2a_relu <- res3b_branch2a
I0108 08:49:41.726037    66 net.cpp:367] res3b_branch2a_relu -> res3b_branch2a (in-place)
I0108 08:49:41.726263    66 net.cpp:122] Setting up res3b_branch2a_relu
I0108 08:49:41.726274    66 net.cpp:129] Top shape: 16 128 28 28 (1605632)
I0108 08:49:41.726277    66 net.cpp:137] Memory required for data: 2129068288
I0108 08:49:41.726281    66 layer_factory.hpp:77] Creating layer res3b_branch2b
I0108 08:49:41.726291    66 net.cpp:84] Creating Layer res3b_branch2b
I0108 08:49:41.726299    66 net.cpp:406] res3b_branch2b <- res3b_branch2a
I0108 08:49:41.726305    66 net.cpp:380] res3b_branch2b -> res3b_branch2b
I0108 08:49:41.730084    66 net.cpp:122] Setting up res3b_branch2b
I0108 08:49:41.730103    66 net.cpp:129] Top shape: 16 128 28 28 (1605632)
I0108 08:49:41.730108    66 net.cpp:137] Memory required for data: 2135490816
I0108 08:49:41.730114    66 layer_factory.hpp:77] Creating layer bn3b_branch2b
I0108 08:49:41.730124    66 net.cpp:84] Creating Layer bn3b_branch2b
I0108 08:49:41.730129    66 net.cpp:406] bn3b_branch2b <- res3b_branch2b
I0108 08:49:41.730136    66 net.cpp:367] bn3b_branch2b -> res3b_branch2b (in-place)
I0108 08:49:41.730391    66 net.cpp:122] Setting up bn3b_branch2b
I0108 08:49:41.730401    66 net.cpp:129] Top shape: 16 128 28 28 (1605632)
I0108 08:49:41.730404    66 net.cpp:137] Memory required for data: 2141913344
I0108 08:49:41.730413    66 layer_factory.hpp:77] Creating layer scale3b_branch2b
I0108 08:49:41.730422    66 net.cpp:84] Creating Layer scale3b_branch2b
I0108 08:49:41.730427    66 net.cpp:406] scale3b_branch2b <- res3b_branch2b
I0108 08:49:41.730432    66 net.cpp:367] scale3b_branch2b -> res3b_branch2b (in-place)
I0108 08:49:41.730480    66 layer_factory.hpp:77] Creating layer scale3b_branch2b
I0108 08:49:41.730623    66 net.cpp:122] Setting up scale3b_branch2b
I0108 08:49:41.730633    66 net.cpp:129] Top shape: 16 128 28 28 (1605632)
I0108 08:49:41.730635    66 net.cpp:137] Memory required for data: 2148335872
I0108 08:49:41.730643    66 layer_factory.hpp:77] Creating layer res3b_branch2b_relu
I0108 08:49:41.730649    66 net.cpp:84] Creating Layer res3b_branch2b_relu
I0108 08:49:41.730654    66 net.cpp:406] res3b_branch2b_relu <- res3b_branch2b
I0108 08:49:41.730686    66 net.cpp:367] res3b_branch2b_relu -> res3b_branch2b (in-place)
I0108 08:49:41.730924    66 net.cpp:122] Setting up res3b_branch2b_relu
I0108 08:49:41.730936    66 net.cpp:129] Top shape: 16 128 28 28 (1605632)
I0108 08:49:41.730940    66 net.cpp:137] Memory required for data: 2154758400
I0108 08:49:41.730943    66 layer_factory.hpp:77] Creating layer res3b_branch2c
I0108 08:49:41.730954    66 net.cpp:84] Creating Layer res3b_branch2c
I0108 08:49:41.730958    66 net.cpp:406] res3b_branch2c <- res3b_branch2b
I0108 08:49:41.730964    66 net.cpp:380] res3b_branch2c -> res3b_branch2c
I0108 08:49:41.732555    66 net.cpp:122] Setting up res3b_branch2c
I0108 08:49:41.732573    66 net.cpp:129] Top shape: 16 512 28 28 (6422528)
I0108 08:49:41.732578    66 net.cpp:137] Memory required for data: 2180448512
I0108 08:49:41.732583    66 layer_factory.hpp:77] Creating layer bn3b_branch2c
I0108 08:49:41.732594    66 net.cpp:84] Creating Layer bn3b_branch2c
I0108 08:49:41.732599    66 net.cpp:406] bn3b_branch2c <- res3b_branch2c
I0108 08:49:41.732604    66 net.cpp:367] bn3b_branch2c -> res3b_branch2c (in-place)
I0108 08:49:41.732843    66 net.cpp:122] Setting up bn3b_branch2c
I0108 08:49:41.732853    66 net.cpp:129] Top shape: 16 512 28 28 (6422528)
I0108 08:49:41.732857    66 net.cpp:137] Memory required for data: 2206138624
I0108 08:49:41.732866    66 layer_factory.hpp:77] Creating layer scale3b_branch2c
I0108 08:49:41.732875    66 net.cpp:84] Creating Layer scale3b_branch2c
I0108 08:49:41.732879    66 net.cpp:406] scale3b_branch2c <- res3b_branch2c
I0108 08:49:41.732884    66 net.cpp:367] scale3b_branch2c -> res3b_branch2c (in-place)
I0108 08:49:41.732935    66 layer_factory.hpp:77] Creating layer scale3b_branch2c
I0108 08:49:41.733070    66 net.cpp:122] Setting up scale3b_branch2c
I0108 08:49:41.733079    66 net.cpp:129] Top shape: 16 512 28 28 (6422528)
I0108 08:49:41.733083    66 net.cpp:137] Memory required for data: 2231828736
I0108 08:49:41.733089    66 layer_factory.hpp:77] Creating layer res3b
I0108 08:49:41.733098    66 net.cpp:84] Creating Layer res3b
I0108 08:49:41.733101    66 net.cpp:406] res3b <- res3a_res3a_relu_0_split_1
I0108 08:49:41.733106    66 net.cpp:406] res3b <- res3b_branch2c
I0108 08:49:41.733114    66 net.cpp:380] res3b -> res3b
I0108 08:49:41.733151    66 net.cpp:122] Setting up res3b
I0108 08:49:41.733165    66 net.cpp:129] Top shape: 16 512 28 28 (6422528)
I0108 08:49:41.733168    66 net.cpp:137] Memory required for data: 2257518848
I0108 08:49:41.733171    66 layer_factory.hpp:77] Creating layer res3b_relu
I0108 08:49:41.733177    66 net.cpp:84] Creating Layer res3b_relu
I0108 08:49:41.733180    66 net.cpp:406] res3b_relu <- res3b
I0108 08:49:41.733186    66 net.cpp:367] res3b_relu -> res3b (in-place)
I0108 08:49:41.733402    66 net.cpp:122] Setting up res3b_relu
I0108 08:49:41.733413    66 net.cpp:129] Top shape: 16 512 28 28 (6422528)
I0108 08:49:41.733417    66 net.cpp:137] Memory required for data: 2283208960
I0108 08:49:41.733419    66 layer_factory.hpp:77] Creating layer res3b_res3b_relu_0_split
I0108 08:49:41.733428    66 net.cpp:84] Creating Layer res3b_res3b_relu_0_split
I0108 08:49:41.733433    66 net.cpp:406] res3b_res3b_relu_0_split <- res3b
I0108 08:49:41.733438    66 net.cpp:380] res3b_res3b_relu_0_split -> res3b_res3b_relu_0_split_0
I0108 08:49:41.733444    66 net.cpp:380] res3b_res3b_relu_0_split -> res3b_res3b_relu_0_split_1
I0108 08:49:41.733495    66 net.cpp:122] Setting up res3b_res3b_relu_0_split
I0108 08:49:41.733503    66 net.cpp:129] Top shape: 16 512 28 28 (6422528)
I0108 08:49:41.733508    66 net.cpp:129] Top shape: 16 512 28 28 (6422528)
I0108 08:49:41.733512    66 net.cpp:137] Memory required for data: 2334589184
I0108 08:49:41.733515    66 layer_factory.hpp:77] Creating layer res3c_branch2a
I0108 08:49:41.733525    66 net.cpp:84] Creating Layer res3c_branch2a
I0108 08:49:41.733532    66 net.cpp:406] res3c_branch2a <- res3b_res3b_relu_0_split_0
I0108 08:49:41.733538    66 net.cpp:380] res3c_branch2a -> res3c_branch2a
I0108 08:49:41.735126    66 net.cpp:122] Setting up res3c_branch2a
I0108 08:49:41.735163    66 net.cpp:129] Top shape: 16 128 28 28 (1605632)
I0108 08:49:41.735167    66 net.cpp:137] Memory required for data: 2341011712
I0108 08:49:41.735174    66 layer_factory.hpp:77] Creating layer bn3c_branch2a
I0108 08:49:41.735183    66 net.cpp:84] Creating Layer bn3c_branch2a
I0108 08:49:41.735186    66 net.cpp:406] bn3c_branch2a <- res3c_branch2a
I0108 08:49:41.735194    66 net.cpp:367] bn3c_branch2a -> res3c_branch2a (in-place)
I0108 08:49:41.735432    66 net.cpp:122] Setting up bn3c_branch2a
I0108 08:49:41.735442    66 net.cpp:129] Top shape: 16 128 28 28 (1605632)
I0108 08:49:41.735446    66 net.cpp:137] Memory required for data: 2347434240
I0108 08:49:41.735455    66 layer_factory.hpp:77] Creating layer scale3c_branch2a
I0108 08:49:41.735461    66 net.cpp:84] Creating Layer scale3c_branch2a
I0108 08:49:41.735466    66 net.cpp:406] scale3c_branch2a <- res3c_branch2a
I0108 08:49:41.735473    66 net.cpp:367] scale3c_branch2a -> res3c_branch2a (in-place)
I0108 08:49:41.735519    66 layer_factory.hpp:77] Creating layer scale3c_branch2a
I0108 08:49:41.735657    66 net.cpp:122] Setting up scale3c_branch2a
I0108 08:49:41.735667    66 net.cpp:129] Top shape: 16 128 28 28 (1605632)
I0108 08:49:41.735671    66 net.cpp:137] Memory required for data: 2353856768
I0108 08:49:41.735678    66 layer_factory.hpp:77] Creating layer res3c_branch2a_relu
I0108 08:49:41.735687    66 net.cpp:84] Creating Layer res3c_branch2a_relu
I0108 08:49:41.735690    66 net.cpp:406] res3c_branch2a_relu <- res3c_branch2a
I0108 08:49:41.735695    66 net.cpp:367] res3c_branch2a_relu -> res3c_branch2a (in-place)
I0108 08:49:41.735927    66 net.cpp:122] Setting up res3c_branch2a_relu
I0108 08:49:41.735939    66 net.cpp:129] Top shape: 16 128 28 28 (1605632)
I0108 08:49:41.735942    66 net.cpp:137] Memory required for data: 2360279296
I0108 08:49:41.735945    66 layer_factory.hpp:77] Creating layer res3c_branch2b
I0108 08:49:41.735958    66 net.cpp:84] Creating Layer res3c_branch2b
I0108 08:49:41.735962    66 net.cpp:406] res3c_branch2b <- res3c_branch2a
I0108 08:49:41.735968    66 net.cpp:380] res3c_branch2b -> res3c_branch2b
I0108 08:49:41.738209    66 net.cpp:122] Setting up res3c_branch2b
I0108 08:49:41.738226    66 net.cpp:129] Top shape: 16 128 28 28 (1605632)
I0108 08:49:41.738230    66 net.cpp:137] Memory required for data: 2366701824
I0108 08:49:41.738237    66 layer_factory.hpp:77] Creating layer bn3c_branch2b
I0108 08:49:41.738247    66 net.cpp:84] Creating Layer bn3c_branch2b
I0108 08:49:41.738252    66 net.cpp:406] bn3c_branch2b <- res3c_branch2b
I0108 08:49:41.738258    66 net.cpp:367] bn3c_branch2b -> res3c_branch2b (in-place)
I0108 08:49:41.738513    66 net.cpp:122] Setting up bn3c_branch2b
I0108 08:49:41.738526    66 net.cpp:129] Top shape: 16 128 28 28 (1605632)
I0108 08:49:41.738530    66 net.cpp:137] Memory required for data: 2373124352
I0108 08:49:41.738538    66 layer_factory.hpp:77] Creating layer scale3c_branch2b
I0108 08:49:41.738545    66 net.cpp:84] Creating Layer scale3c_branch2b
I0108 08:49:41.738549    66 net.cpp:406] scale3c_branch2b <- res3c_branch2b
I0108 08:49:41.738554    66 net.cpp:367] scale3c_branch2b -> res3c_branch2b (in-place)
I0108 08:49:41.738605    66 layer_factory.hpp:77] Creating layer scale3c_branch2b
I0108 08:49:41.738760    66 net.cpp:122] Setting up scale3c_branch2b
I0108 08:49:41.738770    66 net.cpp:129] Top shape: 16 128 28 28 (1605632)
I0108 08:49:41.738773    66 net.cpp:137] Memory required for data: 2379546880
I0108 08:49:41.738780    66 layer_factory.hpp:77] Creating layer res3c_branch2b_relu
I0108 08:49:41.738788    66 net.cpp:84] Creating Layer res3c_branch2b_relu
I0108 08:49:41.738792    66 net.cpp:406] res3c_branch2b_relu <- res3c_branch2b
I0108 08:49:41.738797    66 net.cpp:367] res3c_branch2b_relu -> res3c_branch2b (in-place)
I0108 08:49:41.739591    66 net.cpp:122] Setting up res3c_branch2b_relu
I0108 08:49:41.739609    66 net.cpp:129] Top shape: 16 128 28 28 (1605632)
I0108 08:49:41.739614    66 net.cpp:137] Memory required for data: 2385969408
I0108 08:49:41.739634    66 layer_factory.hpp:77] Creating layer res3c_branch2c
I0108 08:49:41.739646    66 net.cpp:84] Creating Layer res3c_branch2c
I0108 08:49:41.739651    66 net.cpp:406] res3c_branch2c <- res3c_branch2b
I0108 08:49:41.739660    66 net.cpp:380] res3c_branch2c -> res3c_branch2c
I0108 08:49:41.740674    66 net.cpp:122] Setting up res3c_branch2c
I0108 08:49:41.740690    66 net.cpp:129] Top shape: 16 512 28 28 (6422528)
I0108 08:49:41.740694    66 net.cpp:137] Memory required for data: 2411659520
I0108 08:49:41.740700    66 layer_factory.hpp:77] Creating layer bn3c_branch2c
I0108 08:49:41.740707    66 net.cpp:84] Creating Layer bn3c_branch2c
I0108 08:49:41.740715    66 net.cpp:406] bn3c_branch2c <- res3c_branch2c
I0108 08:49:41.740721    66 net.cpp:367] bn3c_branch2c -> res3c_branch2c (in-place)
I0108 08:49:41.740972    66 net.cpp:122] Setting up bn3c_branch2c
I0108 08:49:41.740981    66 net.cpp:129] Top shape: 16 512 28 28 (6422528)
I0108 08:49:41.740984    66 net.cpp:137] Memory required for data: 2437349632
I0108 08:49:41.740993    66 layer_factory.hpp:77] Creating layer scale3c_branch2c
I0108 08:49:41.741000    66 net.cpp:84] Creating Layer scale3c_branch2c
I0108 08:49:41.741003    66 net.cpp:406] scale3c_branch2c <- res3c_branch2c
I0108 08:49:41.741008    66 net.cpp:367] scale3c_branch2c -> res3c_branch2c (in-place)
I0108 08:49:41.741060    66 layer_factory.hpp:77] Creating layer scale3c_branch2c
I0108 08:49:41.741197    66 net.cpp:122] Setting up scale3c_branch2c
I0108 08:49:41.741206    66 net.cpp:129] Top shape: 16 512 28 28 (6422528)
I0108 08:49:41.741210    66 net.cpp:137] Memory required for data: 2463039744
I0108 08:49:41.741217    66 layer_factory.hpp:77] Creating layer res3c
I0108 08:49:41.741225    66 net.cpp:84] Creating Layer res3c
I0108 08:49:41.741230    66 net.cpp:406] res3c <- res3b_res3b_relu_0_split_1
I0108 08:49:41.741235    66 net.cpp:406] res3c <- res3c_branch2c
I0108 08:49:41.741240    66 net.cpp:380] res3c -> res3c
I0108 08:49:41.741269    66 net.cpp:122] Setting up res3c
I0108 08:49:41.741278    66 net.cpp:129] Top shape: 16 512 28 28 (6422528)
I0108 08:49:41.741282    66 net.cpp:137] Memory required for data: 2488729856
I0108 08:49:41.741286    66 layer_factory.hpp:77] Creating layer res3c_relu
I0108 08:49:41.741292    66 net.cpp:84] Creating Layer res3c_relu
I0108 08:49:41.741295    66 net.cpp:406] res3c_relu <- res3c
I0108 08:49:41.741303    66 net.cpp:367] res3c_relu -> res3c (in-place)
I0108 08:49:41.742099    66 net.cpp:122] Setting up res3c_relu
I0108 08:49:41.742115    66 net.cpp:129] Top shape: 16 512 28 28 (6422528)
I0108 08:49:41.742120    66 net.cpp:137] Memory required for data: 2514419968
I0108 08:49:41.742125    66 layer_factory.hpp:77] Creating layer res3c_res3c_relu_0_split
I0108 08:49:41.742131    66 net.cpp:84] Creating Layer res3c_res3c_relu_0_split
I0108 08:49:41.742136    66 net.cpp:406] res3c_res3c_relu_0_split <- res3c
I0108 08:49:41.742148    66 net.cpp:380] res3c_res3c_relu_0_split -> res3c_res3c_relu_0_split_0
I0108 08:49:41.742156    66 net.cpp:380] res3c_res3c_relu_0_split -> res3c_res3c_relu_0_split_1
I0108 08:49:41.742209    66 net.cpp:122] Setting up res3c_res3c_relu_0_split
I0108 08:49:41.742218    66 net.cpp:129] Top shape: 16 512 28 28 (6422528)
I0108 08:49:41.742223    66 net.cpp:129] Top shape: 16 512 28 28 (6422528)
I0108 08:49:41.742226    66 net.cpp:137] Memory required for data: 2565800192
I0108 08:49:41.742229    66 layer_factory.hpp:77] Creating layer res3d_branch2a
I0108 08:49:41.742239    66 net.cpp:84] Creating Layer res3d_branch2a
I0108 08:49:41.742245    66 net.cpp:406] res3d_branch2a <- res3c_res3c_relu_0_split_0
I0108 08:49:41.742251    66 net.cpp:380] res3d_branch2a -> res3d_branch2a
I0108 08:49:41.745523    66 net.cpp:122] Setting up res3d_branch2a
I0108 08:49:41.745543    66 net.cpp:129] Top shape: 16 128 28 28 (1605632)
I0108 08:49:41.745548    66 net.cpp:137] Memory required for data: 2572222720
I0108 08:49:41.745554    66 layer_factory.hpp:77] Creating layer bn3d_branch2a
I0108 08:49:41.745564    66 net.cpp:84] Creating Layer bn3d_branch2a
I0108 08:49:41.745587    66 net.cpp:406] bn3d_branch2a <- res3d_branch2a
I0108 08:49:41.745594    66 net.cpp:367] bn3d_branch2a -> res3d_branch2a (in-place)
I0108 08:49:41.745842    66 net.cpp:122] Setting up bn3d_branch2a
I0108 08:49:41.745852    66 net.cpp:129] Top shape: 16 128 28 28 (1605632)
I0108 08:49:41.745857    66 net.cpp:137] Memory required for data: 2578645248
I0108 08:49:41.745905    66 layer_factory.hpp:77] Creating layer scale3d_branch2a
I0108 08:49:41.745913    66 net.cpp:84] Creating Layer scale3d_branch2a
I0108 08:49:41.745916    66 net.cpp:406] scale3d_branch2a <- res3d_branch2a
I0108 08:49:41.745923    66 net.cpp:367] scale3d_branch2a -> res3d_branch2a (in-place)
I0108 08:49:41.745985    66 layer_factory.hpp:77] Creating layer scale3d_branch2a
I0108 08:49:41.746143    66 net.cpp:122] Setting up scale3d_branch2a
I0108 08:49:41.746157    66 net.cpp:129] Top shape: 16 128 28 28 (1605632)
I0108 08:49:41.746161    66 net.cpp:137] Memory required for data: 2585067776
I0108 08:49:41.746168    66 layer_factory.hpp:77] Creating layer res3d_branch2a_relu
I0108 08:49:41.746174    66 net.cpp:84] Creating Layer res3d_branch2a_relu
I0108 08:49:41.746178    66 net.cpp:406] res3d_branch2a_relu <- res3d_branch2a
I0108 08:49:41.746186    66 net.cpp:367] res3d_branch2a_relu -> res3d_branch2a (in-place)
I0108 08:49:41.746435    66 net.cpp:122] Setting up res3d_branch2a_relu
I0108 08:49:41.746448    66 net.cpp:129] Top shape: 16 128 28 28 (1605632)
I0108 08:49:41.746453    66 net.cpp:137] Memory required for data: 2591490304
I0108 08:49:41.746456    66 layer_factory.hpp:77] Creating layer res3d_branch2b
I0108 08:49:41.746466    66 net.cpp:84] Creating Layer res3d_branch2b
I0108 08:49:41.746472    66 net.cpp:406] res3d_branch2b <- res3d_branch2a
I0108 08:49:41.746479    66 net.cpp:380] res3d_branch2b -> res3d_branch2b
I0108 08:49:41.748728    66 net.cpp:122] Setting up res3d_branch2b
I0108 08:49:41.748746    66 net.cpp:129] Top shape: 16 128 28 28 (1605632)
I0108 08:49:41.748750    66 net.cpp:137] Memory required for data: 2597912832
I0108 08:49:41.748757    66 layer_factory.hpp:77] Creating layer bn3d_branch2b
I0108 08:49:41.748767    66 net.cpp:84] Creating Layer bn3d_branch2b
I0108 08:49:41.748771    66 net.cpp:406] bn3d_branch2b <- res3d_branch2b
I0108 08:49:41.748778    66 net.cpp:367] bn3d_branch2b -> res3d_branch2b (in-place)
I0108 08:49:41.749037    66 net.cpp:122] Setting up bn3d_branch2b
I0108 08:49:41.749047    66 net.cpp:129] Top shape: 16 128 28 28 (1605632)
I0108 08:49:41.749050    66 net.cpp:137] Memory required for data: 2604335360
I0108 08:49:41.749058    66 layer_factory.hpp:77] Creating layer scale3d_branch2b
I0108 08:49:41.749065    66 net.cpp:84] Creating Layer scale3d_branch2b
I0108 08:49:41.749069    66 net.cpp:406] scale3d_branch2b <- res3d_branch2b
I0108 08:49:41.749073    66 net.cpp:367] scale3d_branch2b -> res3d_branch2b (in-place)
I0108 08:49:41.749130    66 layer_factory.hpp:77] Creating layer scale3d_branch2b
I0108 08:49:41.749272    66 net.cpp:122] Setting up scale3d_branch2b
I0108 08:49:41.749282    66 net.cpp:129] Top shape: 16 128 28 28 (1605632)
I0108 08:49:41.749285    66 net.cpp:137] Memory required for data: 2610757888
I0108 08:49:41.749294    66 layer_factory.hpp:77] Creating layer res3d_branch2b_relu
I0108 08:49:41.749300    66 net.cpp:84] Creating Layer res3d_branch2b_relu
I0108 08:49:41.749302    66 net.cpp:406] res3d_branch2b_relu <- res3d_branch2b
I0108 08:49:41.749310    66 net.cpp:367] res3d_branch2b_relu -> res3d_branch2b (in-place)
I0108 08:49:41.749570    66 net.cpp:122] Setting up res3d_branch2b_relu
I0108 08:49:41.749585    66 net.cpp:129] Top shape: 16 128 28 28 (1605632)
I0108 08:49:41.749591    66 net.cpp:137] Memory required for data: 2617180416
I0108 08:49:41.749598    66 layer_factory.hpp:77] Creating layer res3d_branch2c
I0108 08:49:41.749613    66 net.cpp:84] Creating Layer res3d_branch2c
I0108 08:49:41.749619    66 net.cpp:406] res3d_branch2c <- res3d_branch2b
I0108 08:49:41.749629    66 net.cpp:380] res3d_branch2c -> res3d_branch2c
I0108 08:49:41.751451    66 net.cpp:122] Setting up res3d_branch2c
I0108 08:49:41.751472    66 net.cpp:129] Top shape: 16 512 28 28 (6422528)
I0108 08:49:41.751479    66 net.cpp:137] Memory required for data: 2642870528
I0108 08:49:41.751490    66 layer_factory.hpp:77] Creating layer bn3d_branch2c
I0108 08:49:41.751507    66 net.cpp:84] Creating Layer bn3d_branch2c
I0108 08:49:41.751515    66 net.cpp:406] bn3d_branch2c <- res3d_branch2c
I0108 08:49:41.751524    66 net.cpp:367] bn3d_branch2c -> res3d_branch2c (in-place)
I0108 08:49:41.751785    66 net.cpp:122] Setting up bn3d_branch2c
I0108 08:49:41.751796    66 net.cpp:129] Top shape: 16 512 28 28 (6422528)
I0108 08:49:41.751802    66 net.cpp:137] Memory required for data: 2668560640
I0108 08:49:41.751817    66 layer_factory.hpp:77] Creating layer scale3d_branch2c
I0108 08:49:41.751828    66 net.cpp:84] Creating Layer scale3d_branch2c
I0108 08:49:41.751835    66 net.cpp:406] scale3d_branch2c <- res3d_branch2c
I0108 08:49:41.751843    66 net.cpp:367] scale3d_branch2c -> res3d_branch2c (in-place)
I0108 08:49:41.751910    66 layer_factory.hpp:77] Creating layer scale3d_branch2c
I0108 08:49:41.752064    66 net.cpp:122] Setting up scale3d_branch2c
I0108 08:49:41.752075    66 net.cpp:129] Top shape: 16 512 28 28 (6422528)
I0108 08:49:41.752081    66 net.cpp:137] Memory required for data: 2694250752
I0108 08:49:41.752092    66 layer_factory.hpp:77] Creating layer res3d
I0108 08:49:41.752102    66 net.cpp:84] Creating Layer res3d
I0108 08:49:41.752110    66 net.cpp:406] res3d <- res3c_res3c_relu_0_split_1
I0108 08:49:41.752117    66 net.cpp:406] res3d <- res3d_branch2c
I0108 08:49:41.752130    66 net.cpp:380] res3d -> res3d
I0108 08:49:41.752167    66 net.cpp:122] Setting up res3d
I0108 08:49:41.752177    66 net.cpp:129] Top shape: 16 512 28 28 (6422528)
I0108 08:49:41.752185    66 net.cpp:137] Memory required for data: 2719940864
I0108 08:49:41.752190    66 layer_factory.hpp:77] Creating layer res3d_relu
I0108 08:49:41.752202    66 net.cpp:84] Creating Layer res3d_relu
I0108 08:49:41.752208    66 net.cpp:406] res3d_relu <- res3d
I0108 08:49:41.752216    66 net.cpp:367] res3d_relu -> res3d (in-place)
I0108 08:49:41.752463    66 net.cpp:122] Setting up res3d_relu
I0108 08:49:41.752478    66 net.cpp:129] Top shape: 16 512 28 28 (6422528)
I0108 08:49:41.752485    66 net.cpp:137] Memory required for data: 2745630976
I0108 08:49:41.752490    66 layer_factory.hpp:77] Creating layer res3d_res3d_relu_0_split
I0108 08:49:41.752516    66 net.cpp:84] Creating Layer res3d_res3d_relu_0_split
I0108 08:49:41.752522    66 net.cpp:406] res3d_res3d_relu_0_split <- res3d
I0108 08:49:41.752532    66 net.cpp:380] res3d_res3d_relu_0_split -> res3d_res3d_relu_0_split_0
I0108 08:49:41.752542    66 net.cpp:380] res3d_res3d_relu_0_split -> res3d_res3d_relu_0_split_1
I0108 08:49:41.752605    66 net.cpp:122] Setting up res3d_res3d_relu_0_split
I0108 08:49:41.752616    66 net.cpp:129] Top shape: 16 512 28 28 (6422528)
I0108 08:49:41.752624    66 net.cpp:129] Top shape: 16 512 28 28 (6422528)
I0108 08:49:41.752631    66 net.cpp:137] Memory required for data: 2797011200
I0108 08:49:41.752636    66 layer_factory.hpp:77] Creating layer res4a_branch1
I0108 08:49:41.752650    66 net.cpp:84] Creating Layer res4a_branch1
I0108 08:49:41.752656    66 net.cpp:406] res4a_branch1 <- res3d_res3d_relu_0_split_0
I0108 08:49:41.752665    66 net.cpp:380] res4a_branch1 -> res4a_branch1
I0108 08:49:41.756219    66 net.cpp:122] Setting up res4a_branch1
I0108 08:49:41.756242    66 net.cpp:129] Top shape: 16 1024 14 14 (3211264)
I0108 08:49:41.756247    66 net.cpp:137] Memory required for data: 2809856256
I0108 08:49:41.756258    66 layer_factory.hpp:77] Creating layer bn4a_branch1
I0108 08:49:41.756275    66 net.cpp:84] Creating Layer bn4a_branch1
I0108 08:49:41.756283    66 net.cpp:406] bn4a_branch1 <- res4a_branch1
I0108 08:49:41.756292    66 net.cpp:367] bn4a_branch1 -> res4a_branch1 (in-place)
I0108 08:49:41.756575    66 net.cpp:122] Setting up bn4a_branch1
I0108 08:49:41.756587    66 net.cpp:129] Top shape: 16 1024 14 14 (3211264)
I0108 08:49:41.756614    66 net.cpp:137] Memory required for data: 2822701312
I0108 08:49:41.756631    66 layer_factory.hpp:77] Creating layer scale4a_branch1
I0108 08:49:41.756644    66 net.cpp:84] Creating Layer scale4a_branch1
I0108 08:49:41.756652    66 net.cpp:406] scale4a_branch1 <- res4a_branch1
I0108 08:49:41.756660    66 net.cpp:367] scale4a_branch1 -> res4a_branch1 (in-place)
I0108 08:49:41.756721    66 layer_factory.hpp:77] Creating layer scale4a_branch1
I0108 08:49:41.756880    66 net.cpp:122] Setting up scale4a_branch1
I0108 08:49:41.756892    66 net.cpp:129] Top shape: 16 1024 14 14 (3211264)
I0108 08:49:41.756897    66 net.cpp:137] Memory required for data: 2835546368
I0108 08:49:41.756909    66 layer_factory.hpp:77] Creating layer res4a_branch2a
I0108 08:49:41.756924    66 net.cpp:84] Creating Layer res4a_branch2a
I0108 08:49:41.756932    66 net.cpp:406] res4a_branch2a <- res3d_res3d_relu_0_split_1
I0108 08:49:41.756944    66 net.cpp:380] res4a_branch2a -> res4a_branch2a
I0108 08:49:41.760296    66 net.cpp:122] Setting up res4a_branch2a
I0108 08:49:41.760318    66 net.cpp:129] Top shape: 16 256 14 14 (802816)
I0108 08:49:41.760324    66 net.cpp:137] Memory required for data: 2838757632
I0108 08:49:41.760335    66 layer_factory.hpp:77] Creating layer bn4a_branch2a
I0108 08:49:41.760352    66 net.cpp:84] Creating Layer bn4a_branch2a
I0108 08:49:41.760361    66 net.cpp:406] bn4a_branch2a <- res4a_branch2a
I0108 08:49:41.760373    66 net.cpp:367] bn4a_branch2a -> res4a_branch2a (in-place)
I0108 08:49:41.760637    66 net.cpp:122] Setting up bn4a_branch2a
I0108 08:49:41.760648    66 net.cpp:129] Top shape: 16 256 14 14 (802816)
I0108 08:49:41.760654    66 net.cpp:137] Memory required for data: 2841968896
I0108 08:49:41.760669    66 layer_factory.hpp:77] Creating layer scale4a_branch2a
I0108 08:49:41.760682    66 net.cpp:84] Creating Layer scale4a_branch2a
I0108 08:49:41.760689    66 net.cpp:406] scale4a_branch2a <- res4a_branch2a
I0108 08:49:41.760697    66 net.cpp:367] scale4a_branch2a -> res4a_branch2a (in-place)
I0108 08:49:41.760759    66 layer_factory.hpp:77] Creating layer scale4a_branch2a
I0108 08:49:41.760920    66 net.cpp:122] Setting up scale4a_branch2a
I0108 08:49:41.760931    66 net.cpp:129] Top shape: 16 256 14 14 (802816)
I0108 08:49:41.760937    66 net.cpp:137] Memory required for data: 2845180160
I0108 08:49:41.760948    66 layer_factory.hpp:77] Creating layer res4a_branch2a_relu
I0108 08:49:41.760962    66 net.cpp:84] Creating Layer res4a_branch2a_relu
I0108 08:49:41.760969    66 net.cpp:406] res4a_branch2a_relu <- res4a_branch2a
I0108 08:49:41.760977    66 net.cpp:367] res4a_branch2a_relu -> res4a_branch2a (in-place)
I0108 08:49:41.761210    66 net.cpp:122] Setting up res4a_branch2a_relu
I0108 08:49:41.761224    66 net.cpp:129] Top shape: 16 256 14 14 (802816)
I0108 08:49:41.761229    66 net.cpp:137] Memory required for data: 2848391424
I0108 08:49:41.761235    66 layer_factory.hpp:77] Creating layer res4a_branch2b
I0108 08:49:41.761251    66 net.cpp:84] Creating Layer res4a_branch2b
I0108 08:49:41.761258    66 net.cpp:406] res4a_branch2b <- res4a_branch2a
I0108 08:49:41.761276    66 net.cpp:380] res4a_branch2b -> res4a_branch2b
I0108 08:49:41.765681    66 net.cpp:122] Setting up res4a_branch2b
I0108 08:49:41.765702    66 net.cpp:129] Top shape: 16 256 14 14 (802816)
I0108 08:49:41.765705    66 net.cpp:137] Memory required for data: 2851602688
I0108 08:49:41.765715    66 layer_factory.hpp:77] Creating layer bn4a_branch2b
I0108 08:49:41.765723    66 net.cpp:84] Creating Layer bn4a_branch2b
I0108 08:49:41.765727    66 net.cpp:406] bn4a_branch2b <- res4a_branch2b
I0108 08:49:41.765736    66 net.cpp:367] bn4a_branch2b -> res4a_branch2b (in-place)
I0108 08:49:41.765998    66 net.cpp:122] Setting up bn4a_branch2b
I0108 08:49:41.766007    66 net.cpp:129] Top shape: 16 256 14 14 (802816)
I0108 08:49:41.766011    66 net.cpp:137] Memory required for data: 2854813952
I0108 08:49:41.766019    66 layer_factory.hpp:77] Creating layer scale4a_branch2b
I0108 08:49:41.766028    66 net.cpp:84] Creating Layer scale4a_branch2b
I0108 08:49:41.766050    66 net.cpp:406] scale4a_branch2b <- res4a_branch2b
I0108 08:49:41.766057    66 net.cpp:367] scale4a_branch2b -> res4a_branch2b (in-place)
I0108 08:49:41.766113    66 layer_factory.hpp:77] Creating layer scale4a_branch2b
I0108 08:49:41.766263    66 net.cpp:122] Setting up scale4a_branch2b
I0108 08:49:41.766273    66 net.cpp:129] Top shape: 16 256 14 14 (802816)
I0108 08:49:41.766275    66 net.cpp:137] Memory required for data: 2858025216
I0108 08:49:41.766283    66 layer_factory.hpp:77] Creating layer res4a_branch2b_relu
I0108 08:49:41.766291    66 net.cpp:84] Creating Layer res4a_branch2b_relu
I0108 08:49:41.766295    66 net.cpp:406] res4a_branch2b_relu <- res4a_branch2b
I0108 08:49:41.766301    66 net.cpp:367] res4a_branch2b_relu -> res4a_branch2b (in-place)
I0108 08:49:41.766551    66 net.cpp:122] Setting up res4a_branch2b_relu
I0108 08:49:41.766564    66 net.cpp:129] Top shape: 16 256 14 14 (802816)
I0108 08:49:41.766567    66 net.cpp:137] Memory required for data: 2861236480
I0108 08:49:41.766571    66 layer_factory.hpp:77] Creating layer res4a_branch2c
I0108 08:49:41.766582    66 net.cpp:84] Creating Layer res4a_branch2c
I0108 08:49:41.766585    66 net.cpp:406] res4a_branch2c <- res4a_branch2b
I0108 08:49:41.766592    66 net.cpp:380] res4a_branch2c -> res4a_branch2c
I0108 08:49:41.768434    66 net.cpp:122] Setting up res4a_branch2c
I0108 08:49:41.768452    66 net.cpp:129] Top shape: 16 1024 14 14 (3211264)
I0108 08:49:41.768456    66 net.cpp:137] Memory required for data: 2874081536
I0108 08:49:41.768463    66 layer_factory.hpp:77] Creating layer bn4a_branch2c
I0108 08:49:41.768482    66 net.cpp:84] Creating Layer bn4a_branch2c
I0108 08:49:41.768486    66 net.cpp:406] bn4a_branch2c <- res4a_branch2c
I0108 08:49:41.768492    66 net.cpp:367] bn4a_branch2c -> res4a_branch2c (in-place)
I0108 08:49:41.768764    66 net.cpp:122] Setting up bn4a_branch2c
I0108 08:49:41.768775    66 net.cpp:129] Top shape: 16 1024 14 14 (3211264)
I0108 08:49:41.768779    66 net.cpp:137] Memory required for data: 2886926592
I0108 08:49:41.768788    66 layer_factory.hpp:77] Creating layer scale4a_branch2c
I0108 08:49:41.768797    66 net.cpp:84] Creating Layer scale4a_branch2c
I0108 08:49:41.768802    66 net.cpp:406] scale4a_branch2c <- res4a_branch2c
I0108 08:49:41.768807    66 net.cpp:367] scale4a_branch2c -> res4a_branch2c (in-place)
I0108 08:49:41.768856    66 layer_factory.hpp:77] Creating layer scale4a_branch2c
I0108 08:49:41.769042    66 net.cpp:122] Setting up scale4a_branch2c
I0108 08:49:41.769053    66 net.cpp:129] Top shape: 16 1024 14 14 (3211264)
I0108 08:49:41.769057    66 net.cpp:137] Memory required for data: 2899771648
I0108 08:49:41.769063    66 layer_factory.hpp:77] Creating layer res4a
I0108 08:49:41.769069    66 net.cpp:84] Creating Layer res4a
I0108 08:49:41.769074    66 net.cpp:406] res4a <- res4a_branch1
I0108 08:49:41.769079    66 net.cpp:406] res4a <- res4a_branch2c
I0108 08:49:41.769086    66 net.cpp:380] res4a -> res4a
I0108 08:49:41.769119    66 net.cpp:122] Setting up res4a
I0108 08:49:41.769130    66 net.cpp:129] Top shape: 16 1024 14 14 (3211264)
I0108 08:49:41.769134    66 net.cpp:137] Memory required for data: 2912616704
I0108 08:49:41.769137    66 layer_factory.hpp:77] Creating layer res4a_relu
I0108 08:49:41.769143    66 net.cpp:84] Creating Layer res4a_relu
I0108 08:49:41.769147    66 net.cpp:406] res4a_relu <- res4a
I0108 08:49:41.769151    66 net.cpp:367] res4a_relu -> res4a (in-place)
I0108 08:49:41.769996    66 net.cpp:122] Setting up res4a_relu
I0108 08:49:41.770014    66 net.cpp:129] Top shape: 16 1024 14 14 (3211264)
I0108 08:49:41.770017    66 net.cpp:137] Memory required for data: 2925461760
I0108 08:49:41.770021    66 layer_factory.hpp:77] Creating layer res4a_res4a_relu_0_split
I0108 08:49:41.770047    66 net.cpp:84] Creating Layer res4a_res4a_relu_0_split
I0108 08:49:41.770052    66 net.cpp:406] res4a_res4a_relu_0_split <- res4a
I0108 08:49:41.770059    66 net.cpp:380] res4a_res4a_relu_0_split -> res4a_res4a_relu_0_split_0
I0108 08:49:41.770067    66 net.cpp:380] res4a_res4a_relu_0_split -> res4a_res4a_relu_0_split_1
I0108 08:49:41.770149    66 net.cpp:122] Setting up res4a_res4a_relu_0_split
I0108 08:49:41.770161    66 net.cpp:129] Top shape: 16 1024 14 14 (3211264)
I0108 08:49:41.770166    66 net.cpp:129] Top shape: 16 1024 14 14 (3211264)
I0108 08:49:41.770170    66 net.cpp:137] Memory required for data: 2951151872
I0108 08:49:41.770174    66 layer_factory.hpp:77] Creating layer res4b_branch2a
I0108 08:49:41.770182    66 net.cpp:84] Creating Layer res4b_branch2a
I0108 08:49:41.770186    66 net.cpp:406] res4b_branch2a <- res4a_res4a_relu_0_split_0
I0108 08:49:41.770193    66 net.cpp:380] res4b_branch2a -> res4b_branch2a
I0108 08:49:41.774273    66 net.cpp:122] Setting up res4b_branch2a
I0108 08:49:41.774291    66 net.cpp:129] Top shape: 16 256 14 14 (802816)
I0108 08:49:41.774296    66 net.cpp:137] Memory required for data: 2954363136
I0108 08:49:41.774303    66 layer_factory.hpp:77] Creating layer bn4b_branch2a
I0108 08:49:41.774318    66 net.cpp:84] Creating Layer bn4b_branch2a
I0108 08:49:41.774351    66 net.cpp:406] bn4b_branch2a <- res4b_branch2a
I0108 08:49:41.774358    66 net.cpp:367] bn4b_branch2a -> res4b_branch2a (in-place)
I0108 08:49:41.774619    66 net.cpp:122] Setting up bn4b_branch2a
I0108 08:49:41.774629    66 net.cpp:129] Top shape: 16 256 14 14 (802816)
I0108 08:49:41.774633    66 net.cpp:137] Memory required for data: 2957574400
I0108 08:49:41.774641    66 layer_factory.hpp:77] Creating layer scale4b_branch2a
I0108 08:49:41.774648    66 net.cpp:84] Creating Layer scale4b_branch2a
I0108 08:49:41.774652    66 net.cpp:406] scale4b_branch2a <- res4b_branch2a
I0108 08:49:41.774657    66 net.cpp:367] scale4b_branch2a -> res4b_branch2a (in-place)
I0108 08:49:41.774713    66 layer_factory.hpp:77] Creating layer scale4b_branch2a
I0108 08:49:41.774879    66 net.cpp:122] Setting up scale4b_branch2a
I0108 08:49:41.774890    66 net.cpp:129] Top shape: 16 256 14 14 (802816)
I0108 08:49:41.774894    66 net.cpp:137] Memory required for data: 2960785664
I0108 08:49:41.774901    66 layer_factory.hpp:77] Creating layer res4b_branch2a_relu
I0108 08:49:41.774909    66 net.cpp:84] Creating Layer res4b_branch2a_relu
I0108 08:49:41.774911    66 net.cpp:406] res4b_branch2a_relu <- res4b_branch2a
I0108 08:49:41.774919    66 net.cpp:367] res4b_branch2a_relu -> res4b_branch2a (in-place)
I0108 08:49:41.775154    66 net.cpp:122] Setting up res4b_branch2a_relu
I0108 08:49:41.775166    66 net.cpp:129] Top shape: 16 256 14 14 (802816)
I0108 08:49:41.775171    66 net.cpp:137] Memory required for data: 2963996928
I0108 08:49:41.775173    66 layer_factory.hpp:77] Creating layer res4b_branch2b
I0108 08:49:41.775183    66 net.cpp:84] Creating Layer res4b_branch2b
I0108 08:49:41.775187    66 net.cpp:406] res4b_branch2b <- res4b_branch2a
I0108 08:49:41.775193    66 net.cpp:380] res4b_branch2b -> res4b_branch2b
I0108 08:49:41.779671    66 net.cpp:122] Setting up res4b_branch2b
I0108 08:49:41.779690    66 net.cpp:129] Top shape: 16 256 14 14 (802816)
I0108 08:49:41.779695    66 net.cpp:137] Memory required for data: 2967208192
I0108 08:49:41.779702    66 layer_factory.hpp:77] Creating layer bn4b_branch2b
I0108 08:49:41.779711    66 net.cpp:84] Creating Layer bn4b_branch2b
I0108 08:49:41.779716    66 net.cpp:406] bn4b_branch2b <- res4b_branch2b
I0108 08:49:41.779721    66 net.cpp:367] bn4b_branch2b -> res4b_branch2b (in-place)
I0108 08:49:41.779997    66 net.cpp:122] Setting up bn4b_branch2b
I0108 08:49:41.780009    66 net.cpp:129] Top shape: 16 256 14 14 (802816)
I0108 08:49:41.780011    66 net.cpp:137] Memory required for data: 2970419456
I0108 08:49:41.780020    66 layer_factory.hpp:77] Creating layer scale4b_branch2b
I0108 08:49:41.780030    66 net.cpp:84] Creating Layer scale4b_branch2b
I0108 08:49:41.780033    66 net.cpp:406] scale4b_branch2b <- res4b_branch2b
I0108 08:49:41.780038    66 net.cpp:367] scale4b_branch2b -> res4b_branch2b (in-place)
I0108 08:49:41.780093    66 layer_factory.hpp:77] Creating layer scale4b_branch2b
I0108 08:49:41.780244    66 net.cpp:122] Setting up scale4b_branch2b
I0108 08:49:41.780277    66 net.cpp:129] Top shape: 16 256 14 14 (802816)
I0108 08:49:41.780282    66 net.cpp:137] Memory required for data: 2973630720
I0108 08:49:41.780288    66 layer_factory.hpp:77] Creating layer res4b_branch2b_relu
I0108 08:49:41.780295    66 net.cpp:84] Creating Layer res4b_branch2b_relu
I0108 08:49:41.780299    66 net.cpp:406] res4b_branch2b_relu <- res4b_branch2b
I0108 08:49:41.780306    66 net.cpp:367] res4b_branch2b_relu -> res4b_branch2b (in-place)
I0108 08:49:41.780550    66 net.cpp:122] Setting up res4b_branch2b_relu
I0108 08:49:41.780560    66 net.cpp:129] Top shape: 16 256 14 14 (802816)
I0108 08:49:41.780565    66 net.cpp:137] Memory required for data: 2976841984
I0108 08:49:41.780568    66 layer_factory.hpp:77] Creating layer res4b_branch2c
I0108 08:49:41.780576    66 net.cpp:84] Creating Layer res4b_branch2c
I0108 08:49:41.780580    66 net.cpp:406] res4b_branch2c <- res4b_branch2b
I0108 08:49:41.780588    66 net.cpp:380] res4b_branch2c -> res4b_branch2c
I0108 08:49:41.782405    66 net.cpp:122] Setting up res4b_branch2c
I0108 08:49:41.782423    66 net.cpp:129] Top shape: 16 1024 14 14 (3211264)
I0108 08:49:41.782428    66 net.cpp:137] Memory required for data: 2989687040
I0108 08:49:41.782435    66 layer_factory.hpp:77] Creating layer bn4b_branch2c
I0108 08:49:41.782446    66 net.cpp:84] Creating Layer bn4b_branch2c
I0108 08:49:41.782451    66 net.cpp:406] bn4b_branch2c <- res4b_branch2c
I0108 08:49:41.782459    66 net.cpp:367] bn4b_branch2c -> res4b_branch2c (in-place)
I0108 08:49:41.782727    66 net.cpp:122] Setting up bn4b_branch2c
I0108 08:49:41.782737    66 net.cpp:129] Top shape: 16 1024 14 14 (3211264)
I0108 08:49:41.782742    66 net.cpp:137] Memory required for data: 3002532096
I0108 08:49:41.782750    66 layer_factory.hpp:77] Creating layer scale4b_branch2c
I0108 08:49:41.782759    66 net.cpp:84] Creating Layer scale4b_branch2c
I0108 08:49:41.782763    66 net.cpp:406] scale4b_branch2c <- res4b_branch2c
I0108 08:49:41.782768    66 net.cpp:367] scale4b_branch2c -> res4b_branch2c (in-place)
I0108 08:49:41.782819    66 layer_factory.hpp:77] Creating layer scale4b_branch2c
I0108 08:49:41.782989    66 net.cpp:122] Setting up scale4b_branch2c
I0108 08:49:41.782999    66 net.cpp:129] Top shape: 16 1024 14 14 (3211264)
I0108 08:49:41.783002    66 net.cpp:137] Memory required for data: 3015377152
I0108 08:49:41.783010    66 layer_factory.hpp:77] Creating layer res4b
I0108 08:49:41.783016    66 net.cpp:84] Creating Layer res4b
I0108 08:49:41.783021    66 net.cpp:406] res4b <- res4a_res4a_relu_0_split_1
I0108 08:49:41.783026    66 net.cpp:406] res4b <- res4b_branch2c
I0108 08:49:41.783035    66 net.cpp:380] res4b -> res4b
I0108 08:49:41.783072    66 net.cpp:122] Setting up res4b
I0108 08:49:41.783082    66 net.cpp:129] Top shape: 16 1024 14 14 (3211264)
I0108 08:49:41.783084    66 net.cpp:137] Memory required for data: 3028222208
I0108 08:49:41.783088    66 layer_factory.hpp:77] Creating layer res4b_relu
I0108 08:49:41.783093    66 net.cpp:84] Creating Layer res4b_relu
I0108 08:49:41.783097    66 net.cpp:406] res4b_relu <- res4b
I0108 08:49:41.783102    66 net.cpp:367] res4b_relu -> res4b (in-place)
I0108 08:49:41.783325    66 net.cpp:122] Setting up res4b_relu
I0108 08:49:41.783336    66 net.cpp:129] Top shape: 16 1024 14 14 (3211264)
I0108 08:49:41.783340    66 net.cpp:137] Memory required for data: 3041067264
I0108 08:49:41.783344    66 layer_factory.hpp:77] Creating layer res4b_res4b_relu_0_split
I0108 08:49:41.783352    66 net.cpp:84] Creating Layer res4b_res4b_relu_0_split
I0108 08:49:41.783356    66 net.cpp:406] res4b_res4b_relu_0_split <- res4b
I0108 08:49:41.783362    66 net.cpp:380] res4b_res4b_relu_0_split -> res4b_res4b_relu_0_split_0
I0108 08:49:41.783380    66 net.cpp:380] res4b_res4b_relu_0_split -> res4b_res4b_relu_0_split_1
I0108 08:49:41.783442    66 net.cpp:122] Setting up res4b_res4b_relu_0_split
I0108 08:49:41.783450    66 net.cpp:129] Top shape: 16 1024 14 14 (3211264)
I0108 08:49:41.783455    66 net.cpp:129] Top shape: 16 1024 14 14 (3211264)
I0108 08:49:41.783481    66 net.cpp:137] Memory required for data: 3066757376
I0108 08:49:41.783488    66 layer_factory.hpp:77] Creating layer res4c_branch2a
I0108 08:49:41.783501    66 net.cpp:84] Creating Layer res4c_branch2a
I0108 08:49:41.783507    66 net.cpp:406] res4c_branch2a <- res4b_res4b_relu_0_split_0
I0108 08:49:41.783515    66 net.cpp:380] res4c_branch2a -> res4c_branch2a
I0108 08:49:41.786908    66 net.cpp:122] Setting up res4c_branch2a
I0108 08:49:41.786931    66 net.cpp:129] Top shape: 16 256 14 14 (802816)
I0108 08:49:41.786936    66 net.cpp:137] Memory required for data: 3069968640
I0108 08:49:41.786943    66 layer_factory.hpp:77] Creating layer bn4c_branch2a
I0108 08:49:41.786953    66 net.cpp:84] Creating Layer bn4c_branch2a
I0108 08:49:41.786958    66 net.cpp:406] bn4c_branch2a <- res4c_branch2a
I0108 08:49:41.786967    66 net.cpp:367] bn4c_branch2a -> res4c_branch2a (in-place)
I0108 08:49:41.787233    66 net.cpp:122] Setting up bn4c_branch2a
I0108 08:49:41.787243    66 net.cpp:129] Top shape: 16 256 14 14 (802816)
I0108 08:49:41.787246    66 net.cpp:137] Memory required for data: 3073179904
I0108 08:49:41.787256    66 layer_factory.hpp:77] Creating layer scale4c_branch2a
I0108 08:49:41.787264    66 net.cpp:84] Creating Layer scale4c_branch2a
I0108 08:49:41.787268    66 net.cpp:406] scale4c_branch2a <- res4c_branch2a
I0108 08:49:41.787273    66 net.cpp:367] scale4c_branch2a -> res4c_branch2a (in-place)
I0108 08:49:41.787329    66 layer_factory.hpp:77] Creating layer scale4c_branch2a
I0108 08:49:41.787489    66 net.cpp:122] Setting up scale4c_branch2a
I0108 08:49:41.787499    66 net.cpp:129] Top shape: 16 256 14 14 (802816)
I0108 08:49:41.787503    66 net.cpp:137] Memory required for data: 3076391168
I0108 08:49:41.787510    66 layer_factory.hpp:77] Creating layer res4c_branch2a_relu
I0108 08:49:41.787519    66 net.cpp:84] Creating Layer res4c_branch2a_relu
I0108 08:49:41.787528    66 net.cpp:406] res4c_branch2a_relu <- res4c_branch2a
I0108 08:49:41.787533    66 net.cpp:367] res4c_branch2a_relu -> res4c_branch2a (in-place)
I0108 08:49:41.787765    66 net.cpp:122] Setting up res4c_branch2a_relu
I0108 08:49:41.787775    66 net.cpp:129] Top shape: 16 256 14 14 (802816)
I0108 08:49:41.787780    66 net.cpp:137] Memory required for data: 3079602432
I0108 08:49:41.787782    66 layer_factory.hpp:77] Creating layer res4c_branch2b
I0108 08:49:41.787793    66 net.cpp:84] Creating Layer res4c_branch2b
I0108 08:49:41.787798    66 net.cpp:406] res4c_branch2b <- res4c_branch2a
I0108 08:49:41.787803    66 net.cpp:380] res4c_branch2b -> res4c_branch2b
I0108 08:49:41.792270    66 net.cpp:122] Setting up res4c_branch2b
I0108 08:49:41.792290    66 net.cpp:129] Top shape: 16 256 14 14 (802816)
I0108 08:49:41.792294    66 net.cpp:137] Memory required for data: 3082813696
I0108 08:49:41.792301    66 layer_factory.hpp:77] Creating layer bn4c_branch2b
I0108 08:49:41.792312    66 net.cpp:84] Creating Layer bn4c_branch2b
I0108 08:49:41.792316    66 net.cpp:406] bn4c_branch2b <- res4c_branch2b
I0108 08:49:41.792330    66 net.cpp:367] bn4c_branch2b -> res4c_branch2b (in-place)
I0108 08:49:41.792598    66 net.cpp:122] Setting up bn4c_branch2b
I0108 08:49:41.792608    66 net.cpp:129] Top shape: 16 256 14 14 (802816)
I0108 08:49:41.792613    66 net.cpp:137] Memory required for data: 3086024960
I0108 08:49:41.792621    66 layer_factory.hpp:77] Creating layer scale4c_branch2b
I0108 08:49:41.792630    66 net.cpp:84] Creating Layer scale4c_branch2b
I0108 08:49:41.792634    66 net.cpp:406] scale4c_branch2b <- res4c_branch2b
I0108 08:49:41.792639    66 net.cpp:367] scale4c_branch2b -> res4c_branch2b (in-place)
I0108 08:49:41.792695    66 layer_factory.hpp:77] Creating layer scale4c_branch2b
I0108 08:49:41.792842    66 net.cpp:122] Setting up scale4c_branch2b
I0108 08:49:41.792851    66 net.cpp:129] Top shape: 16 256 14 14 (802816)
I0108 08:49:41.792855    66 net.cpp:137] Memory required for data: 3089236224
I0108 08:49:41.792863    66 layer_factory.hpp:77] Creating layer res4c_branch2b_relu
I0108 08:49:41.792870    66 net.cpp:84] Creating Layer res4c_branch2b_relu
I0108 08:49:41.792899    66 net.cpp:406] res4c_branch2b_relu <- res4c_branch2b
I0108 08:49:41.792908    66 net.cpp:367] res4c_branch2b_relu -> res4c_branch2b (in-place)
I0108 08:49:41.793148    66 net.cpp:122] Setting up res4c_branch2b_relu
I0108 08:49:41.793159    66 net.cpp:129] Top shape: 16 256 14 14 (802816)
I0108 08:49:41.793164    66 net.cpp:137] Memory required for data: 3092447488
I0108 08:49:41.793167    66 layer_factory.hpp:77] Creating layer res4c_branch2c
I0108 08:49:41.793177    66 net.cpp:84] Creating Layer res4c_branch2c
I0108 08:49:41.793181    66 net.cpp:406] res4c_branch2c <- res4c_branch2b
I0108 08:49:41.793187    66 net.cpp:380] res4c_branch2c -> res4c_branch2c
I0108 08:49:41.794999    66 net.cpp:122] Setting up res4c_branch2c
I0108 08:49:41.795017    66 net.cpp:129] Top shape: 16 1024 14 14 (3211264)
I0108 08:49:41.795022    66 net.cpp:137] Memory required for data: 3105292544
I0108 08:49:41.795028    66 layer_factory.hpp:77] Creating layer bn4c_branch2c
I0108 08:49:41.795037    66 net.cpp:84] Creating Layer bn4c_branch2c
I0108 08:49:41.795040    66 net.cpp:406] bn4c_branch2c <- res4c_branch2c
I0108 08:49:41.795047    66 net.cpp:367] bn4c_branch2c -> res4c_branch2c (in-place)
I0108 08:49:41.795332    66 net.cpp:122] Setting up bn4c_branch2c
I0108 08:49:41.795342    66 net.cpp:129] Top shape: 16 1024 14 14 (3211264)
I0108 08:49:41.795346    66 net.cpp:137] Memory required for data: 3118137600
I0108 08:49:41.795356    66 layer_factory.hpp:77] Creating layer scale4c_branch2c
I0108 08:49:41.795362    66 net.cpp:84] Creating Layer scale4c_branch2c
I0108 08:49:41.795366    66 net.cpp:406] scale4c_branch2c <- res4c_branch2c
I0108 08:49:41.795373    66 net.cpp:367] scale4c_branch2c -> res4c_branch2c (in-place)
I0108 08:49:41.795423    66 layer_factory.hpp:77] Creating layer scale4c_branch2c
I0108 08:49:41.795586    66 net.cpp:122] Setting up scale4c_branch2c
I0108 08:49:41.795600    66 net.cpp:129] Top shape: 16 1024 14 14 (3211264)
I0108 08:49:41.795604    66 net.cpp:137] Memory required for data: 3130982656
I0108 08:49:41.795611    66 layer_factory.hpp:77] Creating layer res4c
I0108 08:49:41.795617    66 net.cpp:84] Creating Layer res4c
I0108 08:49:41.795621    66 net.cpp:406] res4c <- res4b_res4b_relu_0_split_1
I0108 08:49:41.795626    66 net.cpp:406] res4c <- res4c_branch2c
I0108 08:49:41.795631    66 net.cpp:380] res4c -> res4c
I0108 08:49:41.795668    66 net.cpp:122] Setting up res4c
I0108 08:49:41.795678    66 net.cpp:129] Top shape: 16 1024 14 14 (3211264)
I0108 08:49:41.795681    66 net.cpp:137] Memory required for data: 3143827712
I0108 08:49:41.795686    66 layer_factory.hpp:77] Creating layer res4c_relu
I0108 08:49:41.795693    66 net.cpp:84] Creating Layer res4c_relu
I0108 08:49:41.795697    66 net.cpp:406] res4c_relu <- res4c
I0108 08:49:41.795702    66 net.cpp:367] res4c_relu -> res4c (in-place)
I0108 08:49:41.796535    66 net.cpp:122] Setting up res4c_relu
I0108 08:49:41.796551    66 net.cpp:129] Top shape: 16 1024 14 14 (3211264)
I0108 08:49:41.796555    66 net.cpp:137] Memory required for data: 3156672768
I0108 08:49:41.796560    66 layer_factory.hpp:77] Creating layer res4c_res4c_relu_0_split
I0108 08:49:41.796566    66 net.cpp:84] Creating Layer res4c_res4c_relu_0_split
I0108 08:49:41.796571    66 net.cpp:406] res4c_res4c_relu_0_split <- res4c
I0108 08:49:41.796578    66 net.cpp:380] res4c_res4c_relu_0_split -> res4c_res4c_relu_0_split_0
I0108 08:49:41.796586    66 net.cpp:380] res4c_res4c_relu_0_split -> res4c_res4c_relu_0_split_1
I0108 08:49:41.796644    66 net.cpp:122] Setting up res4c_res4c_relu_0_split
I0108 08:49:41.796655    66 net.cpp:129] Top shape: 16 1024 14 14 (3211264)
I0108 08:49:41.796660    66 net.cpp:129] Top shape: 16 1024 14 14 (3211264)
I0108 08:49:41.796663    66 net.cpp:137] Memory required for data: 3182362880
I0108 08:49:41.796666    66 layer_factory.hpp:77] Creating layer res4d_branch2a
I0108 08:49:41.796674    66 net.cpp:84] Creating Layer res4d_branch2a
I0108 08:49:41.796679    66 net.cpp:406] res4d_branch2a <- res4c_res4c_relu_0_split_0
I0108 08:49:41.796710    66 net.cpp:380] res4d_branch2a -> res4d_branch2a
I0108 08:49:41.800132    66 net.cpp:122] Setting up res4d_branch2a
I0108 08:49:41.800151    66 net.cpp:129] Top shape: 16 256 14 14 (802816)
I0108 08:49:41.800155    66 net.cpp:137] Memory required for data: 3185574144
I0108 08:49:41.800163    66 layer_factory.hpp:77] Creating layer bn4d_branch2a
I0108 08:49:41.800173    66 net.cpp:84] Creating Layer bn4d_branch2a
I0108 08:49:41.800179    66 net.cpp:406] bn4d_branch2a <- res4d_branch2a
I0108 08:49:41.800184    66 net.cpp:367] bn4d_branch2a -> res4d_branch2a (in-place)
I0108 08:49:41.800447    66 net.cpp:122] Setting up bn4d_branch2a
I0108 08:49:41.800457    66 net.cpp:129] Top shape: 16 256 14 14 (802816)
I0108 08:49:41.800460    66 net.cpp:137] Memory required for data: 3188785408
I0108 08:49:41.800468    66 layer_factory.hpp:77] Creating layer scale4d_branch2a
I0108 08:49:41.800475    66 net.cpp:84] Creating Layer scale4d_branch2a
I0108 08:49:41.800479    66 net.cpp:406] scale4d_branch2a <- res4d_branch2a
I0108 08:49:41.800487    66 net.cpp:367] scale4d_branch2a -> res4d_branch2a (in-place)
I0108 08:49:41.800540    66 layer_factory.hpp:77] Creating layer scale4d_branch2a
I0108 08:49:41.800691    66 net.cpp:122] Setting up scale4d_branch2a
I0108 08:49:41.800700    66 net.cpp:129] Top shape: 16 256 14 14 (802816)
I0108 08:49:41.800704    66 net.cpp:137] Memory required for data: 3191996672
I0108 08:49:41.800711    66 layer_factory.hpp:77] Creating layer res4d_branch2a_relu
I0108 08:49:41.800721    66 net.cpp:84] Creating Layer res4d_branch2a_relu
I0108 08:49:41.800725    66 net.cpp:406] res4d_branch2a_relu <- res4d_branch2a
I0108 08:49:41.800729    66 net.cpp:367] res4d_branch2a_relu -> res4d_branch2a (in-place)
I0108 08:49:41.800967    66 net.cpp:122] Setting up res4d_branch2a_relu
I0108 08:49:41.800978    66 net.cpp:129] Top shape: 16 256 14 14 (802816)
I0108 08:49:41.800982    66 net.cpp:137] Memory required for data: 3195207936
I0108 08:49:41.800985    66 layer_factory.hpp:77] Creating layer res4d_branch2b
I0108 08:49:41.800999    66 net.cpp:84] Creating Layer res4d_branch2b
I0108 08:49:41.801003    66 net.cpp:406] res4d_branch2b <- res4d_branch2a
I0108 08:49:41.801009    66 net.cpp:380] res4d_branch2b -> res4d_branch2b
I0108 08:49:41.805466    66 net.cpp:122] Setting up res4d_branch2b
I0108 08:49:41.805485    66 net.cpp:129] Top shape: 16 256 14 14 (802816)
I0108 08:49:41.805490    66 net.cpp:137] Memory required for data: 3198419200
I0108 08:49:41.805497    66 layer_factory.hpp:77] Creating layer bn4d_branch2b
I0108 08:49:41.805507    66 net.cpp:84] Creating Layer bn4d_branch2b
I0108 08:49:41.805512    66 net.cpp:406] bn4d_branch2b <- res4d_branch2b
I0108 08:49:41.805519    66 net.cpp:367] bn4d_branch2b -> res4d_branch2b (in-place)
I0108 08:49:41.805800    66 net.cpp:122] Setting up bn4d_branch2b
I0108 08:49:41.805811    66 net.cpp:129] Top shape: 16 256 14 14 (802816)
I0108 08:49:41.805815    66 net.cpp:137] Memory required for data: 3201630464
I0108 08:49:41.805824    66 layer_factory.hpp:77] Creating layer scale4d_branch2b
I0108 08:49:41.805831    66 net.cpp:84] Creating Layer scale4d_branch2b
I0108 08:49:41.805835    66 net.cpp:406] scale4d_branch2b <- res4d_branch2b
I0108 08:49:41.805843    66 net.cpp:367] scale4d_branch2b -> res4d_branch2b (in-place)
I0108 08:49:41.805896    66 layer_factory.hpp:77] Creating layer scale4d_branch2b
I0108 08:49:41.806067    66 net.cpp:122] Setting up scale4d_branch2b
I0108 08:49:41.806078    66 net.cpp:129] Top shape: 16 256 14 14 (802816)
I0108 08:49:41.806082    66 net.cpp:137] Memory required for data: 3204841728
I0108 08:49:41.806090    66 layer_factory.hpp:77] Creating layer res4d_branch2b_relu
I0108 08:49:41.806097    66 net.cpp:84] Creating Layer res4d_branch2b_relu
I0108 08:49:41.806100    66 net.cpp:406] res4d_branch2b_relu <- res4d_branch2b
I0108 08:49:41.806105    66 net.cpp:367] res4d_branch2b_relu -> res4d_branch2b (in-place)
I0108 08:49:41.806390    66 net.cpp:122] Setting up res4d_branch2b_relu
I0108 08:49:41.806402    66 net.cpp:129] Top shape: 16 256 14 14 (802816)
I0108 08:49:41.806423    66 net.cpp:137] Memory required for data: 3208052992
I0108 08:49:41.806428    66 layer_factory.hpp:77] Creating layer res4d_branch2c
I0108 08:49:41.806440    66 net.cpp:84] Creating Layer res4d_branch2c
I0108 08:49:41.806445    66 net.cpp:406] res4d_branch2c <- res4d_branch2b
I0108 08:49:41.806452    66 net.cpp:380] res4d_branch2c -> res4d_branch2c
I0108 08:49:41.808302    66 net.cpp:122] Setting up res4d_branch2c
I0108 08:49:41.808320    66 net.cpp:129] Top shape: 16 1024 14 14 (3211264)
I0108 08:49:41.808326    66 net.cpp:137] Memory required for data: 3220898048
I0108 08:49:41.808332    66 layer_factory.hpp:77] Creating layer bn4d_branch2c
I0108 08:49:41.808341    66 net.cpp:84] Creating Layer bn4d_branch2c
I0108 08:49:41.808346    66 net.cpp:406] bn4d_branch2c <- res4d_branch2c
I0108 08:49:41.808352    66 net.cpp:367] bn4d_branch2c -> res4d_branch2c (in-place)
I0108 08:49:41.808624    66 net.cpp:122] Setting up bn4d_branch2c
I0108 08:49:41.808634    66 net.cpp:129] Top shape: 16 1024 14 14 (3211264)
I0108 08:49:41.808637    66 net.cpp:137] Memory required for data: 3233743104
I0108 08:49:41.808646    66 layer_factory.hpp:77] Creating layer scale4d_branch2c
I0108 08:49:41.808652    66 net.cpp:84] Creating Layer scale4d_branch2c
I0108 08:49:41.808656    66 net.cpp:406] scale4d_branch2c <- res4d_branch2c
I0108 08:49:41.808661    66 net.cpp:367] scale4d_branch2c -> res4d_branch2c (in-place)
I0108 08:49:41.808727    66 layer_factory.hpp:77] Creating layer scale4d_branch2c
I0108 08:49:41.808898    66 net.cpp:122] Setting up scale4d_branch2c
I0108 08:49:41.808908    66 net.cpp:129] Top shape: 16 1024 14 14 (3211264)
I0108 08:49:41.808912    66 net.cpp:137] Memory required for data: 3246588160
I0108 08:49:41.808918    66 layer_factory.hpp:77] Creating layer res4d
I0108 08:49:41.808926    66 net.cpp:84] Creating Layer res4d
I0108 08:49:41.808931    66 net.cpp:406] res4d <- res4c_res4c_relu_0_split_1
I0108 08:49:41.808935    66 net.cpp:406] res4d <- res4d_branch2c
I0108 08:49:41.808941    66 net.cpp:380] res4d -> res4d
I0108 08:49:41.808972    66 net.cpp:122] Setting up res4d
I0108 08:49:41.808980    66 net.cpp:129] Top shape: 16 1024 14 14 (3211264)
I0108 08:49:41.808984    66 net.cpp:137] Memory required for data: 3259433216
I0108 08:49:41.808989    66 layer_factory.hpp:77] Creating layer res4d_relu
I0108 08:49:41.808996    66 net.cpp:84] Creating Layer res4d_relu
I0108 08:49:41.809000    66 net.cpp:406] res4d_relu <- res4d
I0108 08:49:41.809006    66 net.cpp:367] res4d_relu -> res4d (in-place)
I0108 08:49:41.809236    66 net.cpp:122] Setting up res4d_relu
I0108 08:49:41.809247    66 net.cpp:129] Top shape: 16 1024 14 14 (3211264)
I0108 08:49:41.809252    66 net.cpp:137] Memory required for data: 3272278272
I0108 08:49:41.809254    66 layer_factory.hpp:77] Creating layer res4d_res4d_relu_0_split
I0108 08:49:41.809260    66 net.cpp:84] Creating Layer res4d_res4d_relu_0_split
I0108 08:49:41.809263    66 net.cpp:406] res4d_res4d_relu_0_split <- res4d
I0108 08:49:41.809269    66 net.cpp:380] res4d_res4d_relu_0_split -> res4d_res4d_relu_0_split_0
I0108 08:49:41.809276    66 net.cpp:380] res4d_res4d_relu_0_split -> res4d_res4d_relu_0_split_1
I0108 08:49:41.809334    66 net.cpp:122] Setting up res4d_res4d_relu_0_split
I0108 08:49:41.809342    66 net.cpp:129] Top shape: 16 1024 14 14 (3211264)
I0108 08:49:41.809347    66 net.cpp:129] Top shape: 16 1024 14 14 (3211264)
I0108 08:49:41.809350    66 net.cpp:137] Memory required for data: 3297968384
I0108 08:49:41.809353    66 layer_factory.hpp:77] Creating layer res4e_branch2a
I0108 08:49:41.809365    66 net.cpp:84] Creating Layer res4e_branch2a
I0108 08:49:41.809370    66 net.cpp:406] res4e_branch2a <- res4d_res4d_relu_0_split_0
I0108 08:49:41.809378    66 net.cpp:380] res4e_branch2a -> res4e_branch2a
I0108 08:49:41.812800    66 net.cpp:122] Setting up res4e_branch2a
I0108 08:49:41.812819    66 net.cpp:129] Top shape: 16 256 14 14 (802816)
I0108 08:49:41.812824    66 net.cpp:137] Memory required for data: 3301179648
I0108 08:49:41.812831    66 layer_factory.hpp:77] Creating layer bn4e_branch2a
I0108 08:49:41.812860    66 net.cpp:84] Creating Layer bn4e_branch2a
I0108 08:49:41.812865    66 net.cpp:406] bn4e_branch2a <- res4e_branch2a
I0108 08:49:41.812872    66 net.cpp:367] bn4e_branch2a -> res4e_branch2a (in-place)
I0108 08:49:41.813139    66 net.cpp:122] Setting up bn4e_branch2a
I0108 08:49:41.813149    66 net.cpp:129] Top shape: 16 256 14 14 (802816)
I0108 08:49:41.813153    66 net.cpp:137] Memory required for data: 3304390912
I0108 08:49:41.813163    66 layer_factory.hpp:77] Creating layer scale4e_branch2a
I0108 08:49:41.813170    66 net.cpp:84] Creating Layer scale4e_branch2a
I0108 08:49:41.813174    66 net.cpp:406] scale4e_branch2a <- res4e_branch2a
I0108 08:49:41.813179    66 net.cpp:367] scale4e_branch2a -> res4e_branch2a (in-place)
I0108 08:49:41.813235    66 layer_factory.hpp:77] Creating layer scale4e_branch2a
I0108 08:49:41.813403    66 net.cpp:122] Setting up scale4e_branch2a
I0108 08:49:41.813416    66 net.cpp:129] Top shape: 16 256 14 14 (802816)
I0108 08:49:41.813418    66 net.cpp:137] Memory required for data: 3307602176
I0108 08:49:41.813426    66 layer_factory.hpp:77] Creating layer res4e_branch2a_relu
I0108 08:49:41.813432    66 net.cpp:84] Creating Layer res4e_branch2a_relu
I0108 08:49:41.813437    66 net.cpp:406] res4e_branch2a_relu <- res4e_branch2a
I0108 08:49:41.813442    66 net.cpp:367] res4e_branch2a_relu -> res4e_branch2a (in-place)
I0108 08:49:41.813683    66 net.cpp:122] Setting up res4e_branch2a_relu
I0108 08:49:41.813694    66 net.cpp:129] Top shape: 16 256 14 14 (802816)
I0108 08:49:41.813697    66 net.cpp:137] Memory required for data: 3310813440
I0108 08:49:41.813700    66 layer_factory.hpp:77] Creating layer res4e_branch2b
I0108 08:49:41.813711    66 net.cpp:84] Creating Layer res4e_branch2b
I0108 08:49:41.813715    66 net.cpp:406] res4e_branch2b <- res4e_branch2a
I0108 08:49:41.813721    66 net.cpp:380] res4e_branch2b -> res4e_branch2b
I0108 08:49:41.818259    66 net.cpp:122] Setting up res4e_branch2b
I0108 08:49:41.818279    66 net.cpp:129] Top shape: 16 256 14 14 (802816)
I0108 08:49:41.818284    66 net.cpp:137] Memory required for data: 3314024704
I0108 08:49:41.818292    66 layer_factory.hpp:77] Creating layer bn4e_branch2b
I0108 08:49:41.818300    66 net.cpp:84] Creating Layer bn4e_branch2b
I0108 08:49:41.818305    66 net.cpp:406] bn4e_branch2b <- res4e_branch2b
I0108 08:49:41.818313    66 net.cpp:367] bn4e_branch2b -> res4e_branch2b (in-place)
I0108 08:49:41.818610    66 net.cpp:122] Setting up bn4e_branch2b
I0108 08:49:41.818621    66 net.cpp:129] Top shape: 16 256 14 14 (802816)
I0108 08:49:41.818625    66 net.cpp:137] Memory required for data: 3317235968
I0108 08:49:41.818645    66 layer_factory.hpp:77] Creating layer scale4e_branch2b
I0108 08:49:41.818668    66 net.cpp:84] Creating Layer scale4e_branch2b
I0108 08:49:41.818675    66 net.cpp:406] scale4e_branch2b <- res4e_branch2b
I0108 08:49:41.818681    66 net.cpp:367] scale4e_branch2b -> res4e_branch2b (in-place)
I0108 08:49:41.818737    66 layer_factory.hpp:77] Creating layer scale4e_branch2b
I0108 08:49:41.818904    66 net.cpp:122] Setting up scale4e_branch2b
I0108 08:49:41.818914    66 net.cpp:129] Top shape: 16 256 14 14 (802816)
I0108 08:49:41.818918    66 net.cpp:137] Memory required for data: 3320447232
I0108 08:49:41.818927    66 layer_factory.hpp:77] Creating layer res4e_branch2b_relu
I0108 08:49:41.818934    66 net.cpp:84] Creating Layer res4e_branch2b_relu
I0108 08:49:41.818938    66 net.cpp:406] res4e_branch2b_relu <- res4e_branch2b
I0108 08:49:41.818943    66 net.cpp:367] res4e_branch2b_relu -> res4e_branch2b (in-place)
I0108 08:49:41.819185    66 net.cpp:122] Setting up res4e_branch2b_relu
I0108 08:49:41.819196    66 net.cpp:129] Top shape: 16 256 14 14 (802816)
I0108 08:49:41.819200    66 net.cpp:137] Memory required for data: 3323658496
I0108 08:49:41.819203    66 layer_factory.hpp:77] Creating layer res4e_branch2c
I0108 08:49:41.819213    66 net.cpp:84] Creating Layer res4e_branch2c
I0108 08:49:41.819218    66 net.cpp:406] res4e_branch2c <- res4e_branch2b
I0108 08:49:41.819249    66 net.cpp:380] res4e_branch2c -> res4e_branch2c
I0108 08:49:41.821077    66 net.cpp:122] Setting up res4e_branch2c
I0108 08:49:41.821095    66 net.cpp:129] Top shape: 16 1024 14 14 (3211264)
I0108 08:49:41.821099    66 net.cpp:137] Memory required for data: 3336503552
I0108 08:49:41.821106    66 layer_factory.hpp:77] Creating layer bn4e_branch2c
I0108 08:49:41.821113    66 net.cpp:84] Creating Layer bn4e_branch2c
I0108 08:49:41.821118    66 net.cpp:406] bn4e_branch2c <- res4e_branch2c
I0108 08:49:41.821126    66 net.cpp:367] bn4e_branch2c -> res4e_branch2c (in-place)
I0108 08:49:41.821403    66 net.cpp:122] Setting up bn4e_branch2c
I0108 08:49:41.821413    66 net.cpp:129] Top shape: 16 1024 14 14 (3211264)
I0108 08:49:41.821415    66 net.cpp:137] Memory required for data: 3349348608
I0108 08:49:41.821424    66 layer_factory.hpp:77] Creating layer scale4e_branch2c
I0108 08:49:41.821431    66 net.cpp:84] Creating Layer scale4e_branch2c
I0108 08:49:41.821435    66 net.cpp:406] scale4e_branch2c <- res4e_branch2c
I0108 08:49:41.821442    66 net.cpp:367] scale4e_branch2c -> res4e_branch2c (in-place)
I0108 08:49:41.821492    66 layer_factory.hpp:77] Creating layer scale4e_branch2c
I0108 08:49:41.821658    66 net.cpp:122] Setting up scale4e_branch2c
I0108 08:49:41.821668    66 net.cpp:129] Top shape: 16 1024 14 14 (3211264)
I0108 08:49:41.821671    66 net.cpp:137] Memory required for data: 3362193664
I0108 08:49:41.821678    66 layer_factory.hpp:77] Creating layer res4e
I0108 08:49:41.821684    66 net.cpp:84] Creating Layer res4e
I0108 08:49:41.821688    66 net.cpp:406] res4e <- res4d_res4d_relu_0_split_1
I0108 08:49:41.821693    66 net.cpp:406] res4e <- res4e_branch2c
I0108 08:49:41.821698    66 net.cpp:380] res4e -> res4e
I0108 08:49:41.821738    66 net.cpp:122] Setting up res4e
I0108 08:49:41.821748    66 net.cpp:129] Top shape: 16 1024 14 14 (3211264)
I0108 08:49:41.821751    66 net.cpp:137] Memory required for data: 3375038720
I0108 08:49:41.821754    66 layer_factory.hpp:77] Creating layer res4e_relu
I0108 08:49:41.821761    66 net.cpp:84] Creating Layer res4e_relu
I0108 08:49:41.821765    66 net.cpp:406] res4e_relu <- res4e
I0108 08:49:41.821770    66 net.cpp:367] res4e_relu -> res4e (in-place)
I0108 08:49:41.822702    66 net.cpp:122] Setting up res4e_relu
I0108 08:49:41.822719    66 net.cpp:129] Top shape: 16 1024 14 14 (3211264)
I0108 08:49:41.822723    66 net.cpp:137] Memory required for data: 3387883776
I0108 08:49:41.822727    66 layer_factory.hpp:77] Creating layer res4e_res4e_relu_0_split
I0108 08:49:41.822734    66 net.cpp:84] Creating Layer res4e_res4e_relu_0_split
I0108 08:49:41.822738    66 net.cpp:406] res4e_res4e_relu_0_split <- res4e
I0108 08:49:41.822747    66 net.cpp:380] res4e_res4e_relu_0_split -> res4e_res4e_relu_0_split_0
I0108 08:49:41.822755    66 net.cpp:380] res4e_res4e_relu_0_split -> res4e_res4e_relu_0_split_1
I0108 08:49:41.822818    66 net.cpp:122] Setting up res4e_res4e_relu_0_split
I0108 08:49:41.822827    66 net.cpp:129] Top shape: 16 1024 14 14 (3211264)
I0108 08:49:41.822832    66 net.cpp:129] Top shape: 16 1024 14 14 (3211264)
I0108 08:49:41.822839    66 net.cpp:137] Memory required for data: 3413573888
I0108 08:49:41.822842    66 layer_factory.hpp:77] Creating layer res4f_branch2a
I0108 08:49:41.822850    66 net.cpp:84] Creating Layer res4f_branch2a
I0108 08:49:41.822856    66 net.cpp:406] res4f_branch2a <- res4e_res4e_relu_0_split_0
I0108 08:49:41.822863    66 net.cpp:380] res4f_branch2a -> res4f_branch2a
I0108 08:49:41.826305    66 net.cpp:122] Setting up res4f_branch2a
I0108 08:49:41.826330    66 net.cpp:129] Top shape: 16 256 14 14 (802816)
I0108 08:49:41.826335    66 net.cpp:137] Memory required for data: 3416785152
I0108 08:49:41.826344    66 layer_factory.hpp:77] Creating layer bn4f_branch2a
I0108 08:49:41.826354    66 net.cpp:84] Creating Layer bn4f_branch2a
I0108 08:49:41.826359    66 net.cpp:406] bn4f_branch2a <- res4f_branch2a
I0108 08:49:41.826364    66 net.cpp:367] bn4f_branch2a -> res4f_branch2a (in-place)
I0108 08:49:41.826638    66 net.cpp:122] Setting up bn4f_branch2a
I0108 08:49:41.826668    66 net.cpp:129] Top shape: 16 256 14 14 (802816)
I0108 08:49:41.826671    66 net.cpp:137] Memory required for data: 3419996416
I0108 08:49:41.826680    66 layer_factory.hpp:77] Creating layer scale4f_branch2a
I0108 08:49:41.826689    66 net.cpp:84] Creating Layer scale4f_branch2a
I0108 08:49:41.826694    66 net.cpp:406] scale4f_branch2a <- res4f_branch2a
I0108 08:49:41.826699    66 net.cpp:367] scale4f_branch2a -> res4f_branch2a (in-place)
I0108 08:49:41.826759    66 layer_factory.hpp:77] Creating layer scale4f_branch2a
I0108 08:49:41.826926    66 net.cpp:122] Setting up scale4f_branch2a
I0108 08:49:41.826936    66 net.cpp:129] Top shape: 16 256 14 14 (802816)
I0108 08:49:41.826941    66 net.cpp:137] Memory required for data: 3423207680
I0108 08:49:41.826947    66 layer_factory.hpp:77] Creating layer res4f_branch2a_relu
I0108 08:49:41.826953    66 net.cpp:84] Creating Layer res4f_branch2a_relu
I0108 08:49:41.826957    66 net.cpp:406] res4f_branch2a_relu <- res4f_branch2a
I0108 08:49:41.826964    66 net.cpp:367] res4f_branch2a_relu -> res4f_branch2a (in-place)
I0108 08:49:41.827196    66 net.cpp:122] Setting up res4f_branch2a_relu
I0108 08:49:41.827208    66 net.cpp:129] Top shape: 16 256 14 14 (802816)
I0108 08:49:41.827213    66 net.cpp:137] Memory required for data: 3426418944
I0108 08:49:41.827215    66 layer_factory.hpp:77] Creating layer res4f_branch2b
I0108 08:49:41.827227    66 net.cpp:84] Creating Layer res4f_branch2b
I0108 08:49:41.827231    66 net.cpp:406] res4f_branch2b <- res4f_branch2a
I0108 08:49:41.827237    66 net.cpp:380] res4f_branch2b -> res4f_branch2b
I0108 08:49:41.831779    66 net.cpp:122] Setting up res4f_branch2b
I0108 08:49:41.831799    66 net.cpp:129] Top shape: 16 256 14 14 (802816)
I0108 08:49:41.831802    66 net.cpp:137] Memory required for data: 3429630208
I0108 08:49:41.831809    66 layer_factory.hpp:77] Creating layer bn4f_branch2b
I0108 08:49:41.831820    66 net.cpp:84] Creating Layer bn4f_branch2b
I0108 08:49:41.831825    66 net.cpp:406] bn4f_branch2b <- res4f_branch2b
I0108 08:49:41.831831    66 net.cpp:367] bn4f_branch2b -> res4f_branch2b (in-place)
I0108 08:49:41.832115    66 net.cpp:122] Setting up bn4f_branch2b
I0108 08:49:41.832125    66 net.cpp:129] Top shape: 16 256 14 14 (802816)
I0108 08:49:41.832129    66 net.cpp:137] Memory required for data: 3432841472
I0108 08:49:41.832139    66 layer_factory.hpp:77] Creating layer scale4f_branch2b
I0108 08:49:41.832144    66 net.cpp:84] Creating Layer scale4f_branch2b
I0108 08:49:41.832149    66 net.cpp:406] scale4f_branch2b <- res4f_branch2b
I0108 08:49:41.832159    66 net.cpp:367] scale4f_branch2b -> res4f_branch2b (in-place)
I0108 08:49:41.832217    66 layer_factory.hpp:77] Creating layer scale4f_branch2b
I0108 08:49:41.832387    66 net.cpp:122] Setting up scale4f_branch2b
I0108 08:49:41.832398    66 net.cpp:129] Top shape: 16 256 14 14 (802816)
I0108 08:49:41.832402    66 net.cpp:137] Memory required for data: 3436052736
I0108 08:49:41.832409    66 layer_factory.hpp:77] Creating layer res4f_branch2b_relu
I0108 08:49:41.832415    66 net.cpp:84] Creating Layer res4f_branch2b_relu
I0108 08:49:41.832419    66 net.cpp:406] res4f_branch2b_relu <- res4f_branch2b
I0108 08:49:41.832424    66 net.cpp:367] res4f_branch2b_relu -> res4f_branch2b (in-place)
I0108 08:49:41.832674    66 net.cpp:122] Setting up res4f_branch2b_relu
I0108 08:49:41.832685    66 net.cpp:129] Top shape: 16 256 14 14 (802816)
I0108 08:49:41.832690    66 net.cpp:137] Memory required for data: 3439264000
I0108 08:49:41.832693    66 layer_factory.hpp:77] Creating layer res4f_branch2c
I0108 08:49:41.832705    66 net.cpp:84] Creating Layer res4f_branch2c
I0108 08:49:41.832711    66 net.cpp:406] res4f_branch2c <- res4f_branch2b
I0108 08:49:41.832717    66 net.cpp:380] res4f_branch2c -> res4f_branch2c
I0108 08:49:41.834638    66 net.cpp:122] Setting up res4f_branch2c
I0108 08:49:41.834657    66 net.cpp:129] Top shape: 16 1024 14 14 (3211264)
I0108 08:49:41.834663    66 net.cpp:137] Memory required for data: 3452109056
I0108 08:49:41.834691    66 layer_factory.hpp:77] Creating layer bn4f_branch2c
I0108 08:49:41.834698    66 net.cpp:84] Creating Layer bn4f_branch2c
I0108 08:49:41.834748    66 net.cpp:406] bn4f_branch2c <- res4f_branch2c
I0108 08:49:41.834754    66 net.cpp:367] bn4f_branch2c -> res4f_branch2c (in-place)
I0108 08:49:41.835041    66 net.cpp:122] Setting up bn4f_branch2c
I0108 08:49:41.835050    66 net.cpp:129] Top shape: 16 1024 14 14 (3211264)
I0108 08:49:41.835054    66 net.cpp:137] Memory required for data: 3464954112
I0108 08:49:41.835111    66 layer_factory.hpp:77] Creating layer scale4f_branch2c
I0108 08:49:41.835122    66 net.cpp:84] Creating Layer scale4f_branch2c
I0108 08:49:41.835131    66 net.cpp:406] scale4f_branch2c <- res4f_branch2c
I0108 08:49:41.835137    66 net.cpp:367] scale4f_branch2c -> res4f_branch2c (in-place)
I0108 08:49:41.835216    66 layer_factory.hpp:77] Creating layer scale4f_branch2c
I0108 08:49:41.835381    66 net.cpp:122] Setting up scale4f_branch2c
I0108 08:49:41.835391    66 net.cpp:129] Top shape: 16 1024 14 14 (3211264)
I0108 08:49:41.835394    66 net.cpp:137] Memory required for data: 3477799168
I0108 08:49:41.835402    66 layer_factory.hpp:77] Creating layer res4f
I0108 08:49:41.835407    66 net.cpp:84] Creating Layer res4f
I0108 08:49:41.835412    66 net.cpp:406] res4f <- res4e_res4e_relu_0_split_1
I0108 08:49:41.835417    66 net.cpp:406] res4f <- res4f_branch2c
I0108 08:49:41.835423    66 net.cpp:380] res4f -> res4f
I0108 08:49:41.835460    66 net.cpp:122] Setting up res4f
I0108 08:49:41.835469    66 net.cpp:129] Top shape: 16 1024 14 14 (3211264)
I0108 08:49:41.835472    66 net.cpp:137] Memory required for data: 3490644224
I0108 08:49:41.835476    66 layer_factory.hpp:77] Creating layer res4f_relu
I0108 08:49:41.835481    66 net.cpp:84] Creating Layer res4f_relu
I0108 08:49:41.835485    66 net.cpp:406] res4f_relu <- res4f
I0108 08:49:41.835490    66 net.cpp:367] res4f_relu -> res4f (in-place)
I0108 08:49:41.835747    66 net.cpp:122] Setting up res4f_relu
I0108 08:49:41.835759    66 net.cpp:129] Top shape: 16 1024 14 14 (3211264)
I0108 08:49:41.835763    66 net.cpp:137] Memory required for data: 3503489280
I0108 08:49:41.835767    66 layer_factory.hpp:77] Creating layer res4f_res4f_relu_0_split
I0108 08:49:41.835775    66 net.cpp:84] Creating Layer res4f_res4f_relu_0_split
I0108 08:49:41.835780    66 net.cpp:406] res4f_res4f_relu_0_split <- res4f
I0108 08:49:41.835786    66 net.cpp:380] res4f_res4f_relu_0_split -> res4f_res4f_relu_0_split_0
I0108 08:49:41.835795    66 net.cpp:380] res4f_res4f_relu_0_split -> res4f_res4f_relu_0_split_1
I0108 08:49:41.835853    66 net.cpp:122] Setting up res4f_res4f_relu_0_split
I0108 08:49:41.835861    66 net.cpp:129] Top shape: 16 1024 14 14 (3211264)
I0108 08:49:41.835866    66 net.cpp:129] Top shape: 16 1024 14 14 (3211264)
I0108 08:49:41.835870    66 net.cpp:137] Memory required for data: 3529179392
I0108 08:49:41.835873    66 layer_factory.hpp:77] Creating layer res5a_branch1
I0108 08:49:41.835883    66 net.cpp:84] Creating Layer res5a_branch1
I0108 08:49:41.835889    66 net.cpp:406] res5a_branch1 <- res4f_res4f_relu_0_split_0
I0108 08:49:41.835896    66 net.cpp:380] res5a_branch1 -> res5a_branch1
I0108 08:49:41.843814    66 net.cpp:122] Setting up res5a_branch1
I0108 08:49:41.843837    66 net.cpp:129] Top shape: 16 2048 7 7 (1605632)
I0108 08:49:41.843842    66 net.cpp:137] Memory required for data: 3535601920
I0108 08:49:41.843848    66 layer_factory.hpp:77] Creating layer bn5a_branch1
I0108 08:49:41.843857    66 net.cpp:84] Creating Layer bn5a_branch1
I0108 08:49:41.843860    66 net.cpp:406] bn5a_branch1 <- res5a_branch1
I0108 08:49:41.843866    66 net.cpp:367] bn5a_branch1 -> res5a_branch1 (in-place)
I0108 08:49:41.844187    66 net.cpp:122] Setting up bn5a_branch1
I0108 08:49:41.844197    66 net.cpp:129] Top shape: 16 2048 7 7 (1605632)
I0108 08:49:41.844200    66 net.cpp:137] Memory required for data: 3542024448
I0108 08:49:41.844209    66 layer_factory.hpp:77] Creating layer scale5a_branch1
I0108 08:49:41.844216    66 net.cpp:84] Creating Layer scale5a_branch1
I0108 08:49:41.844239    66 net.cpp:406] scale5a_branch1 <- res5a_branch1
I0108 08:49:41.844249    66 net.cpp:367] scale5a_branch1 -> res5a_branch1 (in-place)
I0108 08:49:41.844313    66 layer_factory.hpp:77] Creating layer scale5a_branch1
I0108 08:49:41.844496    66 net.cpp:122] Setting up scale5a_branch1
I0108 08:49:41.844508    66 net.cpp:129] Top shape: 16 2048 7 7 (1605632)
I0108 08:49:41.844512    66 net.cpp:137] Memory required for data: 3548446976
I0108 08:49:41.844519    66 layer_factory.hpp:77] Creating layer res5a_branch2a
I0108 08:49:41.844527    66 net.cpp:84] Creating Layer res5a_branch2a
I0108 08:49:41.844532    66 net.cpp:406] res5a_branch2a <- res4f_res4f_relu_0_split_1
I0108 08:49:41.844540    66 net.cpp:380] res5a_branch2a -> res5a_branch2a
I0108 08:49:41.848407    66 net.cpp:122] Setting up res5a_branch2a
I0108 08:49:41.848438    66 net.cpp:129] Top shape: 16 512 7 7 (401408)
I0108 08:49:41.848441    66 net.cpp:137] Memory required for data: 3550052608
I0108 08:49:41.848448    66 layer_factory.hpp:77] Creating layer bn5a_branch2a
I0108 08:49:41.848456    66 net.cpp:84] Creating Layer bn5a_branch2a
I0108 08:49:41.848461    66 net.cpp:406] bn5a_branch2a <- res5a_branch2a
I0108 08:49:41.848467    66 net.cpp:367] bn5a_branch2a -> res5a_branch2a (in-place)
I0108 08:49:41.848795    66 net.cpp:122] Setting up bn5a_branch2a
I0108 08:49:41.848806    66 net.cpp:129] Top shape: 16 512 7 7 (401408)
I0108 08:49:41.848810    66 net.cpp:137] Memory required for data: 3551658240
I0108 08:49:41.848819    66 layer_factory.hpp:77] Creating layer scale5a_branch2a
I0108 08:49:41.848825    66 net.cpp:84] Creating Layer scale5a_branch2a
I0108 08:49:41.848829    66 net.cpp:406] scale5a_branch2a <- res5a_branch2a
I0108 08:49:41.848834    66 net.cpp:367] scale5a_branch2a -> res5a_branch2a (in-place)
I0108 08:49:41.848892    66 layer_factory.hpp:77] Creating layer scale5a_branch2a
I0108 08:49:41.849058    66 net.cpp:122] Setting up scale5a_branch2a
I0108 08:49:41.849068    66 net.cpp:129] Top shape: 16 512 7 7 (401408)
I0108 08:49:41.849071    66 net.cpp:137] Memory required for data: 3553263872
I0108 08:49:41.849079    66 layer_factory.hpp:77] Creating layer res5a_branch2a_relu
I0108 08:49:41.849088    66 net.cpp:84] Creating Layer res5a_branch2a_relu
I0108 08:49:41.849097    66 net.cpp:406] res5a_branch2a_relu <- res5a_branch2a
I0108 08:49:41.849104    66 net.cpp:367] res5a_branch2a_relu -> res5a_branch2a (in-place)
I0108 08:49:41.850034    66 net.cpp:122] Setting up res5a_branch2a_relu
I0108 08:49:41.850051    66 net.cpp:129] Top shape: 16 512 7 7 (401408)
I0108 08:49:41.850055    66 net.cpp:137] Memory required for data: 3554869504
I0108 08:49:41.850059    66 layer_factory.hpp:77] Creating layer res5a_branch2b
I0108 08:49:41.850070    66 net.cpp:84] Creating Layer res5a_branch2b
I0108 08:49:41.850075    66 net.cpp:406] res5a_branch2b <- res5a_branch2a
I0108 08:49:41.850083    66 net.cpp:380] res5a_branch2b -> res5a_branch2b
I0108 08:49:41.859145    66 net.cpp:122] Setting up res5a_branch2b
I0108 08:49:41.859166    66 net.cpp:129] Top shape: 16 512 7 7 (401408)
I0108 08:49:41.859171    66 net.cpp:137] Memory required for data: 3556475136
I0108 08:49:41.859179    66 layer_factory.hpp:77] Creating layer bn5a_branch2b
I0108 08:49:41.859187    66 net.cpp:84] Creating Layer bn5a_branch2b
I0108 08:49:41.859192    66 net.cpp:406] bn5a_branch2b <- res5a_branch2b
I0108 08:49:41.859200    66 net.cpp:367] bn5a_branch2b -> res5a_branch2b (in-place)
I0108 08:49:41.859501    66 net.cpp:122] Setting up bn5a_branch2b
I0108 08:49:41.859511    66 net.cpp:129] Top shape: 16 512 7 7 (401408)
I0108 08:49:41.859514    66 net.cpp:137] Memory required for data: 3558080768
I0108 08:49:41.859524    66 layer_factory.hpp:77] Creating layer scale5a_branch2b
I0108 08:49:41.859530    66 net.cpp:84] Creating Layer scale5a_branch2b
I0108 08:49:41.859534    66 net.cpp:406] scale5a_branch2b <- res5a_branch2b
I0108 08:49:41.859539    66 net.cpp:367] scale5a_branch2b -> res5a_branch2b (in-place)
I0108 08:49:41.859596    66 layer_factory.hpp:77] Creating layer scale5a_branch2b
I0108 08:49:41.859793    66 net.cpp:122] Setting up scale5a_branch2b
I0108 08:49:41.859804    66 net.cpp:129] Top shape: 16 512 7 7 (401408)
I0108 08:49:41.859807    66 net.cpp:137] Memory required for data: 3559686400
I0108 08:49:41.859814    66 layer_factory.hpp:77] Creating layer res5a_branch2b_relu
I0108 08:49:41.859823    66 net.cpp:84] Creating Layer res5a_branch2b_relu
I0108 08:49:41.859830    66 net.cpp:406] res5a_branch2b_relu <- res5a_branch2b
I0108 08:49:41.859835    66 net.cpp:367] res5a_branch2b_relu -> res5a_branch2b (in-place)
I0108 08:49:41.860079    66 net.cpp:122] Setting up res5a_branch2b_relu
I0108 08:49:41.860090    66 net.cpp:129] Top shape: 16 512 7 7 (401408)
I0108 08:49:41.860093    66 net.cpp:137] Memory required for data: 3561292032
I0108 08:49:41.860097    66 layer_factory.hpp:77] Creating layer res5a_branch2c
I0108 08:49:41.860107    66 net.cpp:84] Creating Layer res5a_branch2c
I0108 08:49:41.860111    66 net.cpp:406] res5a_branch2c <- res5a_branch2b
I0108 08:49:41.860119    66 net.cpp:380] res5a_branch2c -> res5a_branch2c
I0108 08:49:41.865191    66 net.cpp:122] Setting up res5a_branch2c
I0108 08:49:41.865211    66 net.cpp:129] Top shape: 16 2048 7 7 (1605632)
I0108 08:49:41.865216    66 net.cpp:137] Memory required for data: 3567714560
I0108 08:49:41.865222    66 layer_factory.hpp:77] Creating layer bn5a_branch2c
I0108 08:49:41.865231    66 net.cpp:84] Creating Layer bn5a_branch2c
I0108 08:49:41.865236    66 net.cpp:406] bn5a_branch2c <- res5a_branch2c
I0108 08:49:41.865242    66 net.cpp:367] bn5a_branch2c -> res5a_branch2c (in-place)
I0108 08:49:41.865540    66 net.cpp:122] Setting up bn5a_branch2c
I0108 08:49:41.865550    66 net.cpp:129] Top shape: 16 2048 7 7 (1605632)
I0108 08:49:41.865552    66 net.cpp:137] Memory required for data: 3574137088
I0108 08:49:41.865561    66 layer_factory.hpp:77] Creating layer scale5a_branch2c
I0108 08:49:41.865571    66 net.cpp:84] Creating Layer scale5a_branch2c
I0108 08:49:41.865574    66 net.cpp:406] scale5a_branch2c <- res5a_branch2c
I0108 08:49:41.865579    66 net.cpp:367] scale5a_branch2c -> res5a_branch2c (in-place)
I0108 08:49:41.865636    66 layer_factory.hpp:77] Creating layer scale5a_branch2c
I0108 08:49:41.865809    66 net.cpp:122] Setting up scale5a_branch2c
I0108 08:49:41.865819    66 net.cpp:129] Top shape: 16 2048 7 7 (1605632)
I0108 08:49:41.865823    66 net.cpp:137] Memory required for data: 3580559616
I0108 08:49:41.865830    66 layer_factory.hpp:77] Creating layer res5a
I0108 08:49:41.865839    66 net.cpp:84] Creating Layer res5a
I0108 08:49:41.865844    66 net.cpp:406] res5a <- res5a_branch1
I0108 08:49:41.865850    66 net.cpp:406] res5a <- res5a_branch2c
I0108 08:49:41.865855    66 net.cpp:380] res5a -> res5a
I0108 08:49:41.865892    66 net.cpp:122] Setting up res5a
I0108 08:49:41.865902    66 net.cpp:129] Top shape: 16 2048 7 7 (1605632)
I0108 08:49:41.865906    66 net.cpp:137] Memory required for data: 3586982144
I0108 08:49:41.865909    66 layer_factory.hpp:77] Creating layer res5a_relu
I0108 08:49:41.865916    66 net.cpp:84] Creating Layer res5a_relu
I0108 08:49:41.865919    66 net.cpp:406] res5a_relu <- res5a
I0108 08:49:41.865924    66 net.cpp:367] res5a_relu -> res5a (in-place)
I0108 08:49:41.866837    66 net.cpp:122] Setting up res5a_relu
I0108 08:49:41.866869    66 net.cpp:129] Top shape: 16 2048 7 7 (1605632)
I0108 08:49:41.866873    66 net.cpp:137] Memory required for data: 3593404672
I0108 08:49:41.866878    66 layer_factory.hpp:77] Creating layer res5a_res5a_relu_0_split
I0108 08:49:41.866884    66 net.cpp:84] Creating Layer res5a_res5a_relu_0_split
I0108 08:49:41.866889    66 net.cpp:406] res5a_res5a_relu_0_split <- res5a
I0108 08:49:41.866895    66 net.cpp:380] res5a_res5a_relu_0_split -> res5a_res5a_relu_0_split_0
I0108 08:49:41.866904    66 net.cpp:380] res5a_res5a_relu_0_split -> res5a_res5a_relu_0_split_1
I0108 08:49:41.866968    66 net.cpp:122] Setting up res5a_res5a_relu_0_split
I0108 08:49:41.866977    66 net.cpp:129] Top shape: 16 2048 7 7 (1605632)
I0108 08:49:41.866982    66 net.cpp:129] Top shape: 16 2048 7 7 (1605632)
I0108 08:49:41.867005    66 net.cpp:137] Memory required for data: 3606249728
I0108 08:49:41.867009    66 layer_factory.hpp:77] Creating layer res5b_branch2a
I0108 08:49:41.867019    66 net.cpp:84] Creating Layer res5b_branch2a
I0108 08:49:41.867027    66 net.cpp:406] res5b_branch2a <- res5a_res5a_relu_0_split_0
I0108 08:49:41.867038    66 net.cpp:380] res5b_branch2a -> res5b_branch2a
I0108 08:49:41.871683    66 net.cpp:122] Setting up res5b_branch2a
I0108 08:49:41.871703    66 net.cpp:129] Top shape: 16 512 7 7 (401408)
I0108 08:49:41.871708    66 net.cpp:137] Memory required for data: 3607855360
I0108 08:49:41.871716    66 layer_factory.hpp:77] Creating layer bn5b_branch2a
I0108 08:49:41.871723    66 net.cpp:84] Creating Layer bn5b_branch2a
I0108 08:49:41.871727    66 net.cpp:406] bn5b_branch2a <- res5b_branch2a
I0108 08:49:41.871737    66 net.cpp:367] bn5b_branch2a -> res5b_branch2a (in-place)
I0108 08:49:41.872040    66 net.cpp:122] Setting up bn5b_branch2a
I0108 08:49:41.872051    66 net.cpp:129] Top shape: 16 512 7 7 (401408)
I0108 08:49:41.872056    66 net.cpp:137] Memory required for data: 3609460992
I0108 08:49:41.872064    66 layer_factory.hpp:77] Creating layer scale5b_branch2a
I0108 08:49:41.872074    66 net.cpp:84] Creating Layer scale5b_branch2a
I0108 08:49:41.872078    66 net.cpp:406] scale5b_branch2a <- res5b_branch2a
I0108 08:49:41.872083    66 net.cpp:367] scale5b_branch2a -> res5b_branch2a (in-place)
I0108 08:49:41.872139    66 layer_factory.hpp:77] Creating layer scale5b_branch2a
I0108 08:49:41.872310    66 net.cpp:122] Setting up scale5b_branch2a
I0108 08:49:41.872323    66 net.cpp:129] Top shape: 16 512 7 7 (401408)
I0108 08:49:41.872326    66 net.cpp:137] Memory required for data: 3611066624
I0108 08:49:41.872334    66 layer_factory.hpp:77] Creating layer res5b_branch2a_relu
I0108 08:49:41.872339    66 net.cpp:84] Creating Layer res5b_branch2a_relu
I0108 08:49:41.872344    66 net.cpp:406] res5b_branch2a_relu <- res5b_branch2a
I0108 08:49:41.872349    66 net.cpp:367] res5b_branch2a_relu -> res5b_branch2a (in-place)
I0108 08:49:41.873247    66 net.cpp:122] Setting up res5b_branch2a_relu
I0108 08:49:41.873265    66 net.cpp:129] Top shape: 16 512 7 7 (401408)
I0108 08:49:41.873270    66 net.cpp:137] Memory required for data: 3612672256
I0108 08:49:41.873275    66 layer_factory.hpp:77] Creating layer res5b_branch2b
I0108 08:49:41.873286    66 net.cpp:84] Creating Layer res5b_branch2b
I0108 08:49:41.873291    66 net.cpp:406] res5b_branch2b <- res5b_branch2a
I0108 08:49:41.873296    66 net.cpp:380] res5b_branch2b -> res5b_branch2b
I0108 08:49:41.881985    66 net.cpp:122] Setting up res5b_branch2b
I0108 08:49:41.882007    66 net.cpp:129] Top shape: 16 512 7 7 (401408)
I0108 08:49:41.882011    66 net.cpp:137] Memory required for data: 3614277888
I0108 08:49:41.882019    66 layer_factory.hpp:77] Creating layer bn5b_branch2b
I0108 08:49:41.882026    66 net.cpp:84] Creating Layer bn5b_branch2b
I0108 08:49:41.882031    66 net.cpp:406] bn5b_branch2b <- res5b_branch2b
I0108 08:49:41.882037    66 net.cpp:367] bn5b_branch2b -> res5b_branch2b (in-place)
I0108 08:49:41.882347    66 net.cpp:122] Setting up bn5b_branch2b
I0108 08:49:41.882357    66 net.cpp:129] Top shape: 16 512 7 7 (401408)
I0108 08:49:41.882361    66 net.cpp:137] Memory required for data: 3615883520
I0108 08:49:41.882370    66 layer_factory.hpp:77] Creating layer scale5b_branch2b
I0108 08:49:41.882377    66 net.cpp:84] Creating Layer scale5b_branch2b
I0108 08:49:41.882380    66 net.cpp:406] scale5b_branch2b <- res5b_branch2b
I0108 08:49:41.882385    66 net.cpp:367] scale5b_branch2b -> res5b_branch2b (in-place)
I0108 08:49:41.882447    66 layer_factory.hpp:77] Creating layer scale5b_branch2b
I0108 08:49:41.882618    66 net.cpp:122] Setting up scale5b_branch2b
I0108 08:49:41.882628    66 net.cpp:129] Top shape: 16 512 7 7 (401408)
I0108 08:49:41.882632    66 net.cpp:137] Memory required for data: 3617489152
I0108 08:49:41.882639    66 layer_factory.hpp:77] Creating layer res5b_branch2b_relu
I0108 08:49:41.882681    66 net.cpp:84] Creating Layer res5b_branch2b_relu
I0108 08:49:41.882688    66 net.cpp:406] res5b_branch2b_relu <- res5b_branch2b
I0108 08:49:41.882694    66 net.cpp:367] res5b_branch2b_relu -> res5b_branch2b (in-place)
I0108 08:49:41.882944    66 net.cpp:122] Setting up res5b_branch2b_relu
I0108 08:49:41.882957    66 net.cpp:129] Top shape: 16 512 7 7 (401408)
I0108 08:49:41.882961    66 net.cpp:137] Memory required for data: 3619094784
I0108 08:49:41.882964    66 layer_factory.hpp:77] Creating layer res5b_branch2c
I0108 08:49:41.882975    66 net.cpp:84] Creating Layer res5b_branch2c
I0108 08:49:41.882982    66 net.cpp:406] res5b_branch2c <- res5b_branch2b
I0108 08:49:41.882988    66 net.cpp:380] res5b_branch2c -> res5b_branch2c
I0108 08:49:41.888031    66 net.cpp:122] Setting up res5b_branch2c
I0108 08:49:41.888051    66 net.cpp:129] Top shape: 16 2048 7 7 (1605632)
I0108 08:49:41.888056    66 net.cpp:137] Memory required for data: 3625517312
I0108 08:49:41.888062    66 layer_factory.hpp:77] Creating layer bn5b_branch2c
I0108 08:49:41.888072    66 net.cpp:84] Creating Layer bn5b_branch2c
I0108 08:49:41.888077    66 net.cpp:406] bn5b_branch2c <- res5b_branch2c
I0108 08:49:41.888083    66 net.cpp:367] bn5b_branch2c -> res5b_branch2c (in-place)
I0108 08:49:41.888384    66 net.cpp:122] Setting up bn5b_branch2c
I0108 08:49:41.888394    66 net.cpp:129] Top shape: 16 2048 7 7 (1605632)
I0108 08:49:41.888398    66 net.cpp:137] Memory required for data: 3631939840
I0108 08:49:41.888406    66 layer_factory.hpp:77] Creating layer scale5b_branch2c
I0108 08:49:41.888415    66 net.cpp:84] Creating Layer scale5b_branch2c
I0108 08:49:41.888419    66 net.cpp:406] scale5b_branch2c <- res5b_branch2c
I0108 08:49:41.888424    66 net.cpp:367] scale5b_branch2c -> res5b_branch2c (in-place)
I0108 08:49:41.888481    66 layer_factory.hpp:77] Creating layer scale5b_branch2c
I0108 08:49:41.888670    66 net.cpp:122] Setting up scale5b_branch2c
I0108 08:49:41.888681    66 net.cpp:129] Top shape: 16 2048 7 7 (1605632)
I0108 08:49:41.888684    66 net.cpp:137] Memory required for data: 3638362368
I0108 08:49:41.888691    66 layer_factory.hpp:77] Creating layer res5b
I0108 08:49:41.888698    66 net.cpp:84] Creating Layer res5b
I0108 08:49:41.888702    66 net.cpp:406] res5b <- res5a_res5a_relu_0_split_1
I0108 08:49:41.888707    66 net.cpp:406] res5b <- res5b_branch2c
I0108 08:49:41.888715    66 net.cpp:380] res5b -> res5b
I0108 08:49:41.888756    66 net.cpp:122] Setting up res5b
I0108 08:49:41.888766    66 net.cpp:129] Top shape: 16 2048 7 7 (1605632)
I0108 08:49:41.888769    66 net.cpp:137] Memory required for data: 3644784896
I0108 08:49:41.888772    66 layer_factory.hpp:77] Creating layer res5b_relu
I0108 08:49:41.888778    66 net.cpp:84] Creating Layer res5b_relu
I0108 08:49:41.888782    66 net.cpp:406] res5b_relu <- res5b
I0108 08:49:41.888787    66 net.cpp:367] res5b_relu -> res5b (in-place)
I0108 08:49:41.889034    66 net.cpp:122] Setting up res5b_relu
I0108 08:49:41.889046    66 net.cpp:129] Top shape: 16 2048 7 7 (1605632)
I0108 08:49:41.889050    66 net.cpp:137] Memory required for data: 3651207424
I0108 08:49:41.889053    66 layer_factory.hpp:77] Creating layer res5b_res5b_relu_0_split
I0108 08:49:41.889063    66 net.cpp:84] Creating Layer res5b_res5b_relu_0_split
I0108 08:49:41.889067    66 net.cpp:406] res5b_res5b_relu_0_split <- res5b
I0108 08:49:41.889073    66 net.cpp:380] res5b_res5b_relu_0_split -> res5b_res5b_relu_0_split_0
I0108 08:49:41.889081    66 net.cpp:380] res5b_res5b_relu_0_split -> res5b_res5b_relu_0_split_1
I0108 08:49:41.889145    66 net.cpp:122] Setting up res5b_res5b_relu_0_split
I0108 08:49:41.889154    66 net.cpp:129] Top shape: 16 2048 7 7 (1605632)
I0108 08:49:41.889159    66 net.cpp:129] Top shape: 16 2048 7 7 (1605632)
I0108 08:49:41.889163    66 net.cpp:137] Memory required for data: 3664052480
I0108 08:49:41.889166    66 layer_factory.hpp:77] Creating layer res5c_branch2a
I0108 08:49:41.889175    66 net.cpp:84] Creating Layer res5c_branch2a
I0108 08:49:41.889180    66 net.cpp:406] res5c_branch2a <- res5b_res5b_relu_0_split_0
I0108 08:49:41.889207    66 net.cpp:380] res5c_branch2a -> res5c_branch2a
I0108 08:49:41.894250    66 net.cpp:122] Setting up res5c_branch2a
I0108 08:49:41.894271    66 net.cpp:129] Top shape: 16 512 7 7 (401408)
I0108 08:49:41.894275    66 net.cpp:137] Memory required for data: 3665658112
I0108 08:49:41.894282    66 layer_factory.hpp:77] Creating layer bn5c_branch2a
I0108 08:49:41.894294    66 net.cpp:84] Creating Layer bn5c_branch2a
I0108 08:49:41.894297    66 net.cpp:406] bn5c_branch2a <- res5c_branch2a
I0108 08:49:41.894304    66 net.cpp:367] bn5c_branch2a -> res5c_branch2a (in-place)
I0108 08:49:41.894621    66 net.cpp:122] Setting up bn5c_branch2a
I0108 08:49:41.894632    66 net.cpp:129] Top shape: 16 512 7 7 (401408)
I0108 08:49:41.894635    66 net.cpp:137] Memory required for data: 3667263744
I0108 08:49:41.894645    66 layer_factory.hpp:77] Creating layer scale5c_branch2a
I0108 08:49:41.894652    66 net.cpp:84] Creating Layer scale5c_branch2a
I0108 08:49:41.894659    66 net.cpp:406] scale5c_branch2a <- res5c_branch2a
I0108 08:49:41.894665    66 net.cpp:367] scale5c_branch2a -> res5c_branch2a (in-place)
I0108 08:49:41.894731    66 layer_factory.hpp:77] Creating layer scale5c_branch2a
I0108 08:49:41.894913    66 net.cpp:122] Setting up scale5c_branch2a
I0108 08:49:41.894927    66 net.cpp:129] Top shape: 16 512 7 7 (401408)
I0108 08:49:41.894929    66 net.cpp:137] Memory required for data: 3668869376
I0108 08:49:41.894937    66 layer_factory.hpp:77] Creating layer res5c_branch2a_relu
I0108 08:49:41.894945    66 net.cpp:84] Creating Layer res5c_branch2a_relu
I0108 08:49:41.894949    66 net.cpp:406] res5c_branch2a_relu <- res5c_branch2a
I0108 08:49:41.894954    66 net.cpp:367] res5c_branch2a_relu -> res5c_branch2a (in-place)
I0108 08:49:41.895213    66 net.cpp:122] Setting up res5c_branch2a_relu
I0108 08:49:41.895229    66 net.cpp:129] Top shape: 16 512 7 7 (401408)
I0108 08:49:41.895234    66 net.cpp:137] Memory required for data: 3670475008
I0108 08:49:41.895241    66 layer_factory.hpp:77] Creating layer res5c_branch2b
I0108 08:49:41.895257    66 net.cpp:84] Creating Layer res5c_branch2b
I0108 08:49:41.895265    66 net.cpp:406] res5c_branch2b <- res5c_branch2a
I0108 08:49:41.895275    66 net.cpp:380] res5c_branch2b -> res5c_branch2b
I0108 08:49:41.904227    66 net.cpp:122] Setting up res5c_branch2b
I0108 08:49:41.904250    66 net.cpp:129] Top shape: 16 512 7 7 (401408)
I0108 08:49:41.904258    66 net.cpp:137] Memory required for data: 3672080640
I0108 08:49:41.904268    66 layer_factory.hpp:77] Creating layer bn5c_branch2b
I0108 08:49:41.904285    66 net.cpp:84] Creating Layer bn5c_branch2b
I0108 08:49:41.904294    66 net.cpp:406] bn5c_branch2b <- res5c_branch2b
I0108 08:49:41.904304    66 net.cpp:367] bn5c_branch2b -> res5c_branch2b (in-place)
I0108 08:49:41.904618    66 net.cpp:122] Setting up bn5c_branch2b
I0108 08:49:41.904631    66 net.cpp:129] Top shape: 16 512 7 7 (401408)
I0108 08:49:41.904636    66 net.cpp:137] Memory required for data: 3673686272
I0108 08:49:41.904654    66 layer_factory.hpp:77] Creating layer scale5c_branch2b
I0108 08:49:41.904667    66 net.cpp:84] Creating Layer scale5c_branch2b
I0108 08:49:41.904673    66 net.cpp:406] scale5c_branch2b <- res5c_branch2b
I0108 08:49:41.904681    66 net.cpp:367] scale5c_branch2b -> res5c_branch2b (in-place)
I0108 08:49:41.904748    66 layer_factory.hpp:77] Creating layer scale5c_branch2b
I0108 08:49:41.904938    66 net.cpp:122] Setting up scale5c_branch2b
I0108 08:49:41.904950    66 net.cpp:129] Top shape: 16 512 7 7 (401408)
I0108 08:49:41.904956    66 net.cpp:137] Memory required for data: 3675291904
I0108 08:49:41.904968    66 layer_factory.hpp:77] Creating layer res5c_branch2b_relu
I0108 08:49:41.904978    66 net.cpp:84] Creating Layer res5c_branch2b_relu
I0108 08:49:41.904985    66 net.cpp:406] res5c_branch2b_relu <- res5c_branch2b
I0108 08:49:41.904995    66 net.cpp:367] res5c_branch2b_relu -> res5c_branch2b (in-place)
I0108 08:49:41.905244    66 net.cpp:122] Setting up res5c_branch2b_relu
I0108 08:49:41.905258    66 net.cpp:129] Top shape: 16 512 7 7 (401408)
I0108 08:49:41.905288    66 net.cpp:137] Memory required for data: 3676897536
I0108 08:49:41.905294    66 layer_factory.hpp:77] Creating layer res5c_branch2c
I0108 08:49:41.905316    66 net.cpp:84] Creating Layer res5c_branch2c
I0108 08:49:41.905323    66 net.cpp:406] res5c_branch2c <- res5c_branch2b
I0108 08:49:41.905333    66 net.cpp:380] res5c_branch2c -> res5c_branch2c
I0108 08:49:41.910392    66 net.cpp:122] Setting up res5c_branch2c
I0108 08:49:41.910413    66 net.cpp:129] Top shape: 16 2048 7 7 (1605632)
I0108 08:49:41.910420    66 net.cpp:137] Memory required for data: 3683320064
I0108 08:49:41.910431    66 layer_factory.hpp:77] Creating layer bn5c_branch2c
I0108 08:49:41.910449    66 net.cpp:84] Creating Layer bn5c_branch2c
I0108 08:49:41.910455    66 net.cpp:406] bn5c_branch2c <- res5c_branch2c
I0108 08:49:41.910465    66 net.cpp:367] bn5c_branch2c -> res5c_branch2c (in-place)
I0108 08:49:41.910784    66 net.cpp:122] Setting up bn5c_branch2c
I0108 08:49:41.910796    66 net.cpp:129] Top shape: 16 2048 7 7 (1605632)
I0108 08:49:41.910802    66 net.cpp:137] Memory required for data: 3689742592
I0108 08:49:41.910818    66 layer_factory.hpp:77] Creating layer scale5c_branch2c
I0108 08:49:41.910828    66 net.cpp:84] Creating Layer scale5c_branch2c
I0108 08:49:41.910836    66 net.cpp:406] scale5c_branch2c <- res5c_branch2c
I0108 08:49:41.910845    66 net.cpp:367] scale5c_branch2c -> res5c_branch2c (in-place)
I0108 08:49:41.910914    66 layer_factory.hpp:77] Creating layer scale5c_branch2c
I0108 08:49:41.911114    66 net.cpp:122] Setting up scale5c_branch2c
I0108 08:49:41.911126    66 net.cpp:129] Top shape: 16 2048 7 7 (1605632)
I0108 08:49:41.911132    66 net.cpp:137] Memory required for data: 3696165120
I0108 08:49:41.911142    66 layer_factory.hpp:77] Creating layer res5c
I0108 08:49:41.911154    66 net.cpp:84] Creating Layer res5c
I0108 08:49:41.911161    66 net.cpp:406] res5c <- res5b_res5b_relu_0_split_1
I0108 08:49:41.911170    66 net.cpp:406] res5c <- res5c_branch2c
I0108 08:49:41.911180    66 net.cpp:380] res5c -> res5c
I0108 08:49:41.911226    66 net.cpp:122] Setting up res5c
I0108 08:49:41.911236    66 net.cpp:129] Top shape: 16 2048 7 7 (1605632)
I0108 08:49:41.911242    66 net.cpp:137] Memory required for data: 3702587648
I0108 08:49:41.911249    66 layer_factory.hpp:77] Creating layer res5c_relu
I0108 08:49:41.911262    66 net.cpp:84] Creating Layer res5c_relu
I0108 08:49:41.911268    66 net.cpp:406] res5c_relu <- res5c
I0108 08:49:41.911276    66 net.cpp:367] res5c_relu -> res5c (in-place)
I0108 08:49:41.912170    66 net.cpp:122] Setting up res5c_relu
I0108 08:49:41.912189    66 net.cpp:129] Top shape: 16 2048 7 7 (1605632)
I0108 08:49:41.912196    66 net.cpp:137] Memory required for data: 3709010176
I0108 08:49:41.912202    66 layer_factory.hpp:77] Creating layer pool5
I0108 08:49:41.912221    66 net.cpp:84] Creating Layer pool5
I0108 08:49:41.912230    66 net.cpp:406] pool5 <- res5c
I0108 08:49:41.912240    66 net.cpp:380] pool5 -> pool5
I0108 08:49:41.912530    66 net.cpp:122] Setting up pool5
I0108 08:49:41.912544    66 net.cpp:129] Top shape: 16 2048 1 1 (32768)
I0108 08:49:41.912550    66 net.cpp:137] Memory required for data: 3709141248
I0108 08:49:41.912559    66 layer_factory.hpp:77] Creating layer wh_fc_724
I0108 08:49:41.912582    66 net.cpp:84] Creating Layer wh_fc_724
I0108 08:49:41.912590    66 net.cpp:406] wh_fc_724 <- pool5
I0108 08:49:41.912597    66 net.cpp:380] wh_fc_724 -> wh_fc_724
I0108 08:49:41.917582    66 net.cpp:122] Setting up wh_fc_724
I0108 08:49:41.917603    66 net.cpp:129] Top shape: 16 724 (11584)
I0108 08:49:41.917608    66 net.cpp:137] Memory required for data: 3709187584
I0108 08:49:41.917621    66 layer_factory.hpp:77] Creating layer wh_fc_724_wh_fc_724_0_split
I0108 08:49:41.917634    66 net.cpp:84] Creating Layer wh_fc_724_wh_fc_724_0_split
I0108 08:49:41.917642    66 net.cpp:406] wh_fc_724_wh_fc_724_0_split <- wh_fc_724
I0108 08:49:41.917655    66 net.cpp:380] wh_fc_724_wh_fc_724_0_split -> wh_fc_724_wh_fc_724_0_split_0
I0108 08:49:41.917688    66 net.cpp:380] wh_fc_724_wh_fc_724_0_split -> wh_fc_724_wh_fc_724_0_split_1
I0108 08:49:41.917701    66 net.cpp:380] wh_fc_724_wh_fc_724_0_split -> wh_fc_724_wh_fc_724_0_split_2
I0108 08:49:41.917793    66 net.cpp:122] Setting up wh_fc_724_wh_fc_724_0_split
I0108 08:49:41.917809    66 net.cpp:129] Top shape: 16 724 (11584)
I0108 08:49:41.917819    66 net.cpp:129] Top shape: 16 724 (11584)
I0108 08:49:41.917827    66 net.cpp:129] Top shape: 16 724 (11584)
I0108 08:49:41.917834    66 net.cpp:137] Memory required for data: 3709326592
I0108 08:49:41.917840    66 layer_factory.hpp:77] Creating layer loss
I0108 08:49:41.917850    66 net.cpp:84] Creating Layer loss
I0108 08:49:41.917856    66 net.cpp:406] loss <- wh_fc_724_wh_fc_724_0_split_0
I0108 08:49:41.917865    66 net.cpp:406] loss <- label_data_1_split_0
I0108 08:49:41.917874    66 net.cpp:380] loss -> loss
…
