…
I0117 06:30:04.299172  7652 caffe.cpp:279] GPU device name: Tesla P100-SXM2-16GB
I0117 06:30:05.550770  7652 net.cpp:51] Initializing net from parameters: 
name: "ResNet-50"
state {
  phase: TEST
  level: 0
  stage: ""
}
layer {
  name: "data"
  type: "Data"
  top: "data"
  top: "label"
  include {
    phase: TEST
  }
  transform_param {
    mirror: false
    crop_size: 224
    mean_file: "../newFood724_TEST/newFood724_aug_mean.binaryproto"
  }
  data_param {
    source: "../newFood724_TEST/newFood724_test_lmdb"
    batch_size: 16
    backend: LMDB
  }
}
layer {
  name: "conv1"
  type: "Convolution"
  bottom: "data"
  top: "conv1"
  convolution_param {
    num_output: 64
    pad: 3
    kernel_size: 7
    stride: 2
  }
}
layer {
  name: "bn_conv1"
  type: "BatchNorm"
  bottom: "conv1"
  top: "conv1"
  batch_norm_param {
    use_global_stats: true
  }
}
layer {
  name: "scale_conv1"
  type: "Scale"
  bottom: "conv1"
  top: "conv1"
  scale_param {
    bias_term: true
  }
}
layer {
  name: "conv1_relu"
  type: "ReLU"
  bottom: "conv1"
  top: "conv1"
}
layer {
  name: "pool1"
  type: "Pooling"
  bottom: "conv1"
  top: "pool1"
  pooling_param {
    pool: MAX
    kernel_size: 3
    stride: 2
  }
}
layer {
  name: "res2a_branch1"
  type: "Convolution"
  bottom: "pool1"
  top: "res2a_branch1"
  convolution_param {
    num_output: 256
    bias_term: false
    pad: 0
    kernel_size: 1
    stride: 1
  }
}
layer {
  name: "bn2a_branch1"
  type: "BatchNorm"
  bottom: "res2a_branch1"
  top: "res2a_branch1"
  batch_norm_param {
    use_global_stats: true
  }
}
layer {
  name: "scale2a_branch1"
  type: "Scale"
  bottom: "res2a_branch1"
  top: "res2a_branch1"
  scale_param {
    bias_term: true
  }
}
layer {
  name: "res2a_branch2a"
  type: "Convolution"
  bottom: "pool1"
  top: "res2a_branch2a"
  convolution_param {
    num_output: 64
    bias_term: false
    pad: 0
    kernel_size: 1
    stride: 1
  }
}
layer {
  name: "bn2a_branch2a"
  type: "BatchNorm"
  bottom: "res2a_branch2a"
  top: "res2a_branch2a"
  batch_norm_param {
    use_global_stats: true
  }
}
layer {
  name: "scale2a_branch2a"
  type: "Scale"
  bottom: "res2a_branch2a"
  top: "res2a_branch2a"
  scale_param {
    bias_term: true
  }
}
layer {
  name: "res2a_branch2a_relu"
  type: "ReLU"
  bottom: "res2a_branch2a"
  top: "res2a_branch2a"
}
layer {
  name: "res2a_branch2b"
  type: "Convolution"
  bottom: "res2a_branch2a"
  top: "res2a_branch2b"
  convolution_param {
    num_output: 64
    bias_term: false
    pad: 1
    kernel_size: 3
    stride: 1
  }
}
layer {
  name: "bn2a_branch2b"
  type: "BatchNorm"
  bottom: "res2a_branch2b"
  top: "res2a_branch2b"
  batch_norm_param {
    use_global_stats: true
  }
}
layer {
  name: "scale2a_branch2b"
  type: "Scale"
  bottom: "res2a_branch2b"
  top: "res2a_branch2b"
  scale_param {
    bias_term: true
  }
}
layer {
  name: "res2a_branch2b_relu"
  type: "ReLU"
  bottom: "res2a_branch2b"
  top: "res2a_branch2b"
}
layer {
  name: "res2a_branch2c"
  type: "Convolution"
  bottom: "res2a_branch2b"
  top: "res2a_branch2c"
  convolution_param {
    num_output: 256
    bias_term: false
    pad: 0
    kernel_size: 1
    stride: 1
  }
}
layer {
  name: "bn2a_branch2c"
  type: "BatchNorm"
  bottom: "res2a_branch2c"
  top: "res2a_branch2c"
  batch_norm_param {
    use_global_stats: true
  }
}
layer {
  name: "scale2a_branch2c"
  type: "Scale"
  bottom: "res2a_branch2c"
  top: "res2a_branch2c"
  scale_param {
    bias_term: true
  }
}
layer {
  name: "res2a"
  type: "Eltwise"
  bottom: "res2a_branch1"
  bottom: "res2a_branch2c"
  top: "res2a"
}
layer {
  name: "res2a_relu"
  type: "ReLU"
  bottom: "res2a"
  top: "res2a"
}
layer {
  name: "res2b_branch2a"
  type: "Convolution"
  bottom: "res2a"
  top: "res2b_branch2a"
  convolution_param {
    num_output: 64
    bias_term: false
    pad: 0
    kernel_size: 1
    stride: 1
  }
}
layer {
  name: "bn2b_branch2a"
  type: "BatchNorm"
  bottom: "res2b_branch2a"
  top: "res2b_branch2a"
  batch_norm_param {
    use_global_stats: true
  }
}
layer {
  name: "scale2b_branch2a"
  type: "Scale"
  bottom: "res2b_branch2a"
  top: "res2b_branch2a"
  scale_param {
    bias_term: true
  }
}
layer {
  name: "res2b_branch2a_relu"
  type: "ReLU"
  bottom: "res2b_branch2a"
  top: "res2b_branch2a"
}
layer {
  name: "res2b_branch2b"
  type: "Convolution"
  bottom: "res2b_branch2a"
  top: "res2b_branch2b"
  convolution_param {
    num_output: 64
    bias_term: false
    pad: 1
    kernel_size: 3
    stride: 1
  }
}
layer {
  name: "bn2b_branch2b"
  type: "BatchNorm"
  bottom: "res2b_branch2b"
  top: "res2b_branch2b"
  batch_norm_param {
    use_global_stats: true
  }
}
layer {
  name: "scale2b_branch2b"
  type: "Scale"
  bottom: "res2b_branch2b"
  top: "res2b_branch2b"
  scale_param {
    bias_term: true
  }
}
layer {
  name: "res2b_branch2b_relu"
  type: "ReLU"
  bottom: "res2b_branch2b"
  top: "res2b_branch2b"
}
layer {
  name: "res2b_branch2c"
  type: "Convolution"
  bottom: "res2b_branch2b"
  top: "res2b_branch2c"
  convolution_param {
    num_output: 256
    bias_term: false
    pad: 0
    kernel_size: 1
    stride: 1
  }
}
layer {
  name: "bn2b_branch2c"
  type: "BatchNorm"
  bottom: "res2b_branch2c"
  top: "res2b_branch2c"
  batch_norm_param {
    use_global_stats: true
  }
}
layer {
  name: "scale2b_branch2c"
  type: "Scale"
  bottom: "res2b_branch2c"
  top: "res2b_branch2c"
  scale_param {
    bias_term: true
  }
}
layer {
  name: "res2b"
  type: "Eltwise"
  bottom: "res2a"
  bottom: "res2b_branch2c"
  top: "res2b"
}
layer {
  name: "res2b_relu"
  type: "ReLU"
  bottom: "res2b"
  top: "res2b"
}
layer {
  name: "res2c_branch2a"
  type: "Convolution"
  bottom: "res2b"
  top: "res2c_branch2a"
  convolution_param {
    num_output: 64
    bias_term: false
    pad: 0
    kernel_size: 1
    stride: 1
  }
}
layer {
  name: "bn2c_branch2a"
  type: "BatchNorm"
  bottom: "res2c_branch2a"
  top: "res2c_branch2a"
  batch_norm_param {
    use_global_stats: true
  }
}
layer {
  name: "scale2c_branch2a"
  type: "Scale"
  bottom: "res2c_branch2a"
  top: "res2c_branch2a"
  scale_param {
    bias_term: true
  }
}
layer {
  name: "res2c_branch2a_relu"
  type: "ReLU"
  bottom: "res2c_branch2a"
  top: "res2c_branch2a"
}
layer {
  name: "res2c_branch2b"
  type: "Convolution"
  bottom: "res2c_branch2a"
  top: "res2c_branch2b"
  convolution_param {
    num_output: 64
    bias_term: false
    pad: 1
    kernel_size: 3
    stride: 1
  }
}
layer {
  name: "bn2c_branch2b"
  type: "BatchNorm"
  bottom: "res2c_branch2b"
  top: "res2c_branch2b"
  batch_norm_param {
    use_global_stats: true
  }
}
layer {
  name: "scale2c_branch2b"
  type: "Scale"
  bottom: "res2c_branch2b"
  top: "res2c_branch2b"
  scale_param {
    bias_term: true
  }
}
layer {
  name: "res2c_branch2b_relu"
  type: "ReLU"
  bottom: "res2c_branch2b"
  top: "res2c_branch2b"
}
layer {
  name: "res2c_branch2c"
  type: "Convolution"
  bottom: "res2c_branch2b"
  top: "res2c_branch2c"
  convolution_param {
    num_output: 256
    bias_term: false
    pad: 0
    kernel_size: 1
    stride: 1
  }
}
layer {
  name: "bn2c_branch2c"
  type: "BatchNorm"
  bottom: "res2c_branch2c"
  top: "res2c_branch2c"
  batch_norm_param {
    use_global_stats: true
  }
}
layer {
  name: "scale2c_branch2c"
  type: "Scale"
  bottom: "res2c_branch2c"
  top: "res2c_branch2c"
  scale_param {
    bias_term: true
  }
}
layer {
  name: "res2c"
  type: "Eltwise"
  bottom: "res2b"
  bottom: "res2c_branch2c"
  top: "res2c"
}
layer {
  name: "res2c_relu"
  type: "ReLU"
  bottom: "res2c"
  top: "res2c"
}
layer {
  name: "res3a_branch1"
  type: "Convolution"
  bottom: "res2c"
  top: "res3a_branch1"
  convolution_param {
    num_output: 512
    bias_term: false
    pad: 0
    kernel_size: 1
    stride: 2
  }
}
layer {
  name: "bn3a_branch1"
  type: "BatchNorm"
  bottom: "res3a_branch1"
  top: "res3a_branch1"
  batch_norm_param {
    use_global_stats: true
  }
}
layer {
  name: "scale3a_branch1"
  type: "Scale"
  bottom: "res3a_branch1"
  top: "res3a_branch1"
  scale_param {
    bias_term: true
  }
}
layer {
  name: "res3a_branch2a"
  type: "Convolution"
  bottom: "res2c"
  top: "res3a_branch2a"
  convolution_param {
    num_output: 128
    bias_term: false
    pad: 0
    kernel_size: 1
    stride: 2
  }
}
layer {
  name: "bn3a_branch2a"
  type: "BatchNorm"
  bottom: "res3a_branch2a"
  top: "res3a_branch2a"
  batch_norm_param {
    use_global_stats: true
  }
}
layer {
  name: "scale3a_branch2a"
  type: "Scale"
  bottom: "res3a_branch2a"
  top: "res3a_branch2a"
  scale_param {
    bias_term: true
  }
}
layer {
  name: "res3a_branch2a_relu"
  type: "ReLU"
  bottom: "res3a_branch2a"
  top: "res3a_branch2a"
}
layer {
  name: "res3a_branch2b"
  type: "Convolution"
  bottom: "res3a_branch2a"
  top: "res3a_branch2b"
  convolution_param {
    num_output: 128
    bias_term: false
    pad: 1
    kernel_size: 3
    stride: 1
  }
}
layer {
  name: "bn3a_branch2b"
  type: "BatchNorm"
  bottom: "res3a_branch2b"
  top: "res3a_branch2b"
  batch_norm_param {
    use_global_stats: true
  }
}
layer {
  name: "scale3a_branch2b"
  type: "Scale"
  bottom: "res3a_branch2b"
  top: "res3a_branch2b"
  scale_param {
    bias_term: true
  }
}
layer {
  name: "res3a_branch2b_relu"
  type: "ReLU"
  bottom: "res3a_branch2b"
  top: "res3a_branch2b"
}
layer {
  name: "res3a_branch2c"
  type: "Convolution"
  bottom: "res3a_branch2b"
  top: "res3a_branch2c"
  convolution_param {
    num_output: 512
    bias_term: false
    pad: 0
    kernel_size: 1
    stride: 1
  }
}
layer {
  name: "bn3a_branch2c"
  type: "BatchNorm"
  bottom: "res3a_branch2c"
  top: "res3a_branch2c"
  batch_norm_param {
    use_global_stats: true
  }
}
layer {
  name: "scale3a_branch2c"
  type: "Scale"
  bottom: "res3a_branch2c"
  top: "res3a_branch2c"
  scale_param {
    bias_term: true
  }
}
layer {
  name: "res3a"
  type: "Eltwise"
  bottom: "res3a_branch1"
  bottom: "res3a_branch2c"
  top: "res3a"
}
layer {
  name: "res3a_relu"
  type: "ReLU"
  bottom: "res3a"
  top: "res3a"
}
layer {
  name: "res3b_branch2a"
  type: "Convolution"
  bottom: "res3a"
  top: "res3b_branch2a"
  convolution_param {
    num_output: 128
    bias_term: false
    pad: 0
    kernel_size: 1
    stride: 1
  }
}
layer {
  name: "bn3b_branch2a"
  type: "BatchNorm"
  bottom: "res3b_branch2a"
  top: "res3b_branch2a"
  batch_norm_param {
    use_global_stats: true
  }
}
layer {
  name: "scale3b_branch2a"
  type: "Scale"
  bottom: "res3b_branch2a"
  top: "res3b_branch2a"
  scale_param {
    bias_term: true
  }
}
layer {
  name: "res3b_branch2a_relu"
  type: "ReLU"
  bottom: "res3b_branch2a"
  top: "res3b_branch2a"
}
layer {
  name: "res3b_branch2b"
  type: "Convolution"
  bottom: "res3b_branch2a"
  top: "res3b_branch2b"
  convolution_param {
    num_output: 128
    bias_term: false
    pad: 1
    kernel_size: 3
    stride: 1
  }
}
layer {
  name: "bn3b_branch2b"
  type: "BatchNorm"
  bottom: "res3b_branch2b"
  top: "res3b_branch2b"
  batch_norm_param {
    use_global_stats: true
  }
}
layer {
  name: "scale3b_branch2b"
  type: "Scale"
  bottom: "res3b_branch2b"
  top: "res3b_branch2b"
  scale_param {
    bias_term: true
  }
}
layer {
  name: "res3b_branch2b_relu"
  type: "ReLU"
  bottom: "res3b_branch2b"
  top: "res3b_branch2b"
}
layer {
  name: "res3b_branch2c"
  type: "Convolution"
  bottom: "res3b_branch2b"
  top: "res3b_branch2c"
  convolution_param {
    num_output: 512
    bias_term: false
    pad: 0
    kernel_size: 1
    stride: 1
  }
}
layer {
  name: "bn3b_branch2c"
  type: "BatchNorm"
  bottom: "res3b_branch2c"
  top: "res3b_branch2c"
  batch_norm_param {
    use_global_stats: true
  }
}
layer {
  name: "scale3b_branch2c"
  type: "Scale"
  bottom: "res3b_branch2c"
  top: "res3b_branch2c"
  scale_param {
    bias_term: true
  }
}
layer {
  name: "res3b"
  type: "Eltwise"
  bottom: "res3a"
  bottom: "res3b_branch2c"
  top: "res3b"
}
layer {
  name: "res3b_relu"
  type: "ReLU"
  bottom: "res3b"
  top: "res3b"
}
layer {
  name: "res3c_branch2a"
  type: "Convolution"
  bottom: "res3b"
  top: "res3c_branch2a"
  convolution_param {
    num_output: 128
    bias_term: false
    pad: 0
    kernel_size: 1
    stride: 1
  }
}
layer {
  name: "bn3c_branch2a"
  type: "BatchNorm"
  bottom: "res3c_branch2a"
  top: "res3c_branch2a"
  batch_norm_param {
    use_global_stats: true
  }
}
layer {
  name: "scale3c_branch2a"
  type: "Scale"
  bottom: "res3c_branch2a"
  top: "res3c_branch2a"
  scale_param {
    bias_term: true
  }
}
layer {
  name: "res3c_branch2a_relu"
  type: "ReLU"
  bottom: "res3c_branch2a"
  top: "res3c_branch2a"
}
layer {
  name: "res3c_branch2b"
  type: "Convolution"
  bottom: "res3c_branch2a"
  top: "res3c_branch2b"
  convolution_param {
    num_output: 128
    bias_term: false
    pad: 1
    kernel_size: 3
    stride: 1
  }
}
layer {
  name: "bn3c_branch2b"
  type: "BatchNorm"
  bottom: "res3c_branch2b"
  top: "res3c_branch2b"
  batch_norm_param {
    use_global_stats: true
  }
}
layer {
  name: "scale3c_branch2b"
  type: "Scale"
  bottom: "res3c_branch2b"
  top: "res3c_branch2b"
  scale_param {
    bias_term: true
  }
}
layer {
  name: "res3c_branch2b_relu"
  type: "ReLU"
  bottom: "res3c_branch2b"
  top: "res3c_branch2b"
}
layer {
  name: "res3c_branch2c"
  type: "Convolution"
  bottom: "res3c_branch2b"
  top: "res3c_branch2c"
  convolution_param {
    num_output: 512
    bias_term: false
    pad: 0
    kernel_size: 1
    stride: 1
  }
}
layer {
  name: "bn3c_branch2c"
  type: "BatchNorm"
  bottom: "res3c_branch2c"
  top: "res3c_branch2c"
  batch_norm_param {
    use_global_stats: true
  }
}
layer {
  name: "scale3c_branch2c"
  type: "Scale"
  bottom: "res3c_branch2c"
  top: "res3c_branch2c"
  scale_param {
    bias_term: true
  }
}
layer {
  name: "res3c"
  type: "Eltwise"
  bottom: "res3b"
  bottom: "res3c_branch2c"
  top: "res3c"
}
layer {
  name: "res3c_relu"
  type: "ReLU"
  bottom: "res3c"
  top: "res3c"
}
layer {
  name: "res3d_branch2a"
  type: "Convolution"
  bottom: "res3c"
  top: "res3d_branch2a"
  convolution_param {
    num_output: 128
    bias_term: false
    pad: 0
    kernel_size: 1
    stride: 1
  }
}
layer {
  name: "bn3d_branch2a"
  type: "BatchNorm"
  bottom: "res3d_branch2a"
  top: "res3d_branch2a"
  batch_norm_param {
    use_global_stats: true
  }
}
layer {
  name: "scale3d_branch2a"
  type: "Scale"
  bottom: "res3d_branch2a"
  top: "res3d_branch2a"
  scale_param {
    bias_term: true
  }
}
layer {
  name: "res3d_branch2a_relu"
  type: "ReLU"
  bottom: "res3d_branch2a"
  top: "res3d_branch2a"
}
layer {
  name: "res3d_branch2b"
  type: "Convolution"
  bottom: "res3d_branch2a"
  top: "res3d_branch2b"
  convolution_param {
    num_output: 128
    bias_term: false
    pad: 1
    kernel_size: 3
    stride: 1
  }
}
layer {
  name: "bn3d_branch2b"
  type: "BatchNorm"
  bottom: "res3d_branch2b"
  top: "res3d_branch2b"
  batch_norm_param {
    use_global_stats: true
  }
}
layer {
  name: "scale3d_branch2b"
  type: "Scale"
  bottom: "res3d_branch2b"
  top: "res3d_branch2b"
  scale_param {
    bias_term: true
  }
}
layer {
  name: "res3d_branch2b_relu"
  type: "ReLU"
  bottom: "res3d_branch2b"
  top: "res3d_branch2b"
}
layer {
  name: "res3d_branch2c"
  type: "Convolution"
  bottom: "res3d_branch2b"
  top: "res3d_branch2c"
  convolution_param {
    num_output: 512
    bias_term: false
    pad: 0
    kernel_size: 1
    stride: 1
  }
}
layer {
  name: "bn3d_branch2c"
  type: "BatchNorm"
  bottom: "res3d_branch2c"
  top: "res3d_branch2c"
  batch_norm_param {
    use_global_stats: true
  }
}
layer {
  name: "scale3d_branch2c"
  type: "Scale"
  bottom: "res3d_branch2c"
  top: "res3d_branch2c"
  scale_param {
    bias_term: true
  }
}
layer {
  name: "res3d"
  type: "Eltwise"
  bottom: "res3c"
  bottom: "res3d_branch2c"
  top: "res3d"
}
layer {
  name: "res3d_relu"
  type: "ReLU"
  bottom: "res3d"
  top: "res3d"
}
layer {
  name: "res4a_branch1"
  type: "Convolution"
  bottom: "res3d"
  top: "res4a_branch1"
  convolution_param {
    num_output: 1024
    bias_term: false
    pad: 0
    kernel_size: 1
    stride: 2
  }
}
layer {
  name: "bn4a_branch1"
  type: "BatchNorm"
  bottom: "res4a_branch1"
  top: "res4a_branch1"
  batch_norm_param {
    use_global_stats: true
  }
}
layer {
  name: "scale4a_branch1"
  type: "Scale"
  bottom: "res4a_branch1"
  top: "res4a_branch1"
  scale_param {
    bias_term: true
  }
}
layer {
  name: "res4a_branch2a"
  type: "Convolution"
  bottom: "res3d"
  top: "res4a_branch2a"
  convolution_param {
    num_output: 256
    bias_term: false
    pad: 0
    kernel_size: 1
    stride: 2
  }
}
layer {
  name: "bn4a_branch2a"
  type: "BatchNorm"
  bottom: "res4a_branch2a"
  top: "res4a_branch2a"
  batch_norm_param {
    use_global_stats: true
  }
}
layer {
  name: "scale4a_branch2a"
  type: "Scale"
  bottom: "res4a_branch2a"
  top: "res4a_branch2a"
  scale_param {
    bias_term: true
  }
}
layer {
  name: "res4a_branch2a_relu"
  type: "ReLU"
  bottom: "res4a_branch2a"
  top: "res4a_branch2a"
}
layer {
  name: "res4a_branch2b"
  type: "Convolution"
  bottom: "res4a_branch2a"
  top: "res4a_branch2b"
  convolution_param {
    num_output: 256
    bias_term: false
    pad: 1
    kernel_size: 3
    stride: 1
  }
}
layer {
  name: "bn4a_branch2b"
  type: "BatchNorm"
  bottom: "res4a_branch2b"
  top: "res4a_branch2b"
  batch_norm_param {
    use_global_stats: true
  }
}
layer {
  name: "scale4a_branch2b"
  type: "Scale"
  bottom: "res4a_branch2b"
  top: "res4a_branch2b"
  scale_param {
    bias_term: true
  }
}
layer {
  name: "res4a_branch2b_relu"
  type: "ReLU"
  bottom: "res4a_branch2b"
  top: "res4a_branch2b"
}
layer {
  name: "res4a_branch2c"
  type: "Convolution"
  bottom: "res4a_branch2b"
  top: "res4a_branch2c"
  convolution_param {
    num_output: 1024
    bias_term: false
    pad: 0
    kernel_size: 1
    stride: 1
  }
}
layer {
  name: "bn4a_branch2c"
  type: "BatchNorm"
  bottom: "res4a_branch2c"
  top: "res4a_branch2c"
  batch_norm_param {
    use_global_stats: true
  }
}
layer {
  name: "scale4a_branch2c"
  type: "Scale"
  bottom: "res4a_branch2c"
  top: "res4a_branch2c"
  scale_param {
    bias_term: true
  }
}
layer {
  name: "res4a"
  type: "Eltwise"
  bottom: "res4a_branch1"
  bottom: "res4a_branch2c"
  top: "res4a"
}
layer {
  name: "res4a_relu"
  type: "ReLU"
  bottom: "res4a"
  top: "res4a"
}
layer {
  name: "res4b_branch2a"
  type: "Convolution"
  bottom: "res4a"
  top: "res4b_branch2a"
  convolution_param {
    num_output: 256
    bias_term: false
    pad: 0
    kernel_size: 1
    stride: 1
  }
}
layer {
  name: "bn4b_branch2a"
  type: "BatchNorm"
  bottom: "res4b_branch2a"
  top: "res4b_branch2a"
  batch_norm_param {
    use_global_stats: true
  }
}
layer {
  name: "scale4b_branch2a"
  type: "Scale"
  bottom: "res4b_branch2a"
  top: "res4b_branch2a"
  scale_param {
    bias_term: true
  }
}
layer {
  name: "res4b_branch2a_relu"
  type: "ReLU"
  bottom: "res4b_branch2a"
  top: "res4b_branch2a"
}
layer {
  name: "res4b_branch2b"
  type: "Convolution"
  bottom: "res4b_branch2a"
  top: "res4b_branch2b"
  convolution_param {
    num_output: 256
    bias_term: false
    pad: 1
    kernel_size: 3
    stride: 1
  }
}
layer {
  name: "bn4b_branch2b"
  type: "BatchNorm"
  bottom: "res4b_branch2b"
  top: "res4b_branch2b"
  batch_norm_param {
    use_global_stats: true
  }
}
layer {
  name: "scale4b_branch2b"
  type: "Scale"
  bottom: "res4b_branch2b"
  top: "res4b_branch2b"
  scale_param {
    bias_term: true
  }
}
layer {
  name: "res4b_branch2b_relu"
  type: "ReLU"
  bottom: "res4b_branch2b"
  top: "res4b_branch2b"
}
layer {
  name: "res4b_branch2c"
  type: "Convolution"
  bottom: "res4b_branch2b"
  top: "res4b_branch2c"
  convolution_param {
    num_output: 1024
    bias_term: false
    pad: 0
    kernel_size: 1
    stride: 1
  }
}
layer {
  name: "bn4b_branch2c"
  type: "BatchNorm"
  bottom: "res4b_branch2c"
  top: "res4b_branch2c"
  batch_norm_param {
    use_global_stats: true
  }
}
layer {
  name: "scale4b_branch2c"
  type: "Scale"
  bottom: "res4b_branch2c"
  top: "res4b_branch2c"
  scale_param {
    bias_term: true
  }
}
layer {
  name: "res4b"
  type: "Eltwise"
  bottom: "res4a"
  bottom: "res4b_branch2c"
  top: "res4b"
}
layer {
  name: "res4b_relu"
  type: "ReLU"
  bottom: "res4b"
  top: "res4b"
}
layer {
  name: "res4c_branch2a"
  type: "Convolution"
  bottom: "res4b"
  top: "res4c_branch2a"
  convolution_param {
    num_output: 256
    bias_term: false
    pad: 0
    kernel_size: 1
    stride: 1
  }
}
layer {
  name: "bn4c_branch2a"
  type: "BatchNorm"
  bottom: "res4c_branch2a"
  top: "res4c_branch2a"
  batch_norm_param {
    use_global_stats: true
  }
}
layer {
  name: "scale4c_branch2a"
  type: "Scale"
  bottom: "res4c_branch2a"
  top: "res4c_branch2a"
  scale_param {
    bias_term: true
  }
}
layer {
  name: "res4c_branch2a_relu"
  type: "ReLU"
  bottom: "res4c_branch2a"
  top: "res4c_branch2a"
}
layer {
  name: "res4c_branch2b"
  type: "Convolution"
  bottom: "res4c_branch2a"
  top: "res4c_branch2b"
  convolution_param {
    num_output: 256
    bias_term: false
    pad: 1
    kernel_size: 3
    stride: 1
  }
}
layer {
  name: "bn4c_branch2b"
  type: "BatchNorm"
  bottom: "res4c_branch2b"
  top: "res4c_branch2b"
  batch_norm_param {
    use_global_stats: true
  }
}
layer {
  name: "scale4c_branch2b"
  type: "Scale"
  bottom: "res4c_branch2b"
  top: "res4c_branch2b"
  scale_param {
    bias_term: true
  }
}
layer {
  name: "res4c_branch2b_relu"
  type: "ReLU"
  bottom: "res4c_branch2b"
  top: "res4c_branch2b"
}
layer {
  name: "res4c_branch2c"
  type: "Convolution"
  bottom: "res4c_branch2b"
  top: "res4c_branch2c"
  convolution_param {
    num_output: 1024
    bias_term: false
    pad: 0
    kernel_size: 1
    stride: 1
  }
}
layer {
  name: "bn4c_branch2c"
  type: "BatchNorm"
  bottom: "res4c_branch2c"
  top: "res4c_branch2c"
  batch_norm_param {
    use_global_stats: true
  }
}
layer {
  name: "scale4c_branch2c"
  type: "Scale"
  bottom: "res4c_branch2c"
  top: "res4c_branch2c"
  scale_param {
    bias_term: true
  }
}
layer {
  name: "res4c"
  type: "Eltwise"
  bottom: "res4b"
  bottom: "res4c_branch2c"
  top: "res4c"
}
layer {
  name: "res4c_relu"
  type: "ReLU"
  bottom: "res4c"
  top: "res4c"
}
layer {
  name: "res4d_branch2a"
  type: "Convolution"
  bottom: "res4c"
  top: "res4d_branch2a"
  convolution_param {
    num_output: 256
    bias_term: false
    pad: 0
    kernel_size: 1
    stride: 1
  }
}
layer {
  name: "bn4d_branch2a"
  type: "BatchNorm"
  bottom: "res4d_branch2a"
  top: "res4d_branch2a"
  batch_norm_param {
    use_global_stats: true
  }
}
layer {
  name: "scale4d_branch2a"
  type: "Scale"
  bottom: "res4d_branch2a"
  top: "res4d_branch2a"
  scale_param {
    bias_term: true
  }
}
layer {
  name: "res4d_branch2a_relu"
  type: "ReLU"
  bottom: "res4d_branch2a"
  top: "res4d_branch2a"
}
layer {
  name: "res4d_branch2b"
  type: "Convolution"
  bottom: "res4d_branch2a"
  top: "res4d_branch2b"
  convolution_param {
    num_output: 256
    bias_term: false
    pad: 1
    kernel_size: 3
    stride: 1
  }
}
layer {
  name: "bn4d_branch2b"
  type: "BatchNorm"
  bottom: "res4d_branch2b"
  top: "res4d_branch2b"
  batch_norm_param {
    use_global_stats: true
  }
}
layer {
  name: "scale4d_branch2b"
  type: "Scale"
  bottom: "res4d_branch2b"
  top: "res4d_branch2b"
  scale_param {
    bias_term: true
  }
}
layer {
  name: "res4d_branch2b_relu"
  type: "ReLU"
  bottom: "res4d_branch2b"
  top: "res4d_branch2b"
}
layer {
  name: "res4d_branch2c"
  type: "Convolution"
  bottom: "res4d_branch2b"
  top: "res4d_branch2c"
  convolution_param {
    num_output: 1024
    bias_term: false
    pad: 0
    kernel_size: 1
    stride: 1
  }
}
layer {
  name: "bn4d_branch2c"
  type: "BatchNorm"
  bottom: "res4d_branch2c"
  top: "res4d_branch2c"
  batch_norm_param {
    use_global_stats: true
  }
}
layer {
  name: "scale4d_branch2c"
  type: "Scale"
  bottom: "res4d_branch2c"
  top: "res4d_branch2c"
  scale_param {
    bias_term: true
  }
}
layer {
  name: "res4d"
  type: "Eltwise"
  bottom: "res4c"
  bottom: "res4d_branch2c"
  top: "res4d"
}
layer {
  name: "res4d_relu"
  type: "ReLU"
  bottom: "res4d"
  top: "res4d"
}
layer {
  name: "res4e_branch2a"
  type: "Convolution"
  bottom: "res4d"
  top: "res4e_branch2a"
  convolution_param {
    num_output: 256
    bias_term: false
    pad: 0
    kernel_size: 1
    stride: 1
  }
}
layer {
  name: "bn4e_branch2a"
  type: "BatchNorm"
  bottom: "res4e_branch2a"
  top: "res4e_branch2a"
  batch_norm_param {
    use_global_stats: true
  }
}
layer {
  name: "scale4e_branch2a"
  type: "Scale"
  bottom: "res4e_branch2a"
  top: "res4e_branch2a"
  scale_param {
    bias_term: true
  }
}
layer {
  name: "res4e_branch2a_relu"
  type: "ReLU"
  bottom: "res4e_branch2a"
  top: "res4e_branch2a"
}
layer {
  name: "res4e_branch2b"
  type: "Convolution"
  bottom: "res4e_branch2a"
  top: "res4e_branch2b"
  convolution_param {
    num_output: 256
    bias_term: false
    pad: 1
    kernel_size: 3
    stride: 1
  }
}
layer {
  name: "bn4e_branch2b"
  type: "BatchNorm"
  bottom: "res4e_branch2b"
  top: "res4e_branch2b"
  batch_norm_param {
    use_global_stats: true
  }
}
layer {
  name: "scale4e_branch2b"
  type: "Scale"
  bottom: "res4e_branch2b"
  top: "res4e_branch2b"
  scale_param {
    bias_term: true
  }
}
layer {
  name: "res4e_branch2b_relu"
  type: "ReLU"
  bottom: "res4e_branch2b"
  top: "res4e_branch2b"
}
layer {
  name: "res4e_branch2c"
  type: "Convolution"
  bottom: "res4e_branch2b"
  top: "res4e_branch2c"
  convolution_param {
    num_output: 1024
    bias_term: false
    pad: 0
    kernel_size: 1
    stride: 1
  }
}
layer {
  name: "bn4e_branch2c"
  type: "BatchNorm"
  bottom: "res4e_branch2c"
  top: "res4e_branch2c"
  batch_norm_param {
    use_global_stats: true
  }
}
layer {
  name: "scale4e_branch2c"
  type: "Scale"
  bottom: "res4e_branch2c"
  top: "res4e_branch2c"
  scale_param {
    bias_term: true
  }
}
layer {
  name: "res4e"
  type: "Eltwise"
  bottom: "res4d"
  bottom: "res4e_branch2c"
  top: "res4e"
}
layer {
  name: "res4e_relu"
  type: "ReLU"
  bottom: "res4e"
  top: "res4e"
}
layer {
  name: "res4f_branch2a"
  type: "Convolution"
  bottom: "res4e"
  top: "res4f_branch2a"
  convolution_param {
    num_output: 256
    bias_term: false
    pad: 0
    kernel_size: 1
    stride: 1
  }
}
layer {
  name: "bn4f_branch2a"
  type: "BatchNorm"
  bottom: "res4f_branch2a"
  top: "res4f_branch2a"
  batch_norm_param {
    use_global_stats: true
  }
}
layer {
  name: "scale4f_branch2a"
  type: "Scale"
  bottom: "res4f_branch2a"
  top: "res4f_branch2a"
  scale_param {
    bias_term: true
  }
}
layer {
  name: "res4f_branch2a_relu"
  type: "ReLU"
  bottom: "res4f_branch2a"
  top: "res4f_branch2a"
}
layer {
  name: "res4f_branch2b"
  type: "Convolution"
  bottom: "res4f_branch2a"
  top: "res4f_branch2b"
  convolution_param {
    num_output: 256
    bias_term: false
    pad: 1
    kernel_size: 3
    stride: 1
  }
}
layer {
  name: "bn4f_branch2b"
  type: "BatchNorm"
  bottom: "res4f_branch2b"
  top: "res4f_branch2b"
  batch_norm_param {
    use_global_stats: true
  }
}
layer {
  name: "scale4f_branch2b"
  type: "Scale"
  bottom: "res4f_branch2b"
  top: "res4f_branch2b"
  scale_param {
    bias_term: true
  }
}
layer {
  name: "res4f_branch2b_relu"
  type: "ReLU"
  bottom: "res4f_branch2b"
  top: "res4f_branch2b"
}
layer {
  name: "res4f_branch2c"
  type: "Convolution"
  bottom: "res4f_branch2b"
  top: "res4f_branch2c"
  convolution_param {
    num_output: 1024
    bias_term: false
    pad: 0
    kernel_size: 1
    stride: 1
  }
}
layer {
  name: "bn4f_branch2c"
  type: "BatchNorm"
  bottom: "res4f_branch2c"
  top: "res4f_branch2c"
  batch_norm_param {
    use_global_stats: true
  }
}
layer {
  name: "scale4f_branch2c"
  type: "Scale"
  bottom: "res4f_branch2c"
  top: "res4f_branch2c"
  scale_param {
    bias_term: true
  }
}
layer {
  name: "res4f"
  type: "Eltwise"
  bottom: "res4e"
  bottom: "res4f_branch2c"
  top: "res4f"
}
layer {
  name: "res4f_relu"
  type: "ReLU"
  bottom: "res4f"
  top: "res4f"
}
layer {
  name: "res5a_branch1"
  type: "Convolution"
  bottom: "res4f"
  top: "res5a_branch1"
  convolution_param {
    num_output: 2048
    bias_term: false
    pad: 0
    kernel_size: 1
    stride: 2
  }
}
layer {
  name: "bn5a_branch1"
  type: "BatchNorm"
  bottom: "res5a_branch1"
  top: "res5a_branch1"
  batch_norm_param {
    use_global_stats: true
  }
}
layer {
  name: "scale5a_branch1"
  type: "Scale"
  bottom: "res5a_branch1"
  top: "res5a_branch1"
  scale_param {
    bias_term: true
  }
}
layer {
  name: "res5a_branch2a"
  type: "Convolution"
  bottom: "res4f"
  top: "res5a_branch2a"
  convolution_param {
    num_output: 512
    bias_term: false
    pad: 0
    kernel_size: 1
    stride: 2
  }
}
layer {
  name: "bn5a_branch2a"
  type: "BatchNorm"
  bottom: "res5a_branch2a"
  top: "res5a_branch2a"
  batch_norm_param {
    use_global_stats: true
  }
}
layer {
  name: "scale5a_branch2a"
  type: "Scale"
  bottom: "res5a_branch2a"
  top: "res5a_branch2a"
  scale_param {
    bias_term: true
  }
}
layer {
  name: "res5a_branch2a_relu"
  type: "ReLU"
  bottom: "res5a_branch2a"
  top: "res5a_branch2a"
}
layer {
  name: "res5a_branch2b"
  type: "Convolution"
  bottom: "res5a_branch2a"
  top: "res5a_branch2b"
  convolution_param {
    num_output: 512
    bias_term: false
    pad: 1
    kernel_size: 3
    stride: 1
  }
}
layer {
  name: "bn5a_branch2b"
  type: "BatchNorm"
  bottom: "res5a_branch2b"
  top: "res5a_branch2b"
  batch_norm_param {
    use_global_stats: true
  }
}
layer {
  name: "scale5a_branch2b"
  type: "Scale"
  bottom: "res5a_branch2b"
  top: "res5a_branch2b"
  scale_param {
    bias_term: true
  }
}
layer {
  name: "res5a_branch2b_relu"
  type: "ReLU"
  bottom: "res5a_branch2b"
  top: "res5a_branch2b"
}
layer {
  name: "res5a_branch2c"
  type: "Convolution"
  bottom: "res5a_branch2b"
  top: "res5a_branch2c"
  convolution_param {
    num_output: 2048
    bias_term: false
    pad: 0
    kernel_size: 1
    stride: 1
  }
}
layer {
  name: "bn5a_branch2c"
  type: "BatchNorm"
  bottom: "res5a_b
I0117 06:30:05.551839  7652 layer_factory.hpp:77] Creating layer data
I0117 06:30:05.582057  7652 db_lmdb.cpp:35] Opened lmdb ../newFood724_TEST/newFood724_test_lmdb
I0117 06:30:05.584798  7652 net.cpp:84] Creating Layer data
I0117 06:30:05.584830  7652 net.cpp:380] data -> data
I0117 06:30:05.584872  7652 net.cpp:380] data -> label
I0117 06:30:05.584899  7652 data_transformer.cpp:25] Loading mean file from: ../newFood724_TEST/newFood724_aug_mean.binaryproto
I0117 06:30:05.852247  7652 data_layer.cpp:45] output data size: 16,3,224,224
I0117 06:30:05.894666  7652 net.cpp:122] Setting up data
I0117 06:30:05.894740  7652 net.cpp:129] Top shape: 16 3 224 224 (2408448)
I0117 06:30:05.894752  7652 net.cpp:129] Top shape: 16 (16)
I0117 06:30:05.894758  7652 net.cpp:137] Memory required for data: 9633856
I0117 06:30:05.894784  7652 layer_factory.hpp:77] Creating layer label_data_1_split
I0117 06:30:05.894826  7652 net.cpp:84] Creating Layer label_data_1_split
I0117 06:30:05.894839  7652 net.cpp:406] label_data_1_split <- label
I0117 06:30:05.894884  7652 net.cpp:380] label_data_1_split -> label_data_1_split_0
I0117 06:30:05.894906  7652 net.cpp:380] label_data_1_split -> label_data_1_split_1
I0117 06:30:05.894918  7652 net.cpp:380] label_data_1_split -> label_data_1_split_2
I0117 06:30:05.895022  7652 net.cpp:122] Setting up label_data_1_split
I0117 06:30:05.895057  7652 net.cpp:129] Top shape: 16 (16)
I0117 06:30:05.895064  7652 net.cpp:129] Top shape: 16 (16)
I0117 06:30:05.895071  7652 net.cpp:129] Top shape: 16 (16)
I0117 06:30:05.895076  7652 net.cpp:137] Memory required for data: 9634048
I0117 06:30:05.895083  7652 layer_factory.hpp:77] Creating layer conv1
I0117 06:30:05.895104  7652 net.cpp:84] Creating Layer conv1
I0117 06:30:05.895124  7652 net.cpp:406] conv1 <- data
I0117 06:30:05.895135  7652 net.cpp:380] conv1 -> conv1
I0117 06:30:06.335386  7652 net.cpp:122] Setting up conv1
I0117 06:30:06.335438  7652 net.cpp:129] Top shape: 16 64 112 112 (12845056)
I0117 06:30:06.335448  7652 net.cpp:137] Memory required for data: 61014272
I0117 06:30:06.335495  7652 layer_factory.hpp:77] Creating layer bn_conv1
I0117 06:30:06.335520  7652 net.cpp:84] Creating Layer bn_conv1
I0117 06:30:06.335537  7652 net.cpp:406] bn_conv1 <- conv1
I0117 06:30:06.335551  7652 net.cpp:367] bn_conv1 -> conv1 (in-place)
I0117 06:30:06.335906  7652 net.cpp:122] Setting up bn_conv1
I0117 06:30:06.335917  7652 net.cpp:129] Top shape: 16 64 112 112 (12845056)
I0117 06:30:06.335922  7652 net.cpp:137] Memory required for data: 112394496
I0117 06:30:06.335940  7652 layer_factory.hpp:77] Creating layer scale_conv1
I0117 06:30:06.335953  7652 net.cpp:84] Creating Layer scale_conv1
I0117 06:30:06.336024  7652 net.cpp:406] scale_conv1 <- conv1
I0117 06:30:06.336036  7652 net.cpp:367] scale_conv1 -> conv1 (in-place)
I0117 06:30:06.336125  7652 layer_factory.hpp:77] Creating layer scale_conv1
I0117 06:30:06.336349  7652 net.cpp:122] Setting up scale_conv1
I0117 06:30:06.336361  7652 net.cpp:129] Top shape: 16 64 112 112 (12845056)
I0117 06:30:06.336366  7652 net.cpp:137] Memory required for data: 163774720
I0117 06:30:06.336380  7652 layer_factory.hpp:77] Creating layer conv1_relu
I0117 06:30:06.336391  7652 net.cpp:84] Creating Layer conv1_relu
I0117 06:30:06.336398  7652 net.cpp:406] conv1_relu <- conv1
I0117 06:30:06.336405  7652 net.cpp:367] conv1_relu -> conv1 (in-place)
I0117 06:30:06.336724  7652 net.cpp:122] Setting up conv1_relu
I0117 06:30:06.336738  7652 net.cpp:129] Top shape: 16 64 112 112 (12845056)
I0117 06:30:06.336745  7652 net.cpp:137] Memory required for data: 215154944
I0117 06:30:06.336750  7652 layer_factory.hpp:77] Creating layer pool1
I0117 06:30:06.336764  7652 net.cpp:84] Creating Layer pool1
I0117 06:30:06.336773  7652 net.cpp:406] pool1 <- conv1
I0117 06:30:06.336784  7652 net.cpp:380] pool1 -> pool1
I0117 06:30:06.336863  7652 net.cpp:122] Setting up pool1
I0117 06:30:06.336874  7652 net.cpp:129] Top shape: 16 64 56 56 (3211264)
I0117 06:30:06.336877  7652 net.cpp:137] Memory required for data: 228000000
I0117 06:30:06.336881  7652 layer_factory.hpp:77] Creating layer pool1_pool1_0_split
I0117 06:30:06.336894  7652 net.cpp:84] Creating Layer pool1_pool1_0_split
I0117 06:30:06.336899  7652 net.cpp:406] pool1_pool1_0_split <- pool1
I0117 06:30:06.336905  7652 net.cpp:380] pool1_pool1_0_split -> pool1_pool1_0_split_0
I0117 06:30:06.336913  7652 net.cpp:380] pool1_pool1_0_split -> pool1_pool1_0_split_1
I0117 06:30:06.336969  7652 net.cpp:122] Setting up pool1_pool1_0_split
I0117 06:30:06.336979  7652 net.cpp:129] Top shape: 16 64 56 56 (3211264)
I0117 06:30:06.336985  7652 net.cpp:129] Top shape: 16 64 56 56 (3211264)
I0117 06:30:06.336989  7652 net.cpp:137] Memory required for data: 253690112
I0117 06:30:06.336994  7652 layer_factory.hpp:77] Creating layer res2a_branch1
I0117 06:30:06.337024  7652 net.cpp:84] Creating Layer res2a_branch1
I0117 06:30:06.337033  7652 net.cpp:406] res2a_branch1 <- pool1_pool1_0_split_0
I0117 06:30:06.337044  7652 net.cpp:380] res2a_branch1 -> res2a_branch1
I0117 06:30:06.339016  7652 net.cpp:122] Setting up res2a_branch1
I0117 06:30:06.339040  7652 net.cpp:129] Top shape: 16 256 56 56 (12845056)
I0117 06:30:06.339046  7652 net.cpp:137] Memory required for data: 305070336
I0117 06:30:06.339056  7652 layer_factory.hpp:77] Creating layer bn2a_branch1
I0117 06:30:06.339068  7652 net.cpp:84] Creating Layer bn2a_branch1
I0117 06:30:06.339074  7652 net.cpp:406] bn2a_branch1 <- res2a_branch1
I0117 06:30:06.339083  7652 net.cpp:367] bn2a_branch1 -> res2a_branch1 (in-place)
I0117 06:30:06.341737  7652 net.cpp:122] Setting up bn2a_branch1
I0117 06:30:06.341758  7652 net.cpp:129] Top shape: 16 256 56 56 (12845056)
I0117 06:30:06.341763  7652 net.cpp:137] Memory required for data: 356450560
I0117 06:30:06.341783  7652 layer_factory.hpp:77] Creating layer scale2a_branch1
I0117 06:30:06.341792  7652 net.cpp:84] Creating Layer scale2a_branch1
I0117 06:30:06.341799  7652 net.cpp:406] scale2a_branch1 <- res2a_branch1
I0117 06:30:06.341805  7652 net.cpp:367] scale2a_branch1 -> res2a_branch1 (in-place)
I0117 06:30:06.341878  7652 layer_factory.hpp:77] Creating layer scale2a_branch1
I0117 06:30:06.342059  7652 net.cpp:122] Setting up scale2a_branch1
I0117 06:30:06.342070  7652 net.cpp:129] Top shape: 16 256 56 56 (12845056)
I0117 06:30:06.342074  7652 net.cpp:137] Memory required for data: 407830784
I0117 06:30:06.342084  7652 layer_factory.hpp:77] Creating layer res2a_branch2a
I0117 06:30:06.342098  7652 net.cpp:84] Creating Layer res2a_branch2a
I0117 06:30:06.342106  7652 net.cpp:406] res2a_branch2a <- pool1_pool1_0_split_1
I0117 06:30:06.342115  7652 net.cpp:380] res2a_branch2a -> res2a_branch2a
I0117 06:30:06.344300  7652 net.cpp:122] Setting up res2a_branch2a
I0117 06:30:06.344358  7652 net.cpp:129] Top shape: 16 64 56 56 (3211264)
I0117 06:30:06.344374  7652 net.cpp:137] Memory required for data: 420675840
I0117 06:30:06.344385  7652 layer_factory.hpp:77] Creating layer bn2a_branch2a
I0117 06:30:06.344405  7652 net.cpp:84] Creating Layer bn2a_branch2a
I0117 06:30:06.344424  7652 net.cpp:406] bn2a_branch2a <- res2a_branch2a
I0117 06:30:06.344434  7652 net.cpp:367] bn2a_branch2a -> res2a_branch2a (in-place)
I0117 06:30:06.344671  7652 net.cpp:122] Setting up bn2a_branch2a
I0117 06:30:06.344679  7652 net.cpp:129] Top shape: 16 64 56 56 (3211264)
I0117 06:30:06.344683  7652 net.cpp:137] Memory required for data: 433520896
I0117 06:30:06.344702  7652 layer_factory.hpp:77] Creating layer scale2a_branch2a
I0117 06:30:06.344712  7652 net.cpp:84] Creating Layer scale2a_branch2a
I0117 06:30:06.344717  7652 net.cpp:406] scale2a_branch2a <- res2a_branch2a
I0117 06:30:06.344722  7652 net.cpp:367] scale2a_branch2a -> res2a_branch2a (in-place)
I0117 06:30:06.344777  7652 layer_factory.hpp:77] Creating layer scale2a_branch2a
I0117 06:30:06.344934  7652 net.cpp:122] Setting up scale2a_branch2a
I0117 06:30:06.344944  7652 net.cpp:129] Top shape: 16 64 56 56 (3211264)
I0117 06:30:06.344947  7652 net.cpp:137] Memory required for data: 446365952
I0117 06:30:06.344954  7652 layer_factory.hpp:77] Creating layer res2a_branch2a_relu
I0117 06:30:06.344964  7652 net.cpp:84] Creating Layer res2a_branch2a_relu
I0117 06:30:06.344967  7652 net.cpp:406] res2a_branch2a_relu <- res2a_branch2a
I0117 06:30:06.344971  7652 net.cpp:367] res2a_branch2a_relu -> res2a_branch2a (in-place)
I0117 06:30:06.345191  7652 net.cpp:122] Setting up res2a_branch2a_relu
I0117 06:30:06.345201  7652 net.cpp:129] Top shape: 16 64 56 56 (3211264)
I0117 06:30:06.345204  7652 net.cpp:137] Memory required for data: 459211008
I0117 06:30:06.345208  7652 layer_factory.hpp:77] Creating layer res2a_branch2b
I0117 06:30:06.345221  7652 net.cpp:84] Creating Layer res2a_branch2b
I0117 06:30:06.345227  7652 net.cpp:406] res2a_branch2b <- res2a_branch2a
I0117 06:30:06.345233  7652 net.cpp:380] res2a_branch2b -> res2a_branch2b
I0117 06:30:06.349791  7652 net.cpp:122] Setting up res2a_branch2b
I0117 06:30:06.349822  7652 net.cpp:129] Top shape: 16 64 56 56 (3211264)
I0117 06:30:06.349833  7652 net.cpp:137] Memory required for data: 472056064
I0117 06:30:06.349844  7652 layer_factory.hpp:77] Creating layer bn2a_branch2b
I0117 06:30:06.349869  7652 net.cpp:84] Creating Layer bn2a_branch2b
I0117 06:30:06.349876  7652 net.cpp:406] bn2a_branch2b <- res2a_branch2b
I0117 06:30:06.349887  7652 net.cpp:367] bn2a_branch2b -> res2a_branch2b (in-place)
I0117 06:30:06.350343  7652 net.cpp:122] Setting up bn2a_branch2b
I0117 06:30:06.350369  7652 net.cpp:129] Top shape: 16 64 56 56 (3211264)
I0117 06:30:06.350375  7652 net.cpp:137] Memory required for data: 484901120
I0117 06:30:06.350390  7652 layer_factory.hpp:77] Creating layer scale2a_branch2b
I0117 06:30:06.350401  7652 net.cpp:84] Creating Layer scale2a_branch2b
I0117 06:30:06.350409  7652 net.cpp:406] scale2a_branch2b <- res2a_branch2b
I0117 06:30:06.350425  7652 net.cpp:367] scale2a_branch2b -> res2a_branch2b (in-place)
I0117 06:30:06.350508  7652 layer_factory.hpp:77] Creating layer scale2a_branch2b
I0117 06:30:06.350752  7652 net.cpp:122] Setting up scale2a_branch2b
I0117 06:30:06.350766  7652 net.cpp:129] Top shape: 16 64 56 56 (3211264)
I0117 06:30:06.350772  7652 net.cpp:137] Memory required for data: 497746176
I0117 06:30:06.350787  7652 layer_factory.hpp:77] Creating layer res2a_branch2b_relu
I0117 06:30:06.350800  7652 net.cpp:84] Creating Layer res2a_branch2b_relu
I0117 06:30:06.350808  7652 net.cpp:406] res2a_branch2b_relu <- res2a_branch2b
I0117 06:30:06.350821  7652 net.cpp:367] res2a_branch2b_relu -> res2a_branch2b (in-place)
I0117 06:30:06.351197  7652 net.cpp:122] Setting up res2a_branch2b_relu
I0117 06:30:06.351218  7652 net.cpp:129] Top shape: 16 64 56 56 (3211264)
I0117 06:30:06.351224  7652 net.cpp:137] Memory required for data: 510591232
I0117 06:30:06.351230  7652 layer_factory.hpp:77] Creating layer res2a_branch2c
I0117 06:30:06.351274  7652 net.cpp:84] Creating Layer res2a_branch2c
I0117 06:30:06.351289  7652 net.cpp:406] res2a_branch2c <- res2a_branch2b
I0117 06:30:06.351300  7652 net.cpp:380] res2a_branch2c -> res2a_branch2c
I0117 06:30:06.353826  7652 net.cpp:122] Setting up res2a_branch2c
I0117 06:30:06.353854  7652 net.cpp:129] Top shape: 16 256 56 56 (12845056)
I0117 06:30:06.353860  7652 net.cpp:137] Memory required for data: 561971456
I0117 06:30:06.353871  7652 layer_factory.hpp:77] Creating layer bn2a_branch2c
I0117 06:30:06.353890  7652 net.cpp:84] Creating Layer bn2a_branch2c
I0117 06:30:06.353898  7652 net.cpp:406] bn2a_branch2c <- res2a_branch2c
I0117 06:30:06.353917  7652 net.cpp:367] bn2a_branch2c -> res2a_branch2c (in-place)
I0117 06:30:06.354313  7652 net.cpp:122] Setting up bn2a_branch2c
I0117 06:30:06.354338  7652 net.cpp:129] Top shape: 16 256 56 56 (12845056)
I0117 06:30:06.354344  7652 net.cpp:137] Memory required for data: 613351680
I0117 06:30:06.354362  7652 layer_factory.hpp:77] Creating layer scale2a_branch2c
I0117 06:30:06.354380  7652 net.cpp:84] Creating Layer scale2a_branch2c
I0117 06:30:06.354387  7652 net.cpp:406] scale2a_branch2c <- res2a_branch2c
I0117 06:30:06.354398  7652 net.cpp:367] scale2a_branch2c -> res2a_branch2c (in-place)
I0117 06:30:06.354472  7652 layer_factory.hpp:77] Creating layer scale2a_branch2c
I0117 06:30:06.354703  7652 net.cpp:122] Setting up scale2a_branch2c
I0117 06:30:06.354717  7652 net.cpp:129] Top shape: 16 256 56 56 (12845056)
I0117 06:30:06.354727  7652 net.cpp:137] Memory required for data: 664731904
I0117 06:30:06.354737  7652 layer_factory.hpp:77] Creating layer res2a
I0117 06:30:06.354750  7652 net.cpp:84] Creating Layer res2a
I0117 06:30:06.354759  7652 net.cpp:406] res2a <- res2a_branch1
I0117 06:30:06.354768  7652 net.cpp:406] res2a <- res2a_branch2c
I0117 06:30:06.354779  7652 net.cpp:380] res2a -> res2a
I0117 06:30:06.354831  7652 net.cpp:122] Setting up res2a
I0117 06:30:06.354843  7652 net.cpp:129] Top shape: 16 256 56 56 (12845056)
I0117 06:30:06.354849  7652 net.cpp:137] Memory required for data: 716112128
I0117 06:30:06.354856  7652 layer_factory.hpp:77] Creating layer res2a_relu
I0117 06:30:06.354869  7652 net.cpp:84] Creating Layer res2a_relu
I0117 06:30:06.354878  7652 net.cpp:406] res2a_relu <- res2a
I0117 06:30:06.354887  7652 net.cpp:367] res2a_relu -> res2a (in-place)
I0117 06:30:06.355276  7652 net.cpp:122] Setting up res2a_relu
I0117 06:30:06.355293  7652 net.cpp:129] Top shape: 16 256 56 56 (12845056)
I0117 06:30:06.355298  7652 net.cpp:137] Memory required for data: 767492352
I0117 06:30:06.355304  7652 layer_factory.hpp:77] Creating layer res2a_res2a_relu_0_split
I0117 06:30:06.355314  7652 net.cpp:84] Creating Layer res2a_res2a_relu_0_split
I0117 06:30:06.355320  7652 net.cpp:406] res2a_res2a_relu_0_split <- res2a
I0117 06:30:06.355332  7652 net.cpp:380] res2a_res2a_relu_0_split -> res2a_res2a_relu_0_split_0
I0117 06:30:06.355345  7652 net.cpp:380] res2a_res2a_relu_0_split -> res2a_res2a_relu_0_split_1
I0117 06:30:06.355422  7652 net.cpp:122] Setting up res2a_res2a_relu_0_split
I0117 06:30:06.355434  7652 net.cpp:129] Top shape: 16 256 56 56 (12845056)
I0117 06:30:06.355443  7652 net.cpp:129] Top shape: 16 256 56 56 (12845056)
I0117 06:30:06.355449  7652 net.cpp:137] Memory required for data: 870252800
I0117 06:30:06.355455  7652 layer_factory.hpp:77] Creating layer res2b_branch2a
I0117 06:30:06.355470  7652 net.cpp:84] Creating Layer res2b_branch2a
I0117 06:30:06.355479  7652 net.cpp:406] res2b_branch2a <- res2a_res2a_relu_0_split_0
I0117 06:30:06.355489  7652 net.cpp:380] res2b_branch2a -> res2b_branch2a
I0117 06:30:06.357977  7652 net.cpp:122] Setting up res2b_branch2a
I0117 06:30:06.358006  7652 net.cpp:129] Top shape: 16 64 56 56 (3211264)
I0117 06:30:06.358016  7652 net.cpp:137] Memory required for data: 883097856
I0117 06:30:06.358031  7652 layer_factory.hpp:77] Creating layer bn2b_branch2a
I0117 06:30:06.358054  7652 net.cpp:84] Creating Layer bn2b_branch2a
I0117 06:30:06.358062  7652 net.cpp:406] bn2b_branch2a <- res2b_branch2a
I0117 06:30:06.358122  7652 net.cpp:367] bn2b_branch2a -> res2b_branch2a (in-place)
I0117 06:30:06.358559  7652 net.cpp:122] Setting up bn2b_branch2a
I0117 06:30:06.358574  7652 net.cpp:129] Top shape: 16 64 56 56 (3211264)
I0117 06:30:06.358580  7652 net.cpp:137] Memory required for data: 895942912
I0117 06:30:06.358608  7652 layer_factory.hpp:77] Creating layer scale2b_branch2a
I0117 06:30:06.358619  7652 net.cpp:84] Creating Layer scale2b_branch2a
I0117 06:30:06.358628  7652 net.cpp:406] scale2b_branch2a <- res2b_branch2a
I0117 06:30:06.358639  7652 net.cpp:367] scale2b_branch2a -> res2b_branch2a (in-place)
I0117 06:30:06.358722  7652 layer_factory.hpp:77] Creating layer scale2b_branch2a
I0117 06:30:06.358968  7652 net.cpp:122] Setting up scale2b_branch2a
I0117 06:30:06.358983  7652 net.cpp:129] Top shape: 16 64 56 56 (3211264)
I0117 06:30:06.358989  7652 net.cpp:137] Memory required for data: 908787968
I0117 06:30:06.358999  7652 layer_factory.hpp:77] Creating layer res2b_branch2a_relu
I0117 06:30:06.359009  7652 net.cpp:84] Creating Layer res2b_branch2a_relu
I0117 06:30:06.359053  7652 net.cpp:406] res2b_branch2a_relu <- res2b_branch2a
I0117 06:30:06.359061  7652 net.cpp:367] res2b_branch2a_relu -> res2b_branch2a (in-place)
I0117 06:30:06.359426  7652 net.cpp:122] Setting up res2b_branch2a_relu
I0117 06:30:06.359442  7652 net.cpp:129] Top shape: 16 64 56 56 (3211264)
I0117 06:30:06.359448  7652 net.cpp:137] Memory required for data: 921633024
I0117 06:30:06.359457  7652 layer_factory.hpp:77] Creating layer res2b_branch2b
I0117 06:30:06.359472  7652 net.cpp:84] Creating Layer res2b_branch2b
I0117 06:30:06.359480  7652 net.cpp:406] res2b_branch2b <- res2b_branch2a
I0117 06:30:06.359489  7652 net.cpp:380] res2b_branch2b -> res2b_branch2b
I0117 06:30:06.361825  7652 net.cpp:122] Setting up res2b_branch2b
I0117 06:30:06.361872  7652 net.cpp:129] Top shape: 16 64 56 56 (3211264)
I0117 06:30:06.361878  7652 net.cpp:137] Memory required for data: 934478080
I0117 06:30:06.361888  7652 layer_factory.hpp:77] Creating layer bn2b_branch2b
I0117 06:30:06.361910  7652 net.cpp:84] Creating Layer bn2b_branch2b
I0117 06:30:06.361927  7652 net.cpp:406] bn2b_branch2b <- res2b_branch2b
I0117 06:30:06.361938  7652 net.cpp:367] bn2b_branch2b -> res2b_branch2b (in-place)
I0117 06:30:06.362341  7652 net.cpp:122] Setting up bn2b_branch2b
I0117 06:30:06.362356  7652 net.cpp:129] Top shape: 16 64 56 56 (3211264)
I0117 06:30:06.362361  7652 net.cpp:137] Memory required for data: 947323136
I0117 06:30:06.362375  7652 layer_factory.hpp:77] Creating layer scale2b_branch2b
I0117 06:30:06.362388  7652 net.cpp:84] Creating Layer scale2b_branch2b
I0117 06:30:06.362395  7652 net.cpp:406] scale2b_branch2b <- res2b_branch2b
I0117 06:30:06.362402  7652 net.cpp:367] scale2b_branch2b -> res2b_branch2b (in-place)
I0117 06:30:06.362476  7652 layer_factory.hpp:77] Creating layer scale2b_branch2b
I0117 06:30:06.362735  7652 net.cpp:122] Setting up scale2b_branch2b
I0117 06:30:06.362748  7652 net.cpp:129] Top shape: 16 64 56 56 (3211264)
I0117 06:30:06.362754  7652 net.cpp:137] Memory required for data: 960168192
I0117 06:30:06.362767  7652 layer_factory.hpp:77] Creating layer res2b_branch2b_relu
I0117 06:30:06.362787  7652 net.cpp:84] Creating Layer res2b_branch2b_relu
I0117 06:30:06.362795  7652 net.cpp:406] res2b_branch2b_relu <- res2b_branch2b
I0117 06:30:06.362803  7652 net.cpp:367] res2b_branch2b_relu -> res2b_branch2b (in-place)
I0117 06:30:06.364040  7652 net.cpp:122] Setting up res2b_branch2b_relu
I0117 06:30:06.364076  7652 net.cpp:129] Top shape: 16 64 56 56 (3211264)
I0117 06:30:06.364082  7652 net.cpp:137] Memory required for data: 973013248
I0117 06:30:06.364089  7652 layer_factory.hpp:77] Creating layer res2b_branch2c
I0117 06:30:06.364105  7652 net.cpp:84] Creating Layer res2b_branch2c
I0117 06:30:06.364116  7652 net.cpp:406] res2b_branch2c <- res2b_branch2b
I0117 06:30:06.364127  7652 net.cpp:380] res2b_branch2c -> res2b_branch2c
I0117 06:30:06.366523  7652 net.cpp:122] Setting up res2b_branch2c
I0117 06:30:06.366549  7652 net.cpp:129] Top shape: 16 256 56 56 (12845056)
I0117 06:30:06.366581  7652 net.cpp:137] Memory required for data: 1024393472
I0117 06:30:06.366603  7652 layer_factory.hpp:77] Creating layer bn2b_branch2c
I0117 06:30:06.366621  7652 net.cpp:84] Creating Layer bn2b_branch2c
I0117 06:30:06.366631  7652 net.cpp:406] bn2b_branch2c <- res2b_branch2c
I0117 06:30:06.366641  7652 net.cpp:367] bn2b_branch2c -> res2b_branch2c (in-place)
I0117 06:30:06.367027  7652 net.cpp:122] Setting up bn2b_branch2c
I0117 06:30:06.367050  7652 net.cpp:129] Top shape: 16 256 56 56 (12845056)
I0117 06:30:06.367056  7652 net.cpp:137] Memory required for data: 1075773696
I0117 06:30:06.367069  7652 layer_factory.hpp:77] Creating layer scale2b_branch2c
I0117 06:30:06.367079  7652 net.cpp:84] Creating Layer scale2b_branch2c
I0117 06:30:06.367085  7652 net.cpp:406] scale2b_branch2c <- res2b_branch2c
I0117 06:30:06.367096  7652 net.cpp:367] scale2b_branch2c -> res2b_branch2c (in-place)
I0117 06:30:06.367167  7652 layer_factory.hpp:77] Creating layer scale2b_branch2c
I0117 06:30:06.367393  7652 net.cpp:122] Setting up scale2b_branch2c
I0117 06:30:06.367404  7652 net.cpp:129] Top shape: 16 256 56 56 (12845056)
I0117 06:30:06.367409  7652 net.cpp:137] Memory required for data: 1127153920
I0117 06:30:06.367422  7652 layer_factory.hpp:77] Creating layer res2b
I0117 06:30:06.367434  7652 net.cpp:84] Creating Layer res2b
I0117 06:30:06.367445  7652 net.cpp:406] res2b <- res2a_res2a_relu_0_split_1
I0117 06:30:06.367452  7652 net.cpp:406] res2b <- res2b_branch2c
I0117 06:30:06.367461  7652 net.cpp:380] res2b -> res2b
I0117 06:30:06.367506  7652 net.cpp:122] Setting up res2b
I0117 06:30:06.367516  7652 net.cpp:129] Top shape: 16 256 56 56 (12845056)
I0117 06:30:06.367527  7652 net.cpp:137] Memory required for data: 1178534144
I0117 06:30:06.367532  7652 layer_factory.hpp:77] Creating layer res2b_relu
I0117 06:30:06.367542  7652 net.cpp:84] Creating Layer res2b_relu
I0117 06:30:06.367549  7652 net.cpp:406] res2b_relu <- res2b
I0117 06:30:06.367558  7652 net.cpp:367] res2b_relu -> res2b (in-place)
I0117 06:30:06.367921  7652 net.cpp:122] Setting up res2b_relu
I0117 06:30:06.367936  7652 net.cpp:129] Top shape: 16 256 56 56 (12845056)
I0117 06:30:06.367943  7652 net.cpp:137] Memory required for data: 1229914368
I0117 06:30:06.367954  7652 layer_factory.hpp:77] Creating layer res2b_res2b_relu_0_split
I0117 06:30:06.367970  7652 net.cpp:84] Creating Layer res2b_res2b_relu_0_split
I0117 06:30:06.367977  7652 net.cpp:406] res2b_res2b_relu_0_split <- res2b
I0117 06:30:06.367986  7652 net.cpp:380] res2b_res2b_relu_0_split -> res2b_res2b_relu_0_split_0
I0117 06:30:06.367997  7652 net.cpp:380] res2b_res2b_relu_0_split -> res2b_res2b_relu_0_split_1
I0117 06:30:06.368074  7652 net.cpp:122] Setting up res2b_res2b_relu_0_split
I0117 06:30:06.368086  7652 net.cpp:129] Top shape: 16 256 56 56 (12845056)
I0117 06:30:06.368093  7652 net.cpp:129] Top shape: 16 256 56 56 (12845056)
I0117 06:30:06.368100  7652 net.cpp:137] Memory required for data: 1332674816
I0117 06:30:06.368106  7652 layer_factory.hpp:77] Creating layer res2c_branch2a
I0117 06:30:06.368120  7652 net.cpp:84] Creating Layer res2c_branch2a
I0117 06:30:06.368129  7652 net.cpp:406] res2c_branch2a <- res2b_res2b_relu_0_split_0
I0117 06:30:06.368139  7652 net.cpp:380] res2c_branch2a -> res2c_branch2a
I0117 06:30:06.370568  7652 net.cpp:122] Setting up res2c_branch2a
I0117 06:30:06.370592  7652 net.cpp:129] Top shape: 16 64 56 56 (3211264)
I0117 06:30:06.370599  7652 net.cpp:137] Memory required for data: 1345519872
I0117 06:30:06.370607  7652 layer_factory.hpp:77] Creating layer bn2c_branch2a
I0117 06:30:06.370621  7652 net.cpp:84] Creating Layer bn2c_branch2a
I0117 06:30:06.370628  7652 net.cpp:406] bn2c_branch2a <- res2c_branch2a
I0117 06:30:06.370637  7652 net.cpp:367] bn2c_branch2a -> res2c_branch2a (in-place)
I0117 06:30:06.371009  7652 net.cpp:122] Setting up bn2c_branch2a
I0117 06:30:06.371022  7652 net.cpp:129] Top shape: 16 64 56 56 (3211264)
I0117 06:30:06.371027  7652 net.cpp:137] Memory required for data: 1358364928
I0117 06:30:06.371064  7652 layer_factory.hpp:77] Creating layer scale2c_branch2a
I0117 06:30:06.371080  7652 net.cpp:84] Creating Layer scale2c_branch2a
I0117 06:30:06.371088  7652 net.cpp:406] scale2c_branch2a <- res2c_branch2a
I0117 06:30:06.371096  7652 net.cpp:367] scale2c_branch2a -> res2c_branch2a (in-place)
I0117 06:30:06.371170  7652 layer_factory.hpp:77] Creating layer scale2c_branch2a
I0117 06:30:06.371392  7652 net.cpp:122] Setting up scale2c_branch2a
I0117 06:30:06.371403  7652 net.cpp:129] Top shape: 16 64 56 56 (3211264)
I0117 06:30:06.371408  7652 net.cpp:137] Memory required for data: 1371209984
I0117 06:30:06.371419  7652 layer_factory.hpp:77] Creating layer res2c_branch2a_relu
I0117 06:30:06.371429  7652 net.cpp:84] Creating Layer res2c_branch2a_relu
I0117 06:30:06.371438  7652 net.cpp:406] res2c_branch2a_relu <- res2c_branch2a
I0117 06:30:06.371448  7652 net.cpp:367] res2c_branch2a_relu -> res2c_branch2a (in-place)
I0117 06:30:06.371786  7652 net.cpp:122] Setting up res2c_branch2a_relu
I0117 06:30:06.371801  7652 net.cpp:129] Top shape: 16 64 56 56 (3211264)
I0117 06:30:06.371806  7652 net.cpp:137] Memory required for data: 1384055040
I0117 06:30:06.371811  7652 layer_factory.hpp:77] Creating layer res2c_branch2b
I0117 06:30:06.371829  7652 net.cpp:84] Creating Layer res2c_branch2b
I0117 06:30:06.371836  7652 net.cpp:406] res2c_branch2b <- res2c_branch2a
I0117 06:30:06.371845  7652 net.cpp:380] res2c_branch2b -> res2c_branch2b
I0117 06:30:06.374107  7652 net.cpp:122] Setting up res2c_branch2b
I0117 06:30:06.374132  7652 net.cpp:129] Top shape: 16 64 56 56 (3211264)
I0117 06:30:06.374145  7652 net.cpp:137] Memory required for data: 1396900096
I0117 06:30:06.374155  7652 layer_factory.hpp:77] Creating layer bn2c_branch2b
I0117 06:30:06.374168  7652 net.cpp:84] Creating Layer bn2c_branch2b
I0117 06:30:06.374176  7652 net.cpp:406] bn2c_branch2b <- res2c_branch2b
I0117 06:30:06.374188  7652 net.cpp:367] bn2c_branch2b -> res2c_branch2b (in-place)
I0117 06:30:06.374584  7652 net.cpp:122] Setting up bn2c_branch2b
I0117 06:30:06.374599  7652 net.cpp:129] Top shape: 16 64 56 56 (3211264)
I0117 06:30:06.374605  7652 net.cpp:137] Memory required for data: 1409745152
I0117 06:30:06.374619  7652 layer_factory.hpp:77] Creating layer scale2c_branch2b
I0117 06:30:06.374630  7652 net.cpp:84] Creating Layer scale2c_branch2b
I0117 06:30:06.374639  7652 net.cpp:406] scale2c_branch2b <- res2c_branch2b
I0117 06:30:06.374646  7652 net.cpp:367] scale2c_branch2b -> res2c_branch2b (in-place)
I0117 06:30:06.374722  7652 layer_factory.hpp:77] Creating layer scale2c_branch2b
I0117 06:30:06.374936  7652 net.cpp:122] Setting up scale2c_branch2b
I0117 06:30:06.374949  7652 net.cpp:129] Top shape: 16 64 56 56 (3211264)
I0117 06:30:06.374954  7652 net.cpp:137] Memory required for data: 1422590208
I0117 06:30:06.374966  7652 layer_factory.hpp:77] Creating layer res2c_branch2b_relu
I0117 06:30:06.374977  7652 net.cpp:84] Creating Layer res2c_branch2b_relu
I0117 06:30:06.374985  7652 net.cpp:406] res2c_branch2b_relu <- res2c_branch2b
I0117 06:30:06.374994  7652 net.cpp:367] res2c_branch2b_relu -> res2c_branch2b (in-place)
I0117 06:30:06.375324  7652 net.cpp:122] Setting up res2c_branch2b_relu
I0117 06:30:06.375339  7652 net.cpp:129] Top shape: 16 64 56 56 (3211264)
I0117 06:30:06.375344  7652 net.cpp:137] Memory required for data: 1435435264
I0117 06:30:06.375349  7652 layer_factory.hpp:77] Creating layer res2c_branch2c
I0117 06:30:06.375365  7652 net.cpp:84] Creating Layer res2c_branch2c
I0117 06:30:06.375373  7652 net.cpp:406] res2c_branch2c <- res2c_branch2b
I0117 06:30:06.375382  7652 net.cpp:380] res2c_branch2c -> res2c_branch2c
I0117 06:30:06.377661  7652 net.cpp:122] Setting up res2c_branch2c
I0117 06:30:06.377686  7652 net.cpp:129] Top shape: 16 256 56 56 (12845056)
I0117 06:30:06.377691  7652 net.cpp:137] Memory required for data: 1486815488
I0117 06:30:06.377704  7652 layer_factory.hpp:77] Creating layer bn2c_branch2c
I0117 06:30:06.377715  7652 net.cpp:84] Creating Layer bn2c_branch2c
I0117 06:30:06.377722  7652 net.cpp:406] bn2c_branch2c <- res2c_branch2c
I0117 06:30:06.377766  7652 net.cpp:367] bn2c_branch2c -> res2c_branch2c (in-place)
I0117 06:30:06.378137  7652 net.cpp:122] Setting up bn2c_branch2c
I0117 06:30:06.378150  7652 net.cpp:129] Top shape: 16 256 56 56 (12845056)
I0117 06:30:06.378155  7652 net.cpp:137] Memory required for data: 1538195712
I0117 06:30:06.378190  7652 layer_factory.hpp:77] Creating layer scale2c_branch2c
I0117 06:30:06.378201  7652 net.cpp:84] Creating Layer scale2c_branch2c
I0117 06:30:06.378206  7652 net.cpp:406] scale2c_branch2c <- res2c_branch2c
I0117 06:30:06.378218  7652 net.cpp:367] scale2c_branch2c -> res2c_branch2c (in-place)
I0117 06:30:06.378301  7652 layer_factory.hpp:77] Creating layer scale2c_branch2c
I0117 06:30:06.378533  7652 net.cpp:122] Setting up scale2c_branch2c
I0117 06:30:06.378547  7652 net.cpp:129] Top shape: 16 256 56 56 (12845056)
I0117 06:30:06.378556  7652 net.cpp:137] Memory required for data: 1589575936
I0117 06:30:06.378566  7652 layer_factory.hpp:77] Creating layer res2c
I0117 06:30:06.378578  7652 net.cpp:84] Creating Layer res2c
I0117 06:30:06.378587  7652 net.cpp:406] res2c <- res2b_res2b_relu_0_split_1
I0117 06:30:06.378594  7652 net.cpp:406] res2c <- res2c_branch2c
I0117 06:30:06.378604  7652 net.cpp:380] res2c -> res2c
I0117 06:30:06.378648  7652 net.cpp:122] Setting up res2c
I0117 06:30:06.378659  7652 net.cpp:129] Top shape: 16 256 56 56 (12845056)
I0117 06:30:06.378664  7652 net.cpp:137] Memory required for data: 1640956160
I0117 06:30:06.378669  7652 layer_factory.hpp:77] Creating layer res2c_relu
I0117 06:30:06.378682  7652 net.cpp:84] Creating Layer res2c_relu
I0117 06:30:06.378690  7652 net.cpp:406] res2c_relu <- res2c
I0117 06:30:06.378697  7652 net.cpp:367] res2c_relu -> res2c (in-place)
I0117 06:30:06.379036  7652 net.cpp:122] Setting up res2c_relu
I0117 06:30:06.379050  7652 net.cpp:129] Top shape: 16 256 56 56 (12845056)
I0117 06:30:06.379055  7652 net.cpp:137] Memory required for data: 1692336384
I0117 06:30:06.379061  7652 layer_factory.hpp:77] Creating layer res2c_res2c_relu_0_split
I0117 06:30:06.379070  7652 net.cpp:84] Creating Layer res2c_res2c_relu_0_split
I0117 06:30:06.379076  7652 net.cpp:406] res2c_res2c_relu_0_split <- res2c
I0117 06:30:06.379084  7652 net.cpp:380] res2c_res2c_relu_0_split -> res2c_res2c_relu_0_split_0
I0117 06:30:06.379097  7652 net.cpp:380] res2c_res2c_relu_0_split -> res2c_res2c_relu_0_split_1
I0117 06:30:06.379166  7652 net.cpp:122] Setting up res2c_res2c_relu_0_split
I0117 06:30:06.379178  7652 net.cpp:129] Top shape: 16 256 56 56 (12845056)
I0117 06:30:06.379184  7652 net.cpp:129] Top shape: 16 256 56 56 (12845056)
I0117 06:30:06.379190  7652 net.cpp:137] Memory required for data: 1795096832
I0117 06:30:06.379195  7652 layer_factory.hpp:77] Creating layer res3a_branch1
I0117 06:30:06.379209  7652 net.cpp:84] Creating Layer res3a_branch1
I0117 06:30:06.379217  7652 net.cpp:406] res3a_branch1 <- res2c_res2c_relu_0_split_0
I0117 06:30:06.379227  7652 net.cpp:380] res3a_branch1 -> res3a_branch1
I0117 06:30:06.382570  7652 net.cpp:122] Setting up res3a_branch1
I0117 06:30:06.382597  7652 net.cpp:129] Top shape: 16 512 28 28 (6422528)
I0117 06:30:06.382603  7652 net.cpp:137] Memory required for data: 1820786944
I0117 06:30:06.382616  7652 layer_factory.hpp:77] Creating layer bn3a_branch1
I0117 06:30:06.382627  7652 net.cpp:84] Creating Layer bn3a_branch1
I0117 06:30:06.382634  7652 net.cpp:406] bn3a_branch1 <- res3a_branch1
I0117 06:30:06.382647  7652 net.cpp:367] bn3a_branch1 -> res3a_branch1 (in-place)
I0117 06:30:06.385064  7652 net.cpp:122] Setting up bn3a_branch1
I0117 06:30:06.385087  7652 net.cpp:129] Top shape: 16 512 28 28 (6422528)
I0117 06:30:06.385092  7652 net.cpp:137] Memory required for data: 1846477056
I0117 06:30:06.385110  7652 layer_factory.hpp:77] Creating layer scale3a_branch1
I0117 06:30:06.385120  7652 net.cpp:84] Creating Layer scale3a_branch1
I0117 06:30:06.385126  7652 net.cpp:406] scale3a_branch1 <- res3a_branch1
I0117 06:30:06.385134  7652 net.cpp:367] scale3a_branch1 -> res3a_branch1 (in-place)
I0117 06:30:06.385251  7652 layer_factory.hpp:77] Creating layer scale3a_branch1
I0117 06:30:06.385440  7652 net.cpp:122] Setting up scale3a_branch1
I0117 06:30:06.385452  7652 net.cpp:129] Top shape: 16 512 28 28 (6422528)
I0117 06:30:06.385457  7652 net.cpp:137] Memory required for data: 1872167168
I0117 06:30:06.385468  7652 layer_factory.hpp:77] Creating layer res3a_branch2a
I0117 06:30:06.385483  7652 net.cpp:84] Creating Layer res3a_branch2a
I0117 06:30:06.385490  7652 net.cpp:406] res3a_branch2a <- res2c_res2c_relu_0_split_1
I0117 06:30:06.385501  7652 net.cpp:380] res3a_branch2a -> res3a_branch2a
I0117 06:30:06.387679  7652 net.cpp:122] Setting up res3a_branch2a
I0117 06:30:06.387713  7652 net.cpp:129] Top shape: 16 128 28 28 (1605632)
I0117 06:30:06.387728  7652 net.cpp:137] Memory required for data: 1878589696
I0117 06:30:06.387737  7652 layer_factory.hpp:77] Creating layer bn3a_branch2a
I0117 06:30:06.387750  7652 net.cpp:84] Creating Layer bn3a_branch2a
I0117 06:30:06.387756  7652 net.cpp:406] bn3a_branch2a <- res3a_branch2a
I0117 06:30:06.387768  7652 net.cpp:367] bn3a_branch2a -> res3a_branch2a (in-place)
I0117 06:30:06.388119  7652 net.cpp:122] Setting up bn3a_branch2a
I0117 06:30:06.388130  7652 net.cpp:129] Top shape: 16 128 28 28 (1605632)
I0117 06:30:06.388135  7652 net.cpp:137] Memory required for data: 1885012224
I0117 06:30:06.388154  7652 layer_factory.hpp:77] Creating layer scale3a_branch2a
I0117 06:30:06.388165  7652 net.cpp:84] Creating Layer scale3a_branch2a
I0117 06:30:06.388171  7652 net.cpp:406] scale3a_branch2a <- res3a_branch2a
I0117 06:30:06.388178  7652 net.cpp:367] scale3a_branch2a -> res3a_branch2a (in-place)
I0117 06:30:06.388244  7652 layer_factory.hpp:77] Creating layer scale3a_branch2a
I0117 06:30:06.388433  7652 net.cpp:122] Setting up scale3a_branch2a
I0117 06:30:06.388445  7652 net.cpp:129] Top shape: 16 128 28 28 (1605632)
I0117 06:30:06.388449  7652 net.cpp:137] Memory required for data: 1891434752
I0117 06:30:06.388458  7652 layer_factory.hpp:77] Creating layer res3a_branch2a_relu
I0117 06:30:06.388471  7652 net.cpp:84] Creating Layer res3a_branch2a_relu
I0117 06:30:06.388479  7652 net.cpp:406] res3a_branch2a_relu <- res3a_branch2a
I0117 06:30:06.388486  7652 net.cpp:367] res3a_branch2a_relu -> res3a_branch2a (in-place)
I0117 06:30:06.389616  7652 net.cpp:122] Setting up res3a_branch2a_relu
I0117 06:30:06.389638  7652 net.cpp:129] Top shape: 16 128 28 28 (1605632)
I0117 06:30:06.389643  7652 net.cpp:137] Memory required for data: 1897857280
I0117 06:30:06.389650  7652 layer_factory.hpp:77] Creating layer res3a_branch2b
I0117 06:30:06.389673  7652 net.cpp:84] Creating Layer res3a_branch2b
I0117 06:30:06.389681  7652 net.cpp:406] res3a_branch2b <- res3a_branch2a
I0117 06:30:06.389693  7652 net.cpp:380] res3a_branch2b -> res3a_branch2b
I0117 06:30:06.392910  7652 net.cpp:122] Setting up res3a_branch2b
I0117 06:30:06.392935  7652 net.cpp:129] Top shape: 16 128 28 28 (1605632)
I0117 06:30:06.392940  7652 net.cpp:137] Memory required for data: 1904279808
I0117 06:30:06.392949  7652 layer_factory.hpp:77] Creating layer bn3a_branch2b
I0117 06:30:06.392962  7652 net.cpp:84] Creating Layer bn3a_branch2b
I0117 06:30:06.392969  7652 net.cpp:406] bn3a_branch2b <- res3a_branch2b
I0117 06:30:06.392980  7652 net.cpp:367] bn3a_branch2b -> res3a_branch2b (in-place)
I0117 06:30:06.393347  7652 net.cpp:122] Setting up bn3a_branch2b
I0117 06:30:06.393358  7652 net.cpp:129] Top shape: 16 128 28 28 (1605632)
I0117 06:30:06.393363  7652 net.cpp:137] Memory required for data: 1910702336
I0117 06:30:06.393375  7652 layer_factory.hpp:77] Creating layer scale3a_branch2b
I0117 06:30:06.393388  7652 net.cpp:84] Creating Layer scale3a_branch2b
I0117 06:30:06.393393  7652 net.cpp:406] scale3a_branch2b <- res3a_branch2b
I0117 06:30:06.393399  7652 net.cpp:367] scale3a_branch2b -> res3a_branch2b (in-place)
I0117 06:30:06.393463  7652 layer_factory.hpp:77] Creating layer scale3a_branch2b
I0117 06:30:06.393663  7652 net.cpp:122] Setting up scale3a_branch2b
I0117 06:30:06.393674  7652 net.cpp:129] Top shape: 16 128 28 28 (1605632)
I0117 06:30:06.393702  7652 net.cpp:137] Memory required for data: 1917124864
I0117 06:30:06.393713  7652 layer_factory.hpp:77] Creating layer res3a_branch2b_relu
I0117 06:30:06.393723  7652 net.cpp:84] Creating Layer res3a_branch2b_relu
I0117 06:30:06.393729  7652 net.cpp:406] res3a_branch2b_relu <- res3a_branch2b
I0117 06:30:06.393739  7652 net.cpp:367] res3a_branch2b_relu -> res3a_branch2b (in-place)
I0117 06:30:06.394825  7652 net.cpp:122] Setting up res3a_branch2b_relu
I0117 06:30:06.394846  7652 net.cpp:129] Top shape: 16 128 28 28 (1605632)
I0117 06:30:06.394851  7652 net.cpp:137] Memory required for data: 1923547392
I0117 06:30:06.394856  7652 layer_factory.hpp:77] Creating layer res3a_branch2c
I0117 06:30:06.394879  7652 net.cpp:84] Creating Layer res3a_branch2c
I0117 06:30:06.394886  7652 net.cpp:406] res3a_branch2c <- res3a_branch2b
I0117 06:30:06.394896  7652 net.cpp:380] res3a_branch2c -> res3a_branch2c
I0117 06:30:06.396270  7652 net.cpp:122] Setting up res3a_branch2c
I0117 06:30:06.396286  7652 net.cpp:129] Top shape: 16 512 28 28 (6422528)
I0117 06:30:06.396291  7652 net.cpp:137] Memory required for data: 1949237504
I0117 06:30:06.396301  7652 layer_factory.hpp:77] Creating layer bn3a_branch2c
I0117 06:30:06.396311  7652 net.cpp:84] Creating Layer bn3a_branch2c
I0117 06:30:06.396318  7652 net.cpp:406] bn3a_branch2c <- res3a_branch2c
I0117 06:30:06.396325  7652 net.cpp:367] bn3a_branch2c -> res3a_branch2c (in-place)
I0117 06:30:06.396639  7652 net.cpp:122] Setting up bn3a_branch2c
I0117 06:30:06.396651  7652 net.cpp:129] Top shape: 16 512 28 28 (6422528)
I0117 06:30:06.396656  7652 net.cpp:137] Memory required for data: 1974927616
I0117 06:30:06.396667  7652 layer_factory.hpp:77] Creating layer scale3a_branch2c
I0117 06:30:06.396675  7652 net.cpp:84] Creating Layer scale3a_branch2c
I0117 06:30:06.396680  7652 net.cpp:406] scale3a_branch2c <- res3a_branch2c
I0117 06:30:06.396687  7652 net.cpp:367] scale3a_branch2c -> res3a_branch2c (in-place)
I0117 06:30:06.396760  7652 layer_factory.hpp:77] Creating layer scale3a_branch2c
I0117 06:30:06.396936  7652 net.cpp:122] Setting up scale3a_branch2c
I0117 06:30:06.396947  7652 net.cpp:129] Top shape: 16 512 28 28 (6422528)
I0117 06:30:06.396951  7652 net.cpp:137] Memory required for data: 2000617728
I0117 06:30:06.396960  7652 layer_factory.hpp:77] Creating layer res3a
I0117 06:30:06.396972  7652 net.cpp:84] Creating Layer res3a
I0117 06:30:06.396977  7652 net.cpp:406] res3a <- res3a_branch1
I0117 06:30:06.396984  7652 net.cpp:406] res3a <- res3a_branch2c
I0117 06:30:06.396993  7652 net.cpp:380] res3a -> res3a
I0117 06:30:06.397037  7652 net.cpp:122] Setting up res3a
I0117 06:30:06.397048  7652 net.cpp:129] Top shape: 16 512 28 28 (6422528)
I0117 06:30:06.397053  7652 net.cpp:137] Memory required for data: 2026307840
I0117 06:30:06.397058  7652 layer_factory.hpp:77] Creating layer res3a_relu
I0117 06:30:06.397064  7652 net.cpp:84] Creating Layer res3a_relu
I0117 06:30:06.397069  7652 net.cpp:406] res3a_relu <- res3a
I0117 06:30:06.397083  7652 net.cpp:367] res3a_relu -> res3a (in-place)
I0117 06:30:06.398160  7652 net.cpp:122] Setting up res3a_relu
I0117 06:30:06.398180  7652 net.cpp:129] Top shape: 16 512 28 28 (6422528)
I0117 06:30:06.398185  7652 net.cpp:137] Memory required for data: 2051997952
I0117 06:30:06.398191  7652 layer_factory.hpp:77] Creating layer res3a_res3a_relu_0_split
I0117 06:30:06.398211  7652 net.cpp:84] Creating Layer res3a_res3a_relu_0_split
I0117 06:30:06.398217  7652 net.cpp:406] res3a_res3a_relu_0_split <- res3a
I0117 06:30:06.398227  7652 net.cpp:380] res3a_res3a_relu_0_split -> res3a_res3a_relu_0_split_0
I0117 06:30:06.398241  7652 net.cpp:380] res3a_res3a_relu_0_split -> res3a_res3a_relu_0_split_1
I0117 06:30:06.398313  7652 net.cpp:122] Setting up res3a_res3a_relu_0_split
I0117 06:30:06.398332  7652 net.cpp:129] Top shape: 16 512 28 28 (6422528)
I0117 06:30:06.398339  7652 net.cpp:129] Top shape: 16 512 28 28 (6422528)
I0117 06:30:06.398344  7652 net.cpp:137] Memory required for data: 2103378176
I0117 06:30:06.398349  7652 layer_factory.hpp:77] Creating layer res3b_branch2a
I0117 06:30:06.398380  7652 net.cpp:84] Creating Layer res3b_branch2a
I0117 06:30:06.398389  7652 net.cpp:406] res3b_branch2a <- res3a_res3a_relu_0_split_0
I0117 06:30:06.398401  7652 net.cpp:380] res3b_branch2a -> res3b_branch2a
I0117 06:30:06.400859  7652 net.cpp:122] Setting up res3b_branch2a
I0117 06:30:06.400880  7652 net.cpp:129] Top shape: 16 128 28 28 (1605632)
I0117 06:30:06.400885  7652 net.cpp:137] Memory required for data: 2109800704
I0117 06:30:06.400902  7652 layer_factory.hpp:77] Creating layer bn3b_branch2a
I0117 06:30:06.400914  7652 net.cpp:84] Creating Layer bn3b_branch2a
I0117 06:30:06.400920  7652 net.cpp:406] bn3b_branch2a <- res3b_branch2a
I0117 06:30:06.400930  7652 net.cpp:367] bn3b_branch2a -> res3b_branch2a (in-place)
I0117 06:30:06.401278  7652 net.cpp:122] Setting up bn3b_branch2a
I0117 06:30:06.401288  7652 net.cpp:129] Top shape: 16 128 28 28 (1605632)
I0117 06:30:06.401293  7652 net.cpp:137] Memory required for data: 2116223232
I0117 06:30:06.401304  7652 layer_factory.hpp:77] Creating layer scale3b_branch2a
I0117 06:30:06.401324  7652 net.cpp:84] Creating Layer scale3b_branch2a
I0117 06:30:06.401330  7652 net.cpp:406] scale3b_branch2a <- res3b_branch2a
I0117 06:30:06.401337  7652 net.cpp:367] scale3b_branch2a -> res3b_branch2a (in-place)
I0117 06:30:06.401401  7652 layer_factory.hpp:77] Creating layer scale3b_branch2a
I0117 06:30:06.401585  7652 net.cpp:122] Setting up scale3b_branch2a
I0117 06:30:06.401597  7652 net.cpp:129] Top shape: 16 128 28 28 (1605632)
I0117 06:30:06.401602  7652 net.cpp:137] Memory required for data: 2122645760
I0117 06:30:06.401610  7652 layer_factory.hpp:77] Creating layer res3b_branch2a_relu
I0117 06:30:06.401618  7652 net.cpp:84] Creating Layer res3b_branch2a_relu
I0117 06:30:06.401626  7652 net.cpp:406] res3b_branch2a_relu <- res3b_branch2a
I0117 06:30:06.401640  7652 net.cpp:367] res3b_branch2a_relu -> res3b_branch2a (in-place)
I0117 06:30:06.401937  7652 net.cpp:122] Setting up res3b_branch2a_relu
I0117 06:30:06.401949  7652 net.cpp:129] Top shape: 16 128 28 28 (1605632)
I0117 06:30:06.401954  7652 net.cpp:137] Memory required for data: 2129068288
I0117 06:30:06.401958  7652 layer_factory.hpp:77] Creating layer res3b_branch2b
I0117 06:30:06.401973  7652 net.cpp:84] Creating Layer res3b_branch2b
I0117 06:30:06.401979  7652 net.cpp:406] res3b_branch2b <- res3b_branch2a
I0117 06:30:06.401988  7652 net.cpp:380] res3b_branch2b -> res3b_branch2b
I0117 06:30:06.407197  7652 net.cpp:122] Setting up res3b_branch2b
I0117 06:30:06.407219  7652 net.cpp:129] Top shape: 16 128 28 28 (1605632)
I0117 06:30:06.407224  7652 net.cpp:137] Memory required for data: 2135490816
I0117 06:30:06.407239  7652 layer_factory.hpp:77] Creating layer bn3b_branch2b
I0117 06:30:06.407250  7652 net.cpp:84] Creating Layer bn3b_branch2b
I0117 06:30:06.407258  7652 net.cpp:406] bn3b_branch2b <- res3b_branch2b
I0117 06:30:06.407269  7652 net.cpp:367] bn3b_branch2b -> res3b_branch2b (in-place)
I0117 06:30:06.407616  7652 net.cpp:122] Setting up bn3b_branch2b
I0117 06:30:06.407626  7652 net.cpp:129] Top shape: 16 128 28 28 (1605632)
I0117 06:30:06.407630  7652 net.cpp:137] Memory required for data: 2141913344
I0117 06:30:06.407641  7652 layer_factory.hpp:77] Creating layer scale3b_branch2b
I0117 06:30:06.407651  7652 net.cpp:84] Creating Layer scale3b_branch2b
I0117 06:30:06.407656  7652 net.cpp:406] scale3b_branch2b <- res3b_branch2b
I0117 06:30:06.407662  7652 net.cpp:367] scale3b_branch2b -> res3b_branch2b (in-place)
I0117 06:30:06.407721  7652 layer_factory.hpp:77] Creating layer scale3b_branch2b
I0117 06:30:06.407889  7652 net.cpp:122] Setting up scale3b_branch2b
I0117 06:30:06.407899  7652 net.cpp:129] Top shape: 16 128 28 28 (1605632)
I0117 06:30:06.407904  7652 net.cpp:137] Memory required for data: 2148335872
I0117 06:30:06.407912  7652 layer_factory.hpp:77] Creating layer res3b_branch2b_relu
I0117 06:30:06.407922  7652 net.cpp:84] Creating Layer res3b_branch2b_relu
I0117 06:30:06.407927  7652 net.cpp:406] res3b_branch2b_relu <- res3b_branch2b
I0117 06:30:06.407954  7652 net.cpp:367] res3b_branch2b_relu -> res3b_branch2b (in-place)
I0117 06:30:06.408251  7652 net.cpp:122] Setting up res3b_branch2b_relu
I0117 06:30:06.408263  7652 net.cpp:129] Top shape: 16 128 28 28 (1605632)
I0117 06:30:06.408267  7652 net.cpp:137] Memory required for data: 2154758400
I0117 06:30:06.408272  7652 layer_factory.hpp:77] Creating layer res3b_branch2c
I0117 06:30:06.408283  7652 net.cpp:84] Creating Layer res3b_branch2c
I0117 06:30:06.408288  7652 net.cpp:406] res3b_branch2c <- res3b_branch2b
I0117 06:30:06.408296  7652 net.cpp:380] res3b_branch2c -> res3b_branch2c
I0117 06:30:06.410347  7652 net.cpp:122] Setting up res3b_branch2c
I0117 06:30:06.410369  7652 net.cpp:129] Top shape: 16 512 28 28 (6422528)
I0117 06:30:06.410374  7652 net.cpp:137] Memory required for data: 2180448512
I0117 06:30:06.410382  7652 layer_factory.hpp:77] Creating layer bn3b_branch2c
I0117 06:30:06.410394  7652 net.cpp:84] Creating Layer bn3b_branch2c
I0117 06:30:06.410400  7652 net.cpp:406] bn3b_branch2c <- res3b_branch2c
I0117 06:30:06.410409  7652 net.cpp:367] bn3b_branch2c -> res3b_branch2c (in-place)
I0117 06:30:06.410712  7652 net.cpp:122] Setting up bn3b_branch2c
I0117 06:30:06.410734  7652 net.cpp:129] Top shape: 16 512 28 28 (6422528)
I0117 06:30:06.410738  7652 net.cpp:137] Memory required for data: 2206138624
I0117 06:30:06.410749  7652 layer_factory.hpp:77] Creating layer scale3b_branch2c
I0117 06:30:06.410764  7652 net.cpp:84] Creating Layer scale3b_branch2c
I0117 06:30:06.410768  7652 net.cpp:406] scale3b_branch2c <- res3b_branch2c
I0117 06:30:06.410774  7652 net.cpp:367] scale3b_branch2c -> res3b_branch2c (in-place)
I0117 06:30:06.410838  7652 layer_factory.hpp:77] Creating layer scale3b_branch2c
I0117 06:30:06.411007  7652 net.cpp:122] Setting up scale3b_branch2c
I0117 06:30:06.411017  7652 net.cpp:129] Top shape: 16 512 28 28 (6422528)
I0117 06:30:06.411021  7652 net.cpp:137] Memory required for data: 2231828736
I0117 06:30:06.411029  7652 layer_factory.hpp:77] Creating layer res3b
I0117 06:30:06.411037  7652 net.cpp:84] Creating Layer res3b
I0117 06:30:06.411042  7652 net.cpp:406] res3b <- res3a_res3a_relu_0_split_1
I0117 06:30:06.411048  7652 net.cpp:406] res3b <- res3b_branch2c
I0117 06:30:06.411057  7652 net.cpp:380] res3b -> res3b
I0117 06:30:06.411094  7652 net.cpp:122] Setting up res3b
I0117 06:30:06.411103  7652 net.cpp:129] Top shape: 16 512 28 28 (6422528)
I0117 06:30:06.411108  7652 net.cpp:137] Memory required for data: 2257518848
I0117 06:30:06.411113  7652 layer_factory.hpp:77] Creating layer res3b_relu
I0117 06:30:06.411119  7652 net.cpp:84] Creating Layer res3b_relu
I0117 06:30:06.411124  7652 net.cpp:406] res3b_relu <- res3b
I0117 06:30:06.411130  7652 net.cpp:367] res3b_relu -> res3b (in-place)
I0117 06:30:06.411401  7652 net.cpp:122] Setting up res3b_relu
I0117 06:30:06.411413  7652 net.cpp:129] Top shape: 16 512 28 28 (6422528)
I0117 06:30:06.411417  7652 net.cpp:137] Memory required for data: 2283208960
I0117 06:30:06.411422  7652 layer_factory.hpp:77] Creating layer res3b_res3b_relu_0_split
I0117 06:30:06.411430  7652 net.cpp:84] Creating Layer res3b_res3b_relu_0_split
I0117 06:30:06.411435  7652 net.cpp:406] res3b_res3b_relu_0_split <- res3b
I0117 06:30:06.411442  7652 net.cpp:380] res3b_res3b_relu_0_split -> res3b_res3b_relu_0_split_0
I0117 06:30:06.411454  7652 net.cpp:380] res3b_res3b_relu_0_split -> res3b_res3b_relu_0_split_1
I0117 06:30:06.411527  7652 net.cpp:122] Setting up res3b_res3b_relu_0_split
I0117 06:30:06.411536  7652 net.cpp:129] Top shape: 16 512 28 28 (6422528)
I0117 06:30:06.411542  7652 net.cpp:129] Top shape: 16 512 28 28 (6422528)
I0117 06:30:06.411546  7652 net.cpp:137] Memory required for data: 2334589184
I0117 06:30:06.411551  7652 layer_factory.hpp:77] Creating layer res3c_branch2a
I0117 06:30:06.411562  7652 net.cpp:84] Creating Layer res3c_branch2a
I0117 06:30:06.411571  7652 net.cpp:406] res3c_branch2a <- res3b_res3b_relu_0_split_0
I0117 06:30:06.411576  7652 net.cpp:380] res3c_branch2a -> res3c_branch2a
I0117 06:30:06.413570  7652 net.cpp:122] Setting up res3c_branch2a
I0117 06:30:06.413610  7652 net.cpp:129] Top shape: 16 128 28 28 (1605632)
I0117 06:30:06.413616  7652 net.cpp:137] Memory required for data: 2341011712
I0117 06:30:06.413625  7652 layer_factory.hpp:77] Creating layer bn3c_branch2a
I0117 06:30:06.413636  7652 net.cpp:84] Creating Layer bn3c_branch2a
I0117 06:30:06.413641  7652 net.cpp:406] bn3c_branch2a <- res3c_branch2a
I0117 06:30:06.413648  7652 net.cpp:367] bn3c_branch2a -> res3c_branch2a (in-place)
I0117 06:30:06.413975  7652 net.cpp:122] Setting up bn3c_branch2a
I0117 06:30:06.413985  7652 net.cpp:129] Top shape: 16 128 28 28 (1605632)
I0117 06:30:06.413988  7652 net.cpp:137] Memory required for data: 2347434240
I0117 06:30:06.414010  7652 layer_factory.hpp:77] Creating layer scale3c_branch2a
I0117 06:30:06.414019  7652 net.cpp:84] Creating Layer scale3c_branch2a
I0117 06:30:06.414026  7652 net.cpp:406] scale3c_branch2a <- res3c_branch2a
I0117 06:30:06.414031  7652 net.cpp:367] scale3c_branch2a -> res3c_branch2a (in-place)
I0117 06:30:06.414099  7652 layer_factory.hpp:77] Creating layer scale3c_branch2a
I0117 06:30:06.414271  7652 net.cpp:122] Setting up scale3c_branch2a
I0117 06:30:06.414281  7652 net.cpp:129] Top shape: 16 128 28 28 (1605632)
I0117 06:30:06.414285  7652 net.cpp:137] Memory required for data: 2353856768
I0117 06:30:06.414294  7652 layer_factory.hpp:77] Creating layer res3c_branch2a_relu
I0117 06:30:06.414301  7652 net.cpp:84] Creating Layer res3c_branch2a_relu
I0117 06:30:06.414309  7652 net.cpp:406] res3c_branch2a_relu <- res3c_branch2a
I0117 06:30:06.414319  7652 net.cpp:367] res3c_branch2a_relu -> res3c_branch2a (in-place)
I0117 06:30:06.414608  7652 net.cpp:122] Setting up res3c_branch2a_relu
I0117 06:30:06.414621  7652 net.cpp:129] Top shape: 16 128 28 28 (1605632)
I0117 06:30:06.414625  7652 net.cpp:137] Memory required for data: 2360279296
I0117 06:30:06.414630  7652 layer_factory.hpp:77] Creating layer res3c_branch2b
I0117 06:30:06.414643  7652 net.cpp:84] Creating Layer res3c_branch2b
I0117 06:30:06.414647  7652 net.cpp:406] res3c_branch2b <- res3c_branch2a
I0117 06:30:06.414655  7652 net.cpp:380] res3c_branch2b -> res3c_branch2b
I0117 06:30:06.417560  7652 net.cpp:122] Setting up res3c_branch2b
I0117 06:30:06.417582  7652 net.cpp:129] Top shape: 16 128 28 28 (1605632)
I0117 06:30:06.417596  7652 net.cpp:137] Memory required for data: 2366701824
I0117 06:30:06.417604  7652 layer_factory.hpp:77] Creating layer bn3c_branch2b
I0117 06:30:06.417616  7652 net.cpp:84] Creating Layer bn3c_branch2b
I0117 06:30:06.417629  7652 net.cpp:406] bn3c_branch2b <- res3c_branch2b
I0117 06:30:06.417635  7652 net.cpp:367] bn3c_branch2b -> res3c_branch2b (in-place)
I0117 06:30:06.417979  7652 net.cpp:122] Setting up bn3c_branch2b
I0117 06:30:06.417989  7652 net.cpp:129] Top shape: 16 128 28 28 (1605632)
I0117 06:30:06.417994  7652 net.cpp:137] Memory required for data: 2373124352
I0117 06:30:06.418010  7652 layer_factory.hpp:77] Creating layer scale3c_branch2b
I0117 06:30:06.418018  7652 net.cpp:84] Creating Layer scale3c_branch2b
I0117 06:30:06.418023  7652 net.cpp:406] scale3c_branch2b <- res3c_branch2b
I0117 06:30:06.418030  7652 net.cpp:367] scale3c_branch2b -> res3c_branch2b (in-place)
I0117 06:30:06.418097  7652 layer_factory.hpp:77] Creating layer scale3c_branch2b
I0117 06:30:06.418267  7652 net.cpp:122] Setting up scale3c_branch2b
I0117 06:30:06.418277  7652 net.cpp:129] Top shape: 16 128 28 28 (1605632)
I0117 06:30:06.418280  7652 net.cpp:137] Memory required for data: 2379546880
I0117 06:30:06.418288  7652 layer_factory.hpp:77] Creating layer res3c_branch2b_relu
I0117 06:30:06.418300  7652 net.cpp:84] Creating Layer res3c_branch2b_relu
I0117 06:30:06.418305  7652 net.cpp:406] res3c_branch2b_relu <- res3c_branch2b
I0117 06:30:06.418313  7652 net.cpp:367] res3c_branch2b_relu -> res3c_branch2b (in-place)
I0117 06:30:06.419327  7652 net.cpp:122] Setting up res3c_branch2b_relu
I0117 06:30:06.419348  7652 net.cpp:129] Top shape: 16 128 28 28 (1605632)
I0117 06:30:06.419353  7652 net.cpp:137] Memory required for data: 2385969408
I0117 06:30:06.419378  7652 layer_factory.hpp:77] Creating layer res3c_branch2c
I0117 06:30:06.419392  7652 net.cpp:84] Creating Layer res3c_branch2c
I0117 06:30:06.419400  7652 net.cpp:406] res3c_branch2c <- res3c_branch2b
I0117 06:30:06.419409  7652 net.cpp:380] res3c_branch2c -> res3c_branch2c
I0117 06:30:06.420629  7652 net.cpp:122] Setting up res3c_branch2c
I0117 06:30:06.420644  7652 net.cpp:129] Top shape: 16 512 28 28 (6422528)
I0117 06:30:06.420648  7652 net.cpp:137] Memory required for data: 2411659520
I0117 06:30:06.420660  7652 layer_factory.hpp:77] Creating layer bn3c_branch2c
I0117 06:30:06.420671  7652 net.cpp:84] Creating Layer bn3c_branch2c
I0117 06:30:06.420676  7652 net.cpp:406] bn3c_branch2c <- res3c_branch2c
I0117 06:30:06.420691  7652 net.cpp:367] bn3c_branch2c -> res3c_branch2c (in-place)
I0117 06:30:06.421012  7652 net.cpp:122] Setting up bn3c_branch2c
I0117 06:30:06.421021  7652 net.cpp:129] Top shape: 16 512 28 28 (6422528)
I0117 06:30:06.421025  7652 net.cpp:137] Memory required for data: 2437349632
I0117 06:30:06.421039  7652 layer_factory.hpp:77] Creating layer scale3c_branch2c
I0117 06:30:06.421047  7652 net.cpp:84] Creating Layer scale3c_branch2c
I0117 06:30:06.421051  7652 net.cpp:406] scale3c_branch2c <- res3c_branch2c
I0117 06:30:06.421057  7652 net.cpp:367] scale3c_branch2c -> res3c_branch2c (in-place)
I0117 06:30:06.421124  7652 layer_factory.hpp:77] Creating layer scale3c_branch2c
I0117 06:30:06.421285  7652 net.cpp:122] Setting up scale3c_branch2c
I0117 06:30:06.421294  7652 net.cpp:129] Top shape: 16 512 28 28 (6422528)
I0117 06:30:06.421298  7652 net.cpp:137] Memory required for data: 2463039744
I0117 06:30:06.421306  7652 layer_factory.hpp:77] Creating layer res3c
I0117 06:30:06.421313  7652 net.cpp:84] Creating Layer res3c
I0117 06:30:06.421320  7652 net.cpp:406] res3c <- res3b_res3b_relu_0_split_1
I0117 06:30:06.421326  7652 net.cpp:406] res3c <- res3c_branch2c
I0117 06:30:06.421334  7652 net.cpp:380] res3c -> res3c
I0117 06:30:06.421368  7652 net.cpp:122] Setting up res3c
I0117 06:30:06.421377  7652 net.cpp:129] Top shape: 16 512 28 28 (6422528)
I0117 06:30:06.421381  7652 net.cpp:137] Memory required for data: 2488729856
I0117 06:30:06.421386  7652 layer_factory.hpp:77] Creating layer res3c_relu
I0117 06:30:06.421394  7652 net.cpp:84] Creating Layer res3c_relu
I0117 06:30:06.421399  7652 net.cpp:406] res3c_relu <- res3c
I0117 06:30:06.421404  7652 net.cpp:367] res3c_relu -> res3c (in-place)
I0117 06:30:06.422377  7652 net.cpp:122] Setting up res3c_relu
I0117 06:30:06.422396  7652 net.cpp:129] Top shape: 16 512 28 28 (6422528)
I0117 06:30:06.422400  7652 net.cpp:137] Memory required for data: 2514419968
I0117 06:30:06.422405  7652 layer_factory.hpp:77] Creating layer res3c_res3c_relu_0_split
I0117 06:30:06.422413  7652 net.cpp:84] Creating Layer res3c_res3c_relu_0_split
I0117 06:30:06.422422  7652 net.cpp:406] res3c_res3c_relu_0_split <- res3c
I0117 06:30:06.422432  7652 net.cpp:380] res3c_res3c_relu_0_split -> res3c_res3c_relu_0_split_0
I0117 06:30:06.422443  7652 net.cpp:380] res3c_res3c_relu_0_split -> res3c_res3c_relu_0_split_1
I0117 06:30:06.422509  7652 net.cpp:122] Setting up res3c_res3c_relu_0_split
I0117 06:30:06.422518  7652 net.cpp:129] Top shape: 16 512 28 28 (6422528)
I0117 06:30:06.422523  7652 net.cpp:129] Top shape: 16 512 28 28 (6422528)
I0117 06:30:06.422528  7652 net.cpp:137] Memory required for data: 2565800192
I0117 06:30:06.422531  7652 layer_factory.hpp:77] Creating layer res3d_branch2a
I0117 06:30:06.422543  7652 net.cpp:84] Creating Layer res3d_branch2a
I0117 06:30:06.422549  7652 net.cpp:406] res3d_branch2a <- res3c_res3c_relu_0_split_0
I0117 06:30:06.422556  7652 net.cpp:380] res3d_branch2a -> res3d_branch2a
I0117 06:30:06.432070  7652 net.cpp:122] Setting up res3d_branch2a
I0117 06:30:06.432097  7652 net.cpp:129] Top shape: 16 128 28 28 (1605632)
I0117 06:30:06.432101  7652 net.cpp:137] Memory required for data: 2572222720
I0117 06:30:06.432122  7652 layer_factory.hpp:77] Creating layer bn3d_branch2a
I0117 06:30:06.432140  7652 net.cpp:84] Creating Layer bn3d_branch2a
I0117 06:30:06.432185  7652 net.cpp:406] bn3d_branch2a <- res3d_branch2a
I0117 06:30:06.432206  7652 net.cpp:367] bn3d_branch2a -> res3d_branch2a (in-place)
I0117 06:30:06.432574  7652 net.cpp:122] Setting up bn3d_branch2a
I0117 06:30:06.432585  7652 net.cpp:129] Top shape: 16 128 28 28 (1605632)
I0117 06:30:06.432590  7652 net.cpp:137] Memory required for data: 2578645248
I0117 06:30:06.432729  7652 layer_factory.hpp:77] Creating layer scale3d_branch2a
I0117 06:30:06.432741  7652 net.cpp:84] Creating Layer scale3d_branch2a
I0117 06:30:06.432745  7652 net.cpp:406] scale3d_branch2a <- res3d_branch2a
I0117 06:30:06.432752  7652 net.cpp:367] scale3d_branch2a -> res3d_branch2a (in-place)
I0117 06:30:06.432812  7652 layer_factory.hpp:77] Creating layer scale3d_branch2a
I0117 06:30:06.432972  7652 net.cpp:122] Setting up scale3d_branch2a
I0117 06:30:06.432981  7652 net.cpp:129] Top shape: 16 128 28 28 (1605632)
I0117 06:30:06.432986  7652 net.cpp:137] Memory required for data: 2585067776
I0117 06:30:06.432992  7652 layer_factory.hpp:77] Creating layer res3d_branch2a_relu
I0117 06:30:06.433002  7652 net.cpp:84] Creating Layer res3d_branch2a_relu
I0117 06:30:06.433007  7652 net.cpp:406] res3d_branch2a_relu <- res3d_branch2a
I0117 06:30:06.433012  7652 net.cpp:367] res3d_branch2a_relu -> res3d_branch2a (in-place)
I0117 06:30:06.433475  7652 net.cpp:122] Setting up res3d_branch2a_relu
I0117 06:30:06.433490  7652 net.cpp:129] Top shape: 16 128 28 28 (1605632)
I0117 06:30:06.433493  7652 net.cpp:137] Memory required for data: 2591490304
I0117 06:30:06.433497  7652 layer_factory.hpp:77] Creating layer res3d_branch2b
I0117 06:30:06.433511  7652 net.cpp:84] Creating Layer res3d_branch2b
I0117 06:30:06.433518  7652 net.cpp:406] res3d_branch2b <- res3d_branch2a
I0117 06:30:06.433527  7652 net.cpp:380] res3d_branch2b -> res3d_branch2b
I0117 06:30:06.436228  7652 net.cpp:122] Setting up res3d_branch2b
I0117 06:30:06.436250  7652 net.cpp:129] Top shape: 16 128 28 28 (1605632)
I0117 06:30:06.436255  7652 net.cpp:137] Memory required for data: 2597912832
I0117 06:30:06.436264  7652 layer_factory.hpp:77] Creating layer bn3d_branch2b
I0117 06:30:06.436272  7652 net.cpp:84] Creating Layer bn3d_branch2b
I0117 06:30:06.436277  7652 net.cpp:406] bn3d_branch2b <- res3d_branch2b
I0117 06:30:06.436286  7652 net.cpp:367] bn3d_branch2b -> res3d_branch2b (in-place)
I0117 06:30:06.436596  7652 net.cpp:122] Setting up bn3d_branch2b
I0117 06:30:06.436606  7652 net.cpp:129] Top shape: 16 128 28 28 (1605632)
I0117 06:30:06.436610  7652 net.cpp:137] Memory required for data: 2604335360
I0117 06:30:06.436622  7652 layer_factory.hpp:77] Creating layer scale3d_branch2b
I0117 06:30:06.436638  7652 net.cpp:84] Creating Layer scale3d_branch2b
I0117 06:30:06.436642  7652 net.cpp:406] scale3d_branch2b <- res3d_branch2b
I0117 06:30:06.436648  7652 net.cpp:367] scale3d_branch2b -> res3d_branch2b (in-place)
I0117 06:30:06.436702  7652 layer_factory.hpp:77] Creating layer scale3d_branch2b
I0117 06:30:06.436854  7652 net.cpp:122] Setting up scale3d_branch2b
I0117 06:30:06.436866  7652 net.cpp:129] Top shape: 16 128 28 28 (1605632)
I0117 06:30:06.436869  7652 net.cpp:137] Memory required for data: 2610757888
I0117 06:30:06.436877  7652 layer_factory.hpp:77] Creating layer res3d_branch2b_relu
I0117 06:30:06.436887  7652 net.cpp:84] Creating Layer res3d_branch2b_relu
I0117 06:30:06.436890  7652 net.cpp:406] res3d_branch2b_relu <- res3d_branch2b
I0117 06:30:06.436895  7652 net.cpp:367] res3d_branch2b_relu -> res3d_branch2b (in-place)
I0117 06:30:06.437172  7652 net.cpp:122] Setting up res3d_branch2b_relu
I0117 06:30:06.437185  7652 net.cpp:129] Top shape: 16 128 28 28 (1605632)
I0117 06:30:06.437188  7652 net.cpp:137] Memory required for data: 2617180416
I0117 06:30:06.437193  7652 layer_factory.hpp:77] Creating layer res3d_branch2c
I0117 06:30:06.437211  7652 net.cpp:84] Creating Layer res3d_branch2c
I0117 06:30:06.437217  7652 net.cpp:406] res3d_branch2c <- res3d_branch2b
I0117 06:30:06.437227  7652 net.cpp:380] res3d_branch2c -> res3d_branch2c
I0117 06:30:06.439124  7652 net.cpp:122] Setting up res3d_branch2c
I0117 06:30:06.439146  7652 net.cpp:129] Top shape: 16 512 28 28 (6422528)
I0117 06:30:06.439152  7652 net.cpp:137] Memory required for data: 2642870528
I0117 06:30:06.439167  7652 layer_factory.hpp:77] Creating layer bn3d_branch2c
I0117 06:30:06.439175  7652 net.cpp:84] Creating Layer bn3d_branch2c
I0117 06:30:06.439182  7652 net.cpp:406] bn3d_branch2c <- res3d_branch2c
I0117 06:30:06.439188  7652 net.cpp:367] bn3d_branch2c -> res3d_branch2c (in-place)
I0117 06:30:06.439476  7652 net.cpp:122] Setting up bn3d_branch2c
I0117 06:30:06.439486  7652 net.cpp:129] Top shape: 16 512 28 28 (6422528)
I0117 06:30:06.439489  7652 net.cpp:137] Memory required for data: 2668560640
I0117 06:30:06.439499  7652 layer_factory.hpp:77] Creating layer scale3d_branch2c
I0117 06:30:06.439507  7652 net.cpp:84] Creating Layer scale3d_branch2c
I0117 06:30:06.439510  7652 net.cpp:406] scale3d_branch2c <- res3d_branch2c
I0117 06:30:06.439517  7652 net.cpp:367] scale3d_branch2c -> res3d_branch2c (in-place)
I0117 06:30:06.439576  7652 layer_factory.hpp:77] Creating layer scale3d_branch2c
I0117 06:30:06.439733  7652 net.cpp:122] Setting up scale3d_branch2c
I0117 06:30:06.439741  7652 net.cpp:129] Top shape: 16 512 28 28 (6422528)
I0117 06:30:06.439745  7652 net.cpp:137] Memory required for data: 2694250752
I0117 06:30:06.439754  7652 layer_factory.hpp:77] Creating layer res3d
I0117 06:30:06.439764  7652 net.cpp:84] Creating Layer res3d
I0117 06:30:06.439770  7652 net.cpp:406] res3d <- res3c_res3c_relu_0_split_1
I0117 06:30:06.439777  7652 net.cpp:406] res3d <- res3d_branch2c
I0117 06:30:06.439784  7652 net.cpp:380] res3d -> res3d
I0117 06:30:06.439816  7652 net.cpp:122] Setting up res3d
I0117 06:30:06.439826  7652 net.cpp:129] Top shape: 16 512 28 28 (6422528)
I0117 06:30:06.439829  7652 net.cpp:137] Memory required for data: 2719940864
I0117 06:30:06.439832  7652 layer_factory.hpp:77] Creating layer res3d_relu
I0117 06:30:06.439839  7652 net.cpp:84] Creating Layer res3d_relu
I0117 06:30:06.439846  7652 net.cpp:406] res3d_relu <- res3d
I0117 06:30:06.439854  7652 net.cpp:367] res3d_relu -> res3d (in-place)
I0117 06:30:06.440105  7652 net.cpp:122] Setting up res3d_relu
I0117 06:30:06.440124  7652 net.cpp:129] Top shape: 16 512 28 28 (6422528)
I0117 06:30:06.440129  7652 net.cpp:137] Memory required for data: 2745630976
I0117 06:30:06.440134  7652 layer_factory.hpp:77] Creating layer res3d_res3d_relu_0_split
I0117 06:30:06.440141  7652 net.cpp:84] Creating Layer res3d_res3d_relu_0_split
I0117 06:30:06.440145  7652 net.cpp:406] res3d_res3d_relu_0_split <- res3d
I0117 06:30:06.440151  7652 net.cpp:380] res3d_res3d_relu_0_split -> res3d_res3d_relu_0_split_0
I0117 06:30:06.440160  7652 net.cpp:380] res3d_res3d_relu_0_split -> res3d_res3d_relu_0_split_1
I0117 06:30:06.440219  7652 net.cpp:122] Setting up res3d_res3d_relu_0_split
I0117 06:30:06.440227  7652 net.cpp:129] Top shape: 16 512 28 28 (6422528)
I0117 06:30:06.440232  7652 net.cpp:129] Top shape: 16 512 28 28 (6422528)
I0117 06:30:06.440235  7652 net.cpp:137] Memory required for data: 2797011200
I0117 06:30:06.440239  7652 layer_factory.hpp:77] Creating layer res4a_branch1
I0117 06:30:06.440250  7652 net.cpp:84] Creating Layer res4a_branch1
I0117 06:30:06.440258  7652 net.cpp:406] res4a_branch1 <- res3d_res3d_relu_0_split_0
I0117 06:30:06.440265  7652 net.cpp:380] res4a_branch1 -> res4a_branch1
I0117 06:30:06.444237  7652 net.cpp:122] Setting up res4a_branch1
I0117 06:30:06.444258  7652 net.cpp:129] Top shape: 16 1024 14 14 (3211264)
I0117 06:30:06.444262  7652 net.cpp:137] Memory required for data: 2809856256
I0117 06:30:06.444278  7652 layer_factory.hpp:77] Creating layer bn4a_branch1
I0117 06:30:06.444288  7652 net.cpp:84] Creating Layer bn4a_branch1
I0117 06:30:06.444293  7652 net.cpp:406] bn4a_branch1 <- res4a_branch1
I0117 06:30:06.444303  7652 net.cpp:367] bn4a_branch1 -> res4a_branch1 (in-place)
I0117 06:30:06.444622  7652 net.cpp:122] Setting up bn4a_branch1
I0117 06:30:06.444630  7652 net.cpp:129] Top shape: 16 1024 14 14 (3211264)
I0117 06:30:06.444650  7652 net.cpp:137] Memory required for data: 2822701312
I0117 06:30:06.444660  7652 layer_factory.hpp:77] Creating layer scale4a_branch1
I0117 06:30:06.444672  7652 net.cpp:84] Creating Layer scale4a_branch1
I0117 06:30:06.444676  7652 net.cpp:406] scale4a_branch1 <- res4a_branch1
I0117 06:30:06.444681  7652 net.cpp:367] scale4a_branch1 -> res4a_branch1 (in-place)
I0117 06:30:06.444736  7652 layer_factory.hpp:77] Creating layer scale4a_branch1
I0117 06:30:06.444893  7652 net.cpp:122] Setting up scale4a_branch1
I0117 06:30:06.444902  7652 net.cpp:129] Top shape: 16 1024 14 14 (3211264)
I0117 06:30:06.444906  7652 net.cpp:137] Memory required for data: 2835546368
I0117 06:30:06.444913  7652 layer_factory.hpp:77] Creating layer res4a_branch2a
I0117 06:30:06.444926  7652 net.cpp:84] Creating Layer res4a_branch2a
I0117 06:30:06.444933  7652 net.cpp:406] res4a_branch2a <- res3d_res3d_relu_0_split_1
I0117 06:30:06.444941  7652 net.cpp:380] res4a_branch2a -> res4a_branch2a
I0117 06:30:06.448581  7652 net.cpp:122] Setting up res4a_branch2a
I0117 06:30:06.448601  7652 net.cpp:129] Top shape: 16 256 14 14 (802816)
I0117 06:30:06.448606  7652 net.cpp:137] Memory required for data: 2838757632
I0117 06:30:06.448616  7652 layer_factory.hpp:77] Creating layer bn4a_branch2a
I0117 06:30:06.448627  7652 net.cpp:84] Creating Layer bn4a_branch2a
I0117 06:30:06.448632  7652 net.cpp:406] bn4a_branch2a <- res4a_branch2a
I0117 06:30:06.448638  7652 net.cpp:367] bn4a_branch2a -> res4a_branch2a (in-place)
I0117 06:30:06.448921  7652 net.cpp:122] Setting up bn4a_branch2a
I0117 06:30:06.448930  7652 net.cpp:129] Top shape: 16 256 14 14 (802816)
I0117 06:30:06.448935  7652 net.cpp:137] Memory required for data: 2841968896
I0117 06:30:06.448943  7652 layer_factory.hpp:77] Creating layer scale4a_branch2a
I0117 06:30:06.448951  7652 net.cpp:84] Creating Layer scale4a_branch2a
I0117 06:30:06.448956  7652 net.cpp:406] scale4a_branch2a <- res4a_branch2a
I0117 06:30:06.448961  7652 net.cpp:367] scale4a_branch2a -> res4a_branch2a (in-place)
I0117 06:30:06.449017  7652 layer_factory.hpp:77] Creating layer scale4a_branch2a
I0117 06:30:06.449169  7652 net.cpp:122] Setting up scale4a_branch2a
I0117 06:30:06.449178  7652 net.cpp:129] Top shape: 16 256 14 14 (802816)
I0117 06:30:06.449182  7652 net.cpp:137] Memory required for data: 2845180160
I0117 06:30:06.449189  7652 layer_factory.hpp:77] Creating layer res4a_branch2a_relu
I0117 06:30:06.449198  7652 net.cpp:84] Creating Layer res4a_branch2a_relu
I0117 06:30:06.449208  7652 net.cpp:406] res4a_branch2a_relu <- res4a_branch2a
I0117 06:30:06.449215  7652 net.cpp:367] res4a_branch2a_relu -> res4a_branch2a (in-place)
I0117 06:30:06.449456  7652 net.cpp:122] Setting up res4a_branch2a_relu
I0117 06:30:06.449470  7652 net.cpp:129] Top shape: 16 256 14 14 (802816)
I0117 06:30:06.449476  7652 net.cpp:137] Memory required for data: 2848391424
I0117 06:30:06.449481  7652 layer_factory.hpp:77] Creating layer res4a_branch2b
I0117 06:30:06.449489  7652 net.cpp:84] Creating Layer res4a_branch2b
I0117 06:30:06.449493  7652 net.cpp:406] res4a_branch2b <- res4a_branch2a
I0117 06:30:06.449502  7652 net.cpp:380] res4a_branch2b -> res4a_branch2b
I0117 06:30:06.454434  7652 net.cpp:122] Setting up res4a_branch2b
I0117 06:30:06.454454  7652 net.cpp:129] Top shape: 16 256 14 14 (802816)
I0117 06:30:06.454458  7652 net.cpp:137] Memory required for data: 2851602688
I0117 06:30:06.454468  7652 layer_factory.hpp:77] Creating layer bn4a_branch2b
I0117 06:30:06.454479  7652 net.cpp:84] Creating Layer bn4a_branch2b
I0117 06:30:06.454485  7652 net.cpp:406] bn4a_branch2b <- res4a_branch2b
I0117 06:30:06.454491  7652 net.cpp:367] bn4a_branch2b -> res4a_branch2b (in-place)
I0117 06:30:06.454783  7652 net.cpp:122] Setting up bn4a_branch2b
I0117 06:30:06.454802  7652 net.cpp:129] Top shape: 16 256 14 14 (802816)
I0117 06:30:06.454807  7652 net.cpp:137] Memory required for data: 2854813952
I0117 06:30:06.454828  7652 layer_factory.hpp:77] Creating layer scale4a_branch2b
I0117 06:30:06.454836  7652 net.cpp:84] Creating Layer scale4a_branch2b
I0117 06:30:06.454856  7652 net.cpp:406] scale4a_branch2b <- res4a_branch2b
I0117 06:30:06.454862  7652 net.cpp:367] scale4a_branch2b -> res4a_branch2b (in-place)
I0117 06:30:06.454919  7652 layer_factory.hpp:77] Creating layer scale4a_branch2b
I0117 06:30:06.455070  7652 net.cpp:122] Setting up scale4a_branch2b
I0117 06:30:06.455078  7652 net.cpp:129] Top shape: 16 256 14 14 (802816)
I0117 06:30:06.455081  7652 net.cpp:137] Memory required for data: 2858025216
I0117 06:30:06.455090  7652 layer_factory.hpp:77] Creating layer res4a_branch2b_relu
I0117 06:30:06.455097  7652 net.cpp:84] Creating Layer res4a_branch2b_relu
I0117 06:30:06.455101  7652 net.cpp:406] res4a_branch2b_relu <- res4a_branch2b
I0117 06:30:06.455106  7652 net.cpp:367] res4a_branch2b_relu -> res4a_branch2b (in-place)
I0117 06:30:06.455345  7652 net.cpp:122] Setting up res4a_branch2b_relu
I0117 06:30:06.455358  7652 net.cpp:129] Top shape: 16 256 14 14 (802816)
I0117 06:30:06.455366  7652 net.cpp:137] Memory required for data: 2861236480
I0117 06:30:06.455370  7652 layer_factory.hpp:77] Creating layer res4a_branch2c
I0117 06:30:06.455379  7652 net.cpp:84] Creating Layer res4a_branch2c
I0117 06:30:06.455385  7652 net.cpp:406] res4a_branch2c <- res4a_branch2b
I0117 06:30:06.455394  7652 net.cpp:380] res4a_branch2c -> res4a_branch2c
I0117 06:30:06.457289  7652 net.cpp:122] Setting up res4a_branch2c
I0117 06:30:06.457307  7652 net.cpp:129] Top shape: 16 1024 14 14 (3211264)
I0117 06:30:06.457311  7652 net.cpp:137] Memory required for data: 2874081536
I0117 06:30:06.457329  7652 layer_factory.hpp:77] Creating layer bn4a_branch2c
I0117 06:30:06.457340  7652 net.cpp:84] Creating Layer bn4a_branch2c
I0117 06:30:06.457345  7652 net.cpp:406] bn4a_branch2c <- res4a_branch2c
I0117 06:30:06.457352  7652 net.cpp:367] bn4a_branch2c -> res4a_branch2c (in-place)
I0117 06:30:06.457624  7652 net.cpp:122] Setting up bn4a_branch2c
I0117 06:30:06.457634  7652 net.cpp:129] Top shape: 16 1024 14 14 (3211264)
I0117 06:30:06.457638  7652 net.cpp:137] Memory required for data: 2886926592
I0117 06:30:06.457648  7652 layer_factory.hpp:77] Creating layer scale4a_branch2c
I0117 06:30:06.457667  7652 net.cpp:84] Creating Layer scale4a_branch2c
I0117 06:30:06.457671  7652 net.cpp:406] scale4a_branch2c <- res4a_branch2c
I0117 06:30:06.457687  7652 net.cpp:367] scale4a_branch2c -> res4a_branch2c (in-place)
I0117 06:30:06.457736  7652 layer_factory.hpp:77] Creating layer scale4a_branch2c
I0117 06:30:06.457890  7652 net.cpp:122] Setting up scale4a_branch2c
I0117 06:30:06.457900  7652 net.cpp:129] Top shape: 16 1024 14 14 (3211264)
I0117 06:30:06.457903  7652 net.cpp:137] Memory required for data: 2899771648
I0117 06:30:06.457911  7652 layer_factory.hpp:77] Creating layer res4a
I0117 06:30:06.457917  7652 net.cpp:84] Creating Layer res4a
I0117 06:30:06.457921  7652 net.cpp:406] res4a <- res4a_branch1
I0117 06:30:06.457928  7652 net.cpp:406] res4a <- res4a_branch2c
I0117 06:30:06.457934  7652 net.cpp:380] res4a -> res4a
I0117 06:30:06.457965  7652 net.cpp:122] Setting up res4a
I0117 06:30:06.457974  7652 net.cpp:129] Top shape: 16 1024 14 14 (3211264)
I0117 06:30:06.457978  7652 net.cpp:137] Memory required for data: 2912616704
I0117 06:30:06.457980  7652 layer_factory.hpp:77] Creating layer res4a_relu
I0117 06:30:06.457986  7652 net.cpp:84] Creating Layer res4a_relu
I0117 06:30:06.457989  7652 net.cpp:406] res4a_relu <- res4a
I0117 06:30:06.457994  7652 net.cpp:367] res4a_relu -> res4a (in-place)
I0117 06:30:06.458880  7652 net.cpp:122] Setting up res4a_relu
I0117 06:30:06.458897  7652 net.cpp:129] Top shape: 16 1024 14 14 (3211264)
I0117 06:30:06.458901  7652 net.cpp:137] Memory required for data: 2925461760
I0117 06:30:06.458905  7652 layer_factory.hpp:77] Creating layer res4a_res4a_relu_0_split
I0117 06:30:06.458972  7652 net.cpp:84] Creating Layer res4a_res4a_relu_0_split
I0117 06:30:06.458979  7652 net.cpp:406] res4a_res4a_relu_0_split <- res4a
I0117 06:30:06.458986  7652 net.cpp:380] res4a_res4a_relu_0_split -> res4a_res4a_relu_0_split_0
I0117 06:30:06.458995  7652 net.cpp:380] res4a_res4a_relu_0_split -> res4a_res4a_relu_0_split_1
I0117 06:30:06.459074  7652 net.cpp:122] Setting up res4a_res4a_relu_0_split
I0117 06:30:06.459084  7652 net.cpp:129] Top shape: 16 1024 14 14 (3211264)
I0117 06:30:06.459089  7652 net.cpp:129] Top shape: 16 1024 14 14 (3211264)
I0117 06:30:06.459092  7652 net.cpp:137] Memory required for data: 2951151872
I0117 06:30:06.459097  7652 layer_factory.hpp:77] Creating layer res4b_branch2a
I0117 06:30:06.459107  7652 net.cpp:84] Creating Layer res4b_branch2a
I0117 06:30:06.459115  7652 net.cpp:406] res4b_branch2a <- res4a_res4a_relu_0_split_0
I0117 06:30:06.459120  7652 net.cpp:380] res4b_branch2a -> res4b_branch2a
I0117 06:30:06.463577  7652 net.cpp:122] Setting up res4b_branch2a
I0117 06:30:06.463598  7652 net.cpp:129] Top shape: 16 256 14 14 (802816)
I0117 06:30:06.463608  7652 net.cpp:137] Memory required for data: 2954363136
I0117 06:30:06.463614  7652 layer_factory.hpp:77] Creating layer bn4b_branch2a
I0117 06:30:06.463624  7652 net.cpp:84] Creating Layer bn4b_branch2a
I0117 06:30:06.463629  7652 net.cpp:406] bn4b_branch2a <- res4b_branch2a
I0117 06:30:06.463635  7652 net.cpp:367] bn4b_branch2a -> res4b_branch2a (in-place)
I0117 06:30:06.463943  7652 net.cpp:122] Setting up bn4b_branch2a
I0117 06:30:06.463951  7652 net.cpp:129] Top shape: 16 256 14 14 (802816)
I0117 06:30:06.463954  7652 net.cpp:137] Memory required for data: 2957574400
I0117 06:30:06.463971  7652 layer_factory.hpp:77] Creating layer scale4b_branch2a
I0117 06:30:06.463979  7652 net.cpp:84] Creating Layer scale4b_branch2a
I0117 06:30:06.463982  7652 net.cpp:406] scale4b_branch2a <- res4b_branch2a
I0117 06:30:06.463987  7652 net.cpp:367] scale4b_branch2a -> res4b_branch2a (in-place)
I0117 06:30:06.464054  7652 layer_factory.hpp:77] Creating layer scale4b_branch2a
I0117 06:30:06.464210  7652 net.cpp:122] Setting up scale4b_branch2a
I0117 06:30:06.464220  7652 net.cpp:129] Top shape: 16 256 14 14 (802816)
I0117 06:30:06.464222  7652 net.cpp:137] Memory required for data: 2960785664
I0117 06:30:06.464229  7652 layer_factory.hpp:77] Creating layer res4b_branch2a_relu
I0117 06:30:06.464239  7652 net.cpp:84] Creating Layer res4b_branch2a_relu
I0117 06:30:06.464246  7652 net.cpp:406] res4b_branch2a_relu <- res4b_branch2a
I0117 06:30:06.464251  7652 net.cpp:367] res4b_branch2a_relu -> res4b_branch2a (in-place)
I0117 06:30:06.464501  7652 net.cpp:122] Setting up res4b_branch2a_relu
I0117 06:30:06.464512  7652 net.cpp:129] Top shape: 16 256 14 14 (802816)
I0117 06:30:06.464516  7652 net.cpp:137] Memory required for data: 2963996928
I0117 06:30:06.464519  7652 layer_factory.hpp:77] Creating layer res4b_branch2b
I0117 06:30:06.464532  7652 net.cpp:84] Creating Layer res4b_branch2b
I0117 06:30:06.464538  7652 net.cpp:406] res4b_branch2b <- res4b_branch2a
I0117 06:30:06.464545  7652 net.cpp:380] res4b_branch2b -> res4b_branch2b
I0117 06:30:06.469307  7652 net.cpp:122] Setting up res4b_branch2b
I0117 06:30:06.469327  7652 net.cpp:129] Top shape: 16 256 14 14 (802816)
I0117 06:30:06.469331  7652 net.cpp:137] Memory required for data: 2967208192
I0117 06:30:06.469352  7652 layer_factory.hpp:77] Creating layer bn4b_branch2b
I0117 06:30:06.469367  7652 net.cpp:84] Creating Layer bn4b_branch2b
I0117 06:30:06.469373  7652 net.cpp:406] bn4b_branch2b <- res4b_branch2b
I0117 06:30:06.469379  7652 net.cpp:367] bn4b_branch2b -> res4b_branch2b (in-place)
I0117 06:30:06.469661  7652 net.cpp:122] Setting up bn4b_branch2b
I0117 06:30:06.469671  7652 net.cpp:129] Top shape: 16 256 14 14 (802816)
I0117 06:30:06.469676  7652 net.cpp:137] Memory required for data: 2970419456
I0117 06:30:06.469686  7652 layer_factory.hpp:77] Creating layer scale4b_branch2b
I0117 06:30:06.469694  7652 net.cpp:84] Creating Layer scale4b_branch2b
I0117 06:30:06.469698  7652 net.cpp:406] scale4b_branch2b <- res4b_branch2b
I0117 06:30:06.469704  7652 net.cpp:367] scale4b_branch2b -> res4b_branch2b (in-place)
I0117 06:30:06.469756  7652 layer_factory.hpp:77] Creating layer scale4b_branch2b
I0117 06:30:06.469897  7652 net.cpp:122] Setting up scale4b_branch2b
I0117 06:30:06.469934  7652 net.cpp:129] Top shape: 16 256 14 14 (802816)
I0117 06:30:06.469938  7652 net.cpp:137] Memory required for data: 2973630720
I0117 06:30:06.469945  7652 layer_factory.hpp:77] Creating layer res4b_branch2b_relu
I0117 06:30:06.469951  7652 net.cpp:84] Creating Layer res4b_branch2b_relu
I0117 06:30:06.469960  7652 net.cpp:406] res4b_branch2b_relu <- res4b_branch2b
I0117 06:30:06.469965  7652 net.cpp:367] res4b_branch2b_relu -> res4b_branch2b (in-place)
I0117 06:30:06.470201  7652 net.cpp:122] Setting up res4b_branch2b_relu
I0117 06:30:06.470211  7652 net.cpp:129] Top shape: 16 256 14 14 (802816)
I0117 06:30:06.470216  7652 net.cpp:137] Memory required for data: 2976841984
I0117 06:30:06.470218  7652 layer_factory.hpp:77] Creating layer res4b_branch2c
I0117 06:30:06.470233  7652 net.cpp:84] Creating Layer res4b_branch2c
I0117 06:30:06.470239  7652 net.cpp:406] res4b_branch2c <- res4b_branch2b
I0117 06:30:06.470245  7652 net.cpp:380] res4b_branch2c -> res4b_branch2c
I0117 06:30:06.472100  7652 net.cpp:122] Setting up res4b_branch2c
I0117 06:30:06.472118  7652 net.cpp:129] Top shape: 16 1024 14 14 (3211264)
I0117 06:30:06.472122  7652 net.cpp:137] Memory required for data: 2989687040
I0117 06:30:06.472131  7652 layer_factory.hpp:77] Creating layer bn4b_branch2c
I0117 06:30:06.472141  7652 net.cpp:84] Creating Layer bn4b_branch2c
I0117 06:30:06.472146  7652 net.cpp:406] bn4b_branch2c <- res4b_branch2c
I0117 06:30:06.472153  7652 net.cpp:367] bn4b_branch2c -> res4b_branch2c (in-place)
I0117 06:30:06.472412  7652 net.cpp:122] Setting up bn4b_branch2c
I0117 06:30:06.472421  7652 net.cpp:129] Top shape: 16 1024 14 14 (3211264)
I0117 06:30:06.472425  7652 net.cpp:137] Memory required for data: 3002532096
I0117 06:30:06.472434  7652 layer_factory.hpp:77] Creating layer scale4b_branch2c
I0117 06:30:06.472442  7652 net.cpp:84] Creating Layer scale4b_branch2c
I0117 06:30:06.472448  7652 net.cpp:406] scale4b_branch2c <- res4b_branch2c
I0117 06:30:06.472455  7652 net.cpp:367] scale4b_branch2c -> res4b_branch2c (in-place)
I0117 06:30:06.472502  7652 layer_factory.hpp:77] Creating layer scale4b_branch2c
I0117 06:30:06.472651  7652 net.cpp:122] Setting up scale4b_branch2c
I0117 06:30:06.472661  7652 net.cpp:129] Top shape: 16 1024 14 14 (3211264)
I0117 06:30:06.472663  7652 net.cpp:137] Memory required for data: 3015377152
I0117 06:30:06.472671  7652 layer_factory.hpp:77] Creating layer res4b
I0117 06:30:06.472679  7652 net.cpp:84] Creating Layer res4b
I0117 06:30:06.472687  7652 net.cpp:406] res4b <- res4a_res4a_relu_0_split_1
I0117 06:30:06.472692  7652 net.cpp:406] res4b <- res4b_branch2c
I0117 06:30:06.472697  7652 net.cpp:380] res4b -> res4b
I0117 06:30:06.472728  7652 net.cpp:122] Setting up res4b
I0117 06:30:06.472735  7652 net.cpp:129] Top shape: 16 1024 14 14 (3211264)
I0117 06:30:06.472739  7652 net.cpp:137] Memory required for data: 3028222208
I0117 06:30:06.472743  7652 layer_factory.hpp:77] Creating layer res4b_relu
I0117 06:30:06.472749  7652 net.cpp:84] Creating Layer res4b_relu
I0117 06:30:06.472753  7652 net.cpp:406] res4b_relu <- res4b
I0117 06:30:06.472759  7652 net.cpp:367] res4b_relu -> res4b (in-place)
I0117 06:30:06.472985  7652 net.cpp:122] Setting up res4b_relu
I0117 06:30:06.472995  7652 net.cpp:129] Top shape: 16 1024 14 14 (3211264)
I0117 06:30:06.472997  7652 net.cpp:137] Memory required for data: 3041067264
I0117 06:30:06.473001  7652 layer_factory.hpp:77] Creating layer res4b_res4b_relu_0_split
I0117 06:30:06.473008  7652 net.cpp:84] Creating Layer res4b_res4b_relu_0_split
I0117 06:30:06.473012  7652 net.cpp:406] res4b_res4b_relu_0_split <- res4b
I0117 06:30:06.473021  7652 net.cpp:380] res4b_res4b_relu_0_split -> res4b_res4b_relu_0_split_0
I0117 06:30:06.473038  7652 net.cpp:380] res4b_res4b_relu_0_split -> res4b_res4b_relu_0_split_1
I0117 06:30:06.473095  7652 net.cpp:122] Setting up res4b_res4b_relu_0_split
I0117 06:30:06.473104  7652 net.cpp:129] Top shape: 16 1024 14 14 (3211264)
I0117 06:30:06.473109  7652 net.cpp:129] Top shape: 16 1024 14 14 (3211264)
I0117 06:30:06.473134  7652 net.cpp:137] Memory required for data: 3066757376
I0117 06:30:06.473139  7652 layer_factory.hpp:77] Creating layer res4c_branch2a
I0117 06:30:06.473150  7652 net.cpp:84] Creating Layer res4c_branch2a
I0117 06:30:06.473153  7652 net.cpp:406] res4c_branch2a <- res4b_res4b_relu_0_split_0
I0117 06:30:06.473161  7652 net.cpp:380] res4c_branch2a -> res4c_branch2a
I0117 06:30:06.476732  7652 net.cpp:122] Setting up res4c_branch2a
I0117 06:30:06.476752  7652 net.cpp:129] Top shape: 16 256 14 14 (802816)
I0117 06:30:06.476757  7652 net.cpp:137] Memory required for data: 3069968640
I0117 06:30:06.476771  7652 layer_factory.hpp:77] Creating layer bn4c_branch2a
I0117 06:30:06.476781  7652 net.cpp:84] Creating Layer bn4c_branch2a
I0117 06:30:06.476790  7652 net.cpp:406] bn4c_branch2a <- res4c_branch2a
I0117 06:30:06.476797  7652 net.cpp:367] bn4c_branch2a -> res4c_branch2a (in-place)
I0117 06:30:06.477052  7652 net.cpp:122] Setting up bn4c_branch2a
I0117 06:30:06.477061  7652 net.cpp:129] Top shape: 16 256 14 14 (802816)
I0117 06:30:06.477066  7652 net.cpp:137] Memory required for data: 3073179904
I0117 06:30:06.477077  7652 layer_factory.hpp:77] Creating layer scale4c_branch2a
I0117 06:30:06.477087  7652 net.cpp:84] Creating Layer scale4c_branch2a
I0117 06:30:06.477090  7652 net.cpp:406] scale4c_branch2a <- res4c_branch2a
I0117 06:30:06.477097  7652 net.cpp:367] scale4c_branch2a -> res4c_branch2a (in-place)
I0117 06:30:06.477149  7652 layer_factory.hpp:77] Creating layer scale4c_branch2a
I0117 06:30:06.477296  7652 net.cpp:122] Setting up scale4c_branch2a
I0117 06:30:06.477305  7652 net.cpp:129] Top shape: 16 256 14 14 (802816)
I0117 06:30:06.477309  7652 net.cpp:137] Memory required for data: 3076391168
I0117 06:30:06.477316  7652 layer_factory.hpp:77] Creating layer res4c_branch2a_relu
I0117 06:30:06.477330  7652 net.cpp:84] Creating Layer res4c_branch2a_relu
I0117 06:30:06.477334  7652 net.cpp:406] res4c_branch2a_relu <- res4c_branch2a
I0117 06:30:06.477339  7652 net.cpp:367] res4c_branch2a_relu -> res4c_branch2a (in-place)
I0117 06:30:06.477556  7652 net.cpp:122] Setting up res4c_branch2a_relu
I0117 06:30:06.477571  7652 net.cpp:129] Top shape: 16 256 14 14 (802816)
I0117 06:30:06.477573  7652 net.cpp:137] Memory required for data: 3079602432
I0117 06:30:06.477579  7652 layer_factory.hpp:77] Creating layer res4c_branch2b
I0117 06:30:06.477586  7652 net.cpp:84] Creating Layer res4c_branch2b
I0117 06:30:06.477591  7652 net.cpp:406] res4c_branch2b <- res4c_branch2a
I0117 06:30:06.477600  7652 net.cpp:380] res4c_branch2b -> res4c_branch2b
I0117 06:30:06.482218  7652 net.cpp:122] Setting up res4c_branch2b
I0117 06:30:06.482236  7652 net.cpp:129] Top shape: 16 256 14 14 (802816)
I0117 06:30:06.482240  7652 net.cpp:137] Memory required for data: 3082813696
I0117 06:30:06.482259  7652 layer_factory.hpp:77] Creating layer bn4c_branch2b
I0117 06:30:06.482275  7652 net.cpp:84] Creating Layer bn4c_branch2b
I0117 06:30:06.482280  7652 net.cpp:406] bn4c_branch2b <- res4c_branch2b
I0117 06:30:06.482285  7652 net.cpp:367] bn4c_branch2b -> res4c_branch2b (in-place)
I0117 06:30:06.482576  7652 net.cpp:122] Setting up bn4c_branch2b
I0117 06:30:06.482586  7652 net.cpp:129] Top shape: 16 256 14 14 (802816)
I0117 06:30:06.482589  7652 net.cpp:137] Memory required for data: 3086024960
I0117 06:30:06.482601  7652 layer_factory.hpp:77] Creating layer scale4c_branch2b
I0117 06:30:06.482607  7652 net.cpp:84] Creating Layer scale4c_branch2b
I0117 06:30:06.482611  7652 net.cpp:406] scale4c_branch2b <- res4c_branch2b
I0117 06:30:06.482616  7652 net.cpp:367] scale4c_branch2b -> res4c_branch2b (in-place)
I0117 06:30:06.482679  7652 layer_factory.hpp:77] Creating layer scale4c_branch2b
I0117 06:30:06.482822  7652 net.cpp:122] Setting up scale4c_branch2b
I0117 06:30:06.482831  7652 net.cpp:129] Top shape: 16 256 14 14 (802816)
I0117 06:30:06.482834  7652 net.cpp:137] Memory required for data: 3089236224
I0117 06:30:06.482841  7652 layer_factory.hpp:77] Creating layer res4c_branch2b_relu
I0117 06:30:06.482851  7652 net.cpp:84] Creating Layer res4c_branch2b_relu
I0117 06:30:06.482873  7652 net.cpp:406] res4c_branch2b_relu <- res4c_branch2b
I0117 06:30:06.482879  7652 net.cpp:367] res4c_branch2b_relu -> res4c_branch2b (in-place)
I0117 06:30:06.483116  7652 net.cpp:122] Setting up res4c_branch2b_relu
I0117 06:30:06.483129  7652 net.cpp:129] Top shape: 16 256 14 14 (802816)
I0117 06:30:06.483132  7652 net.cpp:137] Memory required for data: 3092447488
I0117 06:30:06.483136  7652 layer_factory.hpp:77] Creating layer res4c_branch2c
I0117 06:30:06.483150  7652 net.cpp:84] Creating Layer res4c_branch2c
I0117 06:30:06.483155  7652 net.cpp:406] res4c_branch2c <- res4c_branch2b
I0117 06:30:06.483163  7652 net.cpp:380] res4c_branch2c -> res4c_branch2c
I0117 06:30:06.485024  7652 net.cpp:122] Setting up res4c_branch2c
I0117 06:30:06.485043  7652 net.cpp:129] Top shape: 16 1024 14 14 (3211264)
I0117 06:30:06.485046  7652 net.cpp:137] Memory required for data: 3105292544
I0117 06:30:06.485064  7652 layer_factory.hpp:77] Creating layer bn4c_branch2c
I0117 06:30:06.485082  7652 net.cpp:84] Creating Layer bn4c_branch2c
I0117 06:30:06.485088  7652 net.cpp:406] bn4c_branch2c <- res4c_branch2c
I0117 06:30:06.485106  7652 net.cpp:367] bn4c_branch2c -> res4c_branch2c (in-place)
I0117 06:30:06.485388  7652 net.cpp:122] Setting up bn4c_branch2c
I0117 06:30:06.485396  7652 net.cpp:129] Top shape: 16 1024 14 14 (3211264)
I0117 06:30:06.485399  7652 net.cpp:137] Memory required for data: 3118137600
I0117 06:30:06.485414  7652 layer_factory.hpp:77] Creating layer scale4c_branch2c
I0117 06:30:06.485422  7652 net.cpp:84] Creating Layer scale4c_branch2c
I0117 06:30:06.485435  7652 net.cpp:406] scale4c_branch2c <- res4c_branch2c
I0117 06:30:06.485442  7652 net.cpp:367] scale4c_branch2c -> res4c_branch2c (in-place)
I0117 06:30:06.485496  7652 layer_factory.hpp:77] Creating layer scale4c_branch2c
I0117 06:30:06.485646  7652 net.cpp:122] Setting up scale4c_branch2c
I0117 06:30:06.485656  7652 net.cpp:129] Top shape: 16 1024 14 14 (3211264)
I0117 06:30:06.485658  7652 net.cpp:137] Memory required for data: 3130982656
I0117 06:30:06.485666  7652 layer_factory.hpp:77] Creating layer res4c
I0117 06:30:06.485673  7652 net.cpp:84] Creating Layer res4c
I0117 06:30:06.485677  7652 net.cpp:406] res4c <- res4b_res4b_relu_0_split_1
I0117 06:30:06.485685  7652 net.cpp:406] res4c <- res4c_branch2c
I0117 06:30:06.485692  7652 net.cpp:380] res4c -> res4c
I0117 06:30:06.485724  7652 net.cpp:122] Setting up res4c
I0117 06:30:06.485733  7652 net.cpp:129] Top shape: 16 1024 14 14 (3211264)
I0117 06:30:06.485738  7652 net.cpp:137] Memory required for data: 3143827712
I0117 06:30:06.485743  7652 layer_factory.hpp:77] Creating layer res4c_relu
I0117 06:30:06.485747  7652 net.cpp:84] Creating Layer res4c_relu
I0117 06:30:06.485751  7652 net.cpp:406] res4c_relu <- res4c
I0117 06:30:06.485756  7652 net.cpp:367] res4c_relu -> res4c (in-place)
I0117 06:30:06.486635  7652 net.cpp:122] Setting up res4c_relu
I0117 06:30:06.486652  7652 net.cpp:129] Top shape: 16 1024 14 14 (3211264)
I0117 06:30:06.486655  7652 net.cpp:137] Memory required for data: 3156672768
I0117 06:30:06.486662  7652 layer_factory.hpp:77] Creating layer res4c_res4c_relu_0_split
I0117 06:30:06.486671  7652 net.cpp:84] Creating Layer res4c_res4c_relu_0_split
I0117 06:30:06.486677  7652 net.cpp:406] res4c_res4c_relu_0_split <- res4c
I0117 06:30:06.486683  7652 net.cpp:380] res4c_res4c_relu_0_split -> res4c_res4c_relu_0_split_0
I0117 06:30:06.486692  7652 net.cpp:380] res4c_res4c_relu_0_split -> res4c_res4c_relu_0_split_1
I0117 06:30:06.486752  7652 net.cpp:122] Setting up res4c_res4c_relu_0_split
I0117 06:30:06.486759  7652 net.cpp:129] Top shape: 16 1024 14 14 (3211264)
I0117 06:30:06.486763  7652 net.cpp:129] Top shape: 16 1024 14 14 (3211264)
I0117 06:30:06.486768  7652 net.cpp:137] Memory required for data: 3182362880
I0117 06:30:06.486770  7652 layer_factory.hpp:77] Creating layer res4d_branch2a
I0117 06:30:06.486779  7652 net.cpp:84] Creating Layer res4d_branch2a
I0117 06:30:06.486785  7652 net.cpp:406] res4d_branch2a <- res4c_res4c_relu_0_split_0
I0117 06:30:06.486809  7652 net.cpp:380] res4d_branch2a -> res4d_branch2a
I0117 06:30:06.490371  7652 net.cpp:122] Setting up res4d_branch2a
I0117 06:30:06.490389  7652 net.cpp:129] Top shape: 16 256 14 14 (802816)
I0117 06:30:06.490393  7652 net.cpp:137] Memory required for data: 3185574144
I0117 06:30:06.490401  7652 layer_factory.hpp:77] Creating layer bn4d_branch2a
I0117 06:30:06.490412  7652 net.cpp:84] Creating Layer bn4d_branch2a
I0117 06:30:06.490417  7652 net.cpp:406] bn4d_branch2a <- res4d_branch2a
I0117 06:30:06.490425  7652 net.cpp:367] bn4d_branch2a -> res4d_branch2a (in-place)
I0117 06:30:06.490687  7652 net.cpp:122] Setting up bn4d_branch2a
I0117 06:30:06.490696  7652 net.cpp:129] Top shape: 16 256 14 14 (802816)
I0117 06:30:06.490700  7652 net.cpp:137] Memory required for data: 3188785408
I0117 06:30:06.490708  7652 layer_factory.hpp:77] Creating layer scale4d_branch2a
I0117 06:30:06.490716  7652 net.cpp:84] Creating Layer scale4d_branch2a
I0117 06:30:06.490720  7652 net.cpp:406] scale4d_branch2a <- res4d_branch2a
I0117 06:30:06.490725  7652 net.cpp:367] scale4d_branch2a -> res4d_branch2a (in-place)
I0117 06:30:06.490778  7652 layer_factory.hpp:77] Creating layer scale4d_branch2a
I0117 06:30:06.490938  7652 net.cpp:122] Setting up scale4d_branch2a
I0117 06:30:06.490947  7652 net.cpp:129] Top shape: 16 256 14 14 (802816)
I0117 06:30:06.490949  7652 net.cpp:137] Memory required for data: 3191996672
I0117 06:30:06.490957  7652 layer_factory.hpp:77] Creating layer res4d_branch2a_relu
I0117 06:30:06.490964  7652 net.cpp:84] Creating Layer res4d_branch2a_relu
I0117 06:30:06.490967  7652 net.cpp:406] res4d_branch2a_relu <- res4d_branch2a
I0117 06:30:06.490974  7652 net.cpp:367] res4d_branch2a_relu -> res4d_branch2a (in-place)
I0117 06:30:06.491194  7652 net.cpp:122] Setting up res4d_branch2a_relu
I0117 06:30:06.491205  7652 net.cpp:129] Top shape: 16 256 14 14 (802816)
I0117 06:30:06.491209  7652 net.cpp:137] Memory required for data: 3195207936
I0117 06:30:06.491212  7652 layer_factory.hpp:77] Creating layer res4d_branch2b
I0117 06:30:06.491225  7652 net.cpp:84] Creating Layer res4d_branch2b
I0117 06:30:06.491230  7652 net.cpp:406] res4d_branch2b <- res4d_branch2a
I0117 06:30:06.491236  7652 net.cpp:380] res4d_branch2b -> res4d_branch2b
I0117 06:30:06.495965  7652 net.cpp:122] Setting up res4d_branch2b
I0117 06:30:06.495985  7652 net.cpp:129] Top shape: 16 256 14 14 (802816)
I0117 06:30:06.495990  7652 net.cpp:137] Memory required for data: 3198419200
I0117 06:30:06.496002  7652 layer_factory.hpp:77] Creating layer bn4d_branch2b
I0117 06:30:06.496011  7652 net.cpp:84] Creating Layer bn4d_branch2b
I0117 06:30:06.496026  7652 net.cpp:406] bn4d_branch2b <- res4d_branch2b
I0117 06:30:06.496034  7652 net.cpp:367] bn4d_branch2b -> res4d_branch2b (in-place)
I0117 06:30:06.496323  7652 net.cpp:122] Setting up bn4d_branch2b
I0117 06:30:06.496332  7652 net.cpp:129] Top shape: 16 256 14 14 (802816)
I0117 06:30:06.496335  7652 net.cpp:137] Memory required for data: 3201630464
I0117 06:30:06.496356  7652 layer_factory.hpp:77] Creating layer scale4d_branch2b
I0117 06:30:06.496376  7652 net.cpp:84] Creating Layer scale4d_branch2b
I0117 06:30:06.496379  7652 net.cpp:406] scale4d_branch2b <- res4d_branch2b
I0117 06:30:06.496385  7652 net.cpp:367] scale4d_branch2b -> res4d_branch2b (in-place)
I0117 06:30:06.496454  7652 layer_factory.hpp:77] Creating layer scale4d_branch2b
I0117 06:30:06.496598  7652 net.cpp:122] Setting up scale4d_branch2b
I0117 06:30:06.496608  7652 net.cpp:129] Top shape: 16 256 14 14 (802816)
I0117 06:30:06.496610  7652 net.cpp:137] Memory required for data: 3204841728
I0117 06:30:06.496618  7652 layer_factory.hpp:77] Creating layer res4d_branch2b_relu
I0117 06:30:06.496625  7652 net.cpp:84] Creating Layer res4d_branch2b_relu
I0117 06:30:06.496629  7652 net.cpp:406] res4d_branch2b_relu <- res4d_branch2b
I0117 06:30:06.496636  7652 net.cpp:367] res4d_branch2b_relu -> res4d_branch2b (in-place)
I0117 06:30:06.496876  7652 net.cpp:122] Setting up res4d_branch2b_relu
I0117 06:30:06.496888  7652 net.cpp:129] Top shape: 16 256 14 14 (802816)
I0117 06:30:06.496911  7652 net.cpp:137] Memory required for data: 3208052992
I0117 06:30:06.496917  7652 layer_factory.hpp:77] Creating layer res4d_branch2c
I0117 06:30:06.496929  7652 net.cpp:84] Creating Layer res4d_branch2c
I0117 06:30:06.496935  7652 net.cpp:406] res4d_branch2c <- res4d_branch2b
I0117 06:30:06.496942  7652 net.cpp:380] res4d_branch2c -> res4d_branch2c
I0117 06:30:06.498952  7652 net.cpp:122] Setting up res4d_branch2c
I0117 06:30:06.498970  7652 net.cpp:129] Top shape: 16 1024 14 14 (3211264)
I0117 06:30:06.498975  7652 net.cpp:137] Memory required for data: 3220898048
I0117 06:30:06.498991  7652 layer_factory.hpp:77] Creating layer bn4d_branch2c
I0117 06:30:06.498999  7652 net.cpp:84] Creating Layer bn4d_branch2c
I0117 06:30:06.499004  7652 net.cpp:406] bn4d_branch2c <- res4d_branch2c
I0117 06:30:06.499012  7652 net.cpp:367] bn4d_branch2c -> res4d_branch2c (in-place)
I0117 06:30:06.499306  7652 net.cpp:122] Setting up bn4d_branch2c
I0117 06:30:06.499315  7652 net.cpp:129] Top shape: 16 1024 14 14 (3211264)
I0117 06:30:06.499320  7652 net.cpp:137] Memory required for data: 3233743104
I0117 06:30:06.499330  7652 layer_factory.hpp:77] Creating layer scale4d_branch2c
I0117 06:30:06.499338  7652 net.cpp:84] Creating Layer scale4d_branch2c
I0117 06:30:06.499344  7652 net.cpp:406] scale4d_branch2c <- res4d_branch2c
I0117 06:30:06.499349  7652 net.cpp:367] scale4d_branch2c -> res4d_branch2c (in-place)
I0117 06:30:06.499398  7652 layer_factory.hpp:77] Creating layer scale4d_branch2c
I0117 06:30:06.499552  7652 net.cpp:122] Setting up scale4d_branch2c
I0117 06:30:06.499562  7652 net.cpp:129] Top shape: 16 1024 14 14 (3211264)
I0117 06:30:06.499564  7652 net.cpp:137] Memory required for data: 3246588160
I0117 06:30:06.499572  7652 layer_factory.hpp:77] Creating layer res4d
I0117 06:30:06.499583  7652 net.cpp:84] Creating Layer res4d
I0117 06:30:06.499590  7652 net.cpp:406] res4d <- res4c_res4c_relu_0_split_1
I0117 06:30:06.499595  7652 net.cpp:406] res4d <- res4d_branch2c
I0117 06:30:06.499603  7652 net.cpp:380] res4d -> res4d
I0117 06:30:06.499636  7652 net.cpp:122] Setting up res4d
I0117 06:30:06.499644  7652 net.cpp:129] Top shape: 16 1024 14 14 (3211264)
I0117 06:30:06.499649  7652 net.cpp:137] Memory required for data: 3259433216
I0117 06:30:06.499652  7652 layer_factory.hpp:77] Creating layer res4d_relu
I0117 06:30:06.499660  7652 net.cpp:84] Creating Layer res4d_relu
I0117 06:30:06.499665  7652 net.cpp:406] res4d_relu <- res4d
I0117 06:30:06.499673  7652 net.cpp:367] res4d_relu -> res4d (in-place)
I0117 06:30:06.499903  7652 net.cpp:122] Setting up res4d_relu
I0117 06:30:06.499914  7652 net.cpp:129] Top shape: 16 1024 14 14 (3211264)
I0117 06:30:06.499919  7652 net.cpp:137] Memory required for data: 3272278272
I0117 06:30:06.499923  7652 layer_factory.hpp:77] Creating layer res4d_res4d_relu_0_split
I0117 06:30:06.499929  7652 net.cpp:84] Creating Layer res4d_res4d_relu_0_split
I0117 06:30:06.499935  7652 net.cpp:406] res4d_res4d_relu_0_split <- res4d
I0117 06:30:06.499940  7652 net.cpp:380] res4d_res4d_relu_0_split -> res4d_res4d_relu_0_split_0
I0117 06:30:06.499950  7652 net.cpp:380] res4d_res4d_relu_0_split -> res4d_res4d_relu_0_split_1
I0117 06:30:06.500003  7652 net.cpp:122] Setting up res4d_res4d_relu_0_split
I0117 06:30:06.500010  7652 net.cpp:129] Top shape: 16 1024 14 14 (3211264)
I0117 06:30:06.500015  7652 net.cpp:129] Top shape: 16 1024 14 14 (3211264)
I0117 06:30:06.500018  7652 net.cpp:137] Memory required for data: 3297968384
I0117 06:30:06.500021  7652 layer_factory.hpp:77] Creating layer res4e_branch2a
I0117 06:30:06.500032  7652 net.cpp:84] Creating Layer res4e_branch2a
I0117 06:30:06.500039  7652 net.cpp:406] res4e_branch2a <- res4d_res4d_relu_0_split_0
I0117 06:30:06.500047  7652 net.cpp:380] res4e_branch2a -> res4e_branch2a
I0117 06:30:06.503724  7652 net.cpp:122] Setting up res4e_branch2a
I0117 06:30:06.503743  7652 net.cpp:129] Top shape: 16 256 14 14 (802816)
I0117 06:30:06.503747  7652 net.cpp:137] Memory required for data: 3301179648
I0117 06:30:06.503753  7652 layer_factory.hpp:77] Creating layer bn4e_branch2a
I0117 06:30:06.503779  7652 net.cpp:84] Creating Layer bn4e_branch2a
I0117 06:30:06.503785  7652 net.cpp:406] bn4e_branch2a <- res4e_branch2a
I0117 06:30:06.503792  7652 net.cpp:367] bn4e_branch2a -> res4e_branch2a (in-place)
I0117 06:30:06.504057  7652 net.cpp:122] Setting up bn4e_branch2a
I0117 06:30:06.504067  7652 net.cpp:129] Top shape: 16 256 14 14 (802816)
I0117 06:30:06.504071  7652 net.cpp:137] Memory required for data: 3304390912
I0117 06:30:06.504081  7652 layer_factory.hpp:77] Creating layer scale4e_branch2a
I0117 06:30:06.504092  7652 net.cpp:84] Creating Layer scale4e_branch2a
I0117 06:30:06.504096  7652 net.cpp:406] scale4e_branch2a <- res4e_branch2a
I0117 06:30:06.504103  7652 net.cpp:367] scale4e_branch2a -> res4e_branch2a (in-place)
I0117 06:30:06.504158  7652 layer_factory.hpp:77] Creating layer scale4e_branch2a
I0117 06:30:06.504308  7652 net.cpp:122] Setting up scale4e_branch2a
I0117 06:30:06.504317  7652 net.cpp:129] Top shape: 16 256 14 14 (802816)
I0117 06:30:06.504320  7652 net.cpp:137] Memory required for data: 3307602176
I0117 06:30:06.504328  7652 layer_factory.hpp:77] Creating layer res4e_branch2a_relu
I0117 06:30:06.504338  7652 net.cpp:84] Creating Layer res4e_branch2a_relu
I0117 06:30:06.504343  7652 net.cpp:406] res4e_branch2a_relu <- res4e_branch2a
I0117 06:30:06.504348  7652 net.cpp:367] res4e_branch2a_relu -> res4e_branch2a (in-place)
I0117 06:30:06.504571  7652 net.cpp:122] Setting up res4e_branch2a_relu
I0117 06:30:06.504585  7652 net.cpp:129] Top shape: 16 256 14 14 (802816)
I0117 06:30:06.504588  7652 net.cpp:137] Memory required for data: 3310813440
I0117 06:30:06.504592  7652 layer_factory.hpp:77] Creating layer res4e_branch2b
I0117 06:30:06.504601  7652 net.cpp:84] Creating Layer res4e_branch2b
I0117 06:30:06.504604  7652 net.cpp:406] res4e_branch2b <- res4e_branch2a
I0117 06:30:06.504612  7652 net.cpp:380] res4e_branch2b -> res4e_branch2b
I0117 06:30:06.509282  7652 net.cpp:122] Setting up res4e_branch2b
I0117 06:30:06.509311  7652 net.cpp:129] Top shape: 16 256 14 14 (802816)
I0117 06:30:06.509316  7652 net.cpp:137] Memory required for data: 3314024704
I0117 06:30:06.509322  7652 layer_factory.hpp:77] Creating layer bn4e_branch2b
I0117 06:30:06.509335  7652 net.cpp:84] Creating Layer bn4e_branch2b
I0117 06:30:06.509346  7652 net.cpp:406] bn4e_branch2b <- res4e_branch2b
I0117 06:30:06.509352  7652 net.cpp:367] bn4e_branch2b -> res4e_branch2b (in-place)
I0117 06:30:06.509654  7652 net.cpp:122] Setting up bn4e_branch2b
I0117 06:30:06.509663  7652 net.cpp:129] Top shape: 16 256 14 14 (802816)
I0117 06:30:06.509666  7652 net.cpp:137] Memory required for data: 3317235968
I0117 06:30:06.509677  7652 layer_factory.hpp:77] Creating layer scale4e_branch2b
I0117 06:30:06.509685  7652 net.cpp:84] Creating Layer scale4e_branch2b
I0117 06:30:06.509688  7652 net.cpp:406] scale4e_branch2b <- res4e_branch2b
I0117 06:30:06.509693  7652 net.cpp:367] scale4e_branch2b -> res4e_branch2b (in-place)
I0117 06:30:06.509747  7652 layer_factory.hpp:77] Creating layer scale4e_branch2b
I0117 06:30:06.509915  7652 net.cpp:122] Setting up scale4e_branch2b
I0117 06:30:06.509924  7652 net.cpp:129] Top shape: 16 256 14 14 (802816)
I0117 06:30:06.509927  7652 net.cpp:137] Memory required for data: 3320447232
I0117 06:30:06.509935  7652 layer_factory.hpp:77] Creating layer res4e_branch2b_relu
I0117 06:30:06.509943  7652 net.cpp:84] Creating Layer res4e_branch2b_relu
I0117 06:30:06.509948  7652 net.cpp:406] res4e_branch2b_relu <- res4e_branch2b
I0117 06:30:06.509951  7652 net.cpp:367] res4e_branch2b_relu -> res4e_branch2b (in-place)
I0117 06:30:06.510188  7652 net.cpp:122] Setting up res4e_branch2b_relu
I0117 06:30:06.510200  7652 net.cpp:129] Top shape: 16 256 14 14 (802816)
I0117 06:30:06.510205  7652 net.cpp:137] Memory required for data: 3323658496
I0117 06:30:06.510208  7652 layer_factory.hpp:77] Creating layer res4e_branch2c
I0117 06:30:06.510217  7652 net.cpp:84] Creating Layer res4e_branch2c
I0117 06:30:06.510223  7652 net.cpp:406] res4e_branch2c <- res4e_branch2b
I0117 06:30:06.510249  7652 net.cpp:380] res4e_branch2c -> res4e_branch2c
I0117 06:30:06.512085  7652 net.cpp:122] Setting up res4e_branch2c
I0117 06:30:06.512104  7652 net.cpp:129] Top shape: 16 1024 14 14 (3211264)
I0117 06:30:06.512107  7652 net.cpp:137] Memory required for data: 3336503552
I0117 06:30:06.512114  7652 layer_factory.hpp:77] Creating layer bn4e_branch2c
I0117 06:30:06.512125  7652 net.cpp:84] Creating Layer bn4e_branch2c
I0117 06:30:06.512130  7652 net.cpp:406] bn4e_branch2c <- res4e_branch2c
I0117 06:30:06.512136  7652 net.cpp:367] bn4e_branch2c -> res4e_branch2c (in-place)
I0117 06:30:06.512411  7652 net.cpp:122] Setting up bn4e_branch2c
I0117 06:30:06.512419  7652 net.cpp:129] Top shape: 16 1024 14 14 (3211264)
I0117 06:30:06.512423  7652 net.cpp:137] Memory required for data: 3349348608
I0117 06:30:06.512437  7652 layer_factory.hpp:77] Creating layer scale4e_branch2c
I0117 06:30:06.512446  7652 net.cpp:84] Creating Layer scale4e_branch2c
I0117 06:30:06.512460  7652 net.cpp:406] scale4e_branch2c <- res4e_branch2c
I0117 06:30:06.512465  7652 net.cpp:367] scale4e_branch2c -> res4e_branch2c (in-place)
I0117 06:30:06.512531  7652 layer_factory.hpp:77] Creating layer scale4e_branch2c
I0117 06:30:06.512688  7652 net.cpp:122] Setting up scale4e_branch2c
I0117 06:30:06.512697  7652 net.cpp:129] Top shape: 16 1024 14 14 (3211264)
I0117 06:30:06.512701  7652 net.cpp:137] Memory required for data: 3362193664
I0117 06:30:06.512707  7652 layer_factory.hpp:77] Creating layer res4e
I0117 06:30:06.512713  7652 net.cpp:84] Creating Layer res4e
I0117 06:30:06.512718  7652 net.cpp:406] res4e <- res4d_res4d_relu_0_split_1
I0117 06:30:06.512722  7652 net.cpp:406] res4e <- res4e_branch2c
I0117 06:30:06.512730  7652 net.cpp:380] res4e -> res4e
I0117 06:30:06.512761  7652 net.cpp:122] Setting up res4e
I0117 06:30:06.512770  7652 net.cpp:129] Top shape: 16 1024 14 14 (3211264)
I0117 06:30:06.512774  7652 net.cpp:137] Memory required for data: 3375038720
I0117 06:30:06.512779  7652 layer_factory.hpp:77] Creating layer res4e_relu
I0117 06:30:06.512785  7652 net.cpp:84] Creating Layer res4e_relu
I0117 06:30:06.512789  7652 net.cpp:406] res4e_relu <- res4e
I0117 06:30:06.512794  7652 net.cpp:367] res4e_relu -> res4e (in-place)
I0117 06:30:06.513675  7652 net.cpp:122] Setting up res4e_relu
I0117 06:30:06.513692  7652 net.cpp:129] Top shape: 16 1024 14 14 (3211264)
I0117 06:30:06.513696  7652 net.cpp:137] Memory required for data: 3387883776
I0117 06:30:06.513700  7652 layer_factory.hpp:77] Creating layer res4e_res4e_relu_0_split
I0117 06:30:06.513710  7652 net.cpp:84] Creating Layer res4e_res4e_relu_0_split
I0117 06:30:06.513715  7652 net.cpp:406] res4e_res4e_relu_0_split <- res4e
I0117 06:30:06.513721  7652 net.cpp:380] res4e_res4e_relu_0_split -> res4e_res4e_relu_0_split_0
I0117 06:30:06.513730  7652 net.cpp:380] res4e_res4e_relu_0_split -> res4e_res4e_relu_0_split_1
I0117 06:30:06.513787  7652 net.cpp:122] Setting up res4e_res4e_relu_0_split
I0117 06:30:06.513794  7652 net.cpp:129] Top shape: 16 1024 14 14 (3211264)
I0117 06:30:06.513799  7652 net.cpp:129] Top shape: 16 1024 14 14 (3211264)
I0117 06:30:06.513803  7652 net.cpp:137] Memory required for data: 3413573888
I0117 06:30:06.513805  7652 layer_factory.hpp:77] Creating layer res4f_branch2a
I0117 06:30:06.513816  7652 net.cpp:84] Creating Layer res4f_branch2a
I0117 06:30:06.513823  7652 net.cpp:406] res4f_branch2a <- res4e_res4e_relu_0_split_0
I0117 06:30:06.513829  7652 net.cpp:380] res4f_branch2a -> res4f_branch2a
I0117 06:30:06.517392  7652 net.cpp:122] Setting up res4f_branch2a
I0117 06:30:06.517417  7652 net.cpp:129] Top shape: 16 256 14 14 (802816)
I0117 06:30:06.517422  7652 net.cpp:137] Memory required for data: 3416785152
I0117 06:30:06.517438  7652 layer_factory.hpp:77] Creating layer bn4f_branch2a
I0117 06:30:06.517449  7652 net.cpp:84] Creating Layer bn4f_branch2a
I0117 06:30:06.517454  7652 net.cpp:406] bn4f_branch2a <- res4f_branch2a
I0117 06:30:06.517462  7652 net.cpp:367] bn4f_branch2a -> res4f_branch2a (in-place)
I0117 06:30:06.517745  7652 net.cpp:122] Setting up bn4f_branch2a
I0117 06:30:06.517778  7652 net.cpp:129] Top shape: 16 256 14 14 (802816)
I0117 06:30:06.517782  7652 net.cpp:137] Memory required for data: 3419996416
I0117 06:30:06.517802  7652 layer_factory.hpp:77] Creating layer scale4f_branch2a
I0117 06:30:06.517822  7652 net.cpp:84] Creating Layer scale4f_branch2a
I0117 06:30:06.517827  7652 net.cpp:406] scale4f_branch2a <- res4f_branch2a
I0117 06:30:06.517832  7652 net.cpp:367] scale4f_branch2a -> res4f_branch2a (in-place)
I0117 06:30:06.517894  7652 layer_factory.hpp:77] Creating layer scale4f_branch2a
I0117 06:30:06.518045  7652 net.cpp:122] Setting up scale4f_branch2a
I0117 06:30:06.518054  7652 net.cpp:129] Top shape: 16 256 14 14 (802816)
I0117 06:30:06.518057  7652 net.cpp:137] Memory required for data: 3423207680
I0117 06:30:06.518064  7652 layer_factory.hpp:77] Creating layer res4f_branch2a_relu
I0117 06:30:06.518074  7652 net.cpp:84] Creating Layer res4f_branch2a_relu
I0117 06:30:06.518077  7652 net.cpp:406] res4f_branch2a_relu <- res4f_branch2a
I0117 06:30:06.518085  7652 net.cpp:367] res4f_branch2a_relu -> res4f_branch2a (in-place)
I0117 06:30:06.518321  7652 net.cpp:122] Setting up res4f_branch2a_relu
I0117 06:30:06.518340  7652 net.cpp:129] Top shape: 16 256 14 14 (802816)
I0117 06:30:06.518344  7652 net.cpp:137] Memory required for data: 3426418944
I0117 06:30:06.518347  7652 layer_factory.hpp:77] Creating layer res4f_branch2b
I0117 06:30:06.518358  7652 net.cpp:84] Creating Layer res4f_branch2b
I0117 06:30:06.518364  7652 net.cpp:406] res4f_branch2b <- res4f_branch2a
I0117 06:30:06.518370  7652 net.cpp:380] res4f_branch2b -> res4f_branch2b
I0117 06:30:06.523609  7652 net.cpp:122] Setting up res4f_branch2b
I0117 06:30:06.523663  7652 net.cpp:129] Top shape: 16 256 14 14 (802816)
I0117 06:30:06.523670  7652 net.cpp:137] Memory required for data: 3429630208
I0117 06:30:06.523686  7652 layer_factory.hpp:77] Creating layer bn4f_branch2b
I0117 06:30:06.523710  7652 net.cpp:84] Creating Layer bn4f_branch2b
I0117 06:30:06.523725  7652 net.cpp:406] bn4f_branch2b <- res4f_branch2b
I0117 06:30:06.523744  7652 net.cpp:367] bn4f_branch2b -> res4f_branch2b (in-place)
I0117 06:30:06.524334  7652 net.cpp:122] Setting up bn4f_branch2b
I0117 06:30:06.524350  7652 net.cpp:129] Top shape: 16 256 14 14 (802816)
I0117 06:30:06.524358  7652 net.cpp:137] Memory required for data: 3432841472
I0117 06:30:06.524372  7652 layer_factory.hpp:77] Creating layer scale4f_branch2b
I0117 06:30:06.524397  7652 net.cpp:84] Creating Layer scale4f_branch2b
I0117 06:30:06.524407  7652 net.cpp:406] scale4f_branch2b <- res4f_branch2b
I0117 06:30:06.524415  7652 net.cpp:367] scale4f_branch2b -> res4f_branch2b (in-place)
I0117 06:30:06.524514  7652 layer_factory.hpp:77] Creating layer scale4f_branch2b
I0117 06:30:06.524768  7652 net.cpp:122] Setting up scale4f_branch2b
I0117 06:30:06.524781  7652 net.cpp:129] Top shape: 16 256 14 14 (802816)
I0117 06:30:06.524787  7652 net.cpp:137] Memory required for data: 3436052736
I0117 06:30:06.524813  7652 layer_factory.hpp:77] Creating layer res4f_branch2b_relu
I0117 06:30:06.524832  7652 net.cpp:84] Creating Layer res4f_branch2b_relu
I0117 06:30:06.524843  7652 net.cpp:406] res4f_branch2b_relu <- res4f_branch2b
I0117 06:30:06.524854  7652 net.cpp:367] res4f_branch2b_relu -> res4f_branch2b (in-place)
I0117 06:30:06.525321  7652 net.cpp:122] Setting up res4f_branch2b_relu
I0117 06:30:06.525337  7652 net.cpp:129] Top shape: 16 256 14 14 (802816)
I0117 06:30:06.525343  7652 net.cpp:137] Memory required for data: 3439264000
I0117 06:30:06.525349  7652 layer_factory.hpp:77] Creating layer res4f_branch2c
I0117 06:30:06.525369  7652 net.cpp:84] Creating Layer res4f_branch2c
I0117 06:30:06.525377  7652 net.cpp:406] res4f_branch2c <- res4f_branch2b
I0117 06:30:06.525387  7652 net.cpp:380] res4f_branch2c -> res4f_branch2c
I0117 06:30:06.528872  7652 net.cpp:122] Setting up res4f_branch2c
I0117 06:30:06.528914  7652 net.cpp:129] Top shape: 16 1024 14 14 (3211264)
I0117 06:30:06.528921  7652 net.cpp:137] Memory required for data: 3452109056
I0117 06:30:06.528973  7652 layer_factory.hpp:77] Creating layer bn4f_branch2c
I0117 06:30:06.529000  7652 net.cpp:84] Creating Layer bn4f_branch2c
I0117 06:30:06.529012  7652 net.cpp:406] bn4f_branch2c <- res4f_branch2c
I0117 06:30:06.529027  7652 net.cpp:367] bn4f_branch2c -> res4f_branch2c (in-place)
I0117 06:30:06.529523  7652 net.cpp:122] Setting up bn4f_branch2c
I0117 06:30:06.529537  7652 net.cpp:129] Top shape: 16 1024 14 14 (3211264)
I0117 06:30:06.529543  7652 net.cpp:137] Memory required for data: 3464954112
I0117 06:30:06.529634  7652 layer_factory.hpp:77] Creating layer scale4f_branch2c
I0117 06:30:06.529659  7652 net.cpp:84] Creating Layer scale4f_branch2c
I0117 06:30:06.529707  7652 net.cpp:406] scale4f_branch2c <- res4f_branch2c
I0117 06:30:06.529717  7652 net.cpp:367] scale4f_branch2c -> res4f_branch2c (in-place)
I0117 06:30:06.529814  7652 layer_factory.hpp:77] Creating layer scale4f_branch2c
I0117 06:30:06.530091  7652 net.cpp:122] Setting up scale4f_branch2c
I0117 06:30:06.530104  7652 net.cpp:129] Top shape: 16 1024 14 14 (3211264)
I0117 06:30:06.530110  7652 net.cpp:137] Memory required for data: 3477799168
I0117 06:30:06.530134  7652 layer_factory.hpp:77] Creating layer res4f
I0117 06:30:06.530148  7652 net.cpp:84] Creating Layer res4f
I0117 06:30:06.530155  7652 net.cpp:406] res4f <- res4e_res4e_relu_0_split_1
I0117 06:30:06.530169  7652 net.cpp:406] res4f <- res4f_branch2c
I0117 06:30:06.530181  7652 net.cpp:380] res4f -> res4f
I0117 06:30:06.530242  7652 net.cpp:122] Setting up res4f
I0117 06:30:06.530256  7652 net.cpp:129] Top shape: 16 1024 14 14 (3211264)
I0117 06:30:06.530262  7652 net.cpp:137] Memory required for data: 3490644224
I0117 06:30:06.530268  7652 layer_factory.hpp:77] Creating layer res4f_relu
I0117 06:30:06.530277  7652 net.cpp:84] Creating Layer res4f_relu
I0117 06:30:06.530287  7652 net.cpp:406] res4f_relu <- res4f
I0117 06:30:06.530297  7652 net.cpp:367] res4f_relu -> res4f (in-place)
I0117 06:30:06.530730  7652 net.cpp:122] Setting up res4f_relu
I0117 06:30:06.530750  7652 net.cpp:129] Top shape: 16 1024 14 14 (3211264)
I0117 06:30:06.530755  7652 net.cpp:137] Memory required for data: 3503489280
I0117 06:30:06.530761  7652 layer_factory.hpp:77] Creating layer res4f_res4f_relu_0_split
I0117 06:30:06.530772  7652 net.cpp:84] Creating Layer res4f_res4f_relu_0_split
I0117 06:30:06.530779  7652 net.cpp:406] res4f_res4f_relu_0_split <- res4f
I0117 06:30:06.530797  7652 net.cpp:380] res4f_res4f_relu_0_split -> res4f_res4f_relu_0_split_0
I0117 06:30:06.530812  7652 net.cpp:380] res4f_res4f_relu_0_split -> res4f_res4f_relu_0_split_1
I0117 06:30:06.530915  7652 net.cpp:122] Setting up res4f_res4f_relu_0_split
I0117 06:30:06.530930  7652 net.cpp:129] Top shape: 16 1024 14 14 (3211264)
I0117 06:30:06.530939  7652 net.cpp:129] Top shape: 16 1024 14 14 (3211264)
I0117 06:30:06.530947  7652 net.cpp:137] Memory required for data: 3529179392
I0117 06:30:06.530953  7652 layer_factory.hpp:77] Creating layer res5a_branch1
I0117 06:30:06.530967  7652 net.cpp:84] Creating Layer res5a_branch1
I0117 06:30:06.530977  7652 net.cpp:406] res5a_branch1 <- res4f_res4f_relu_0_split_0
I0117 06:30:06.530988  7652 net.cpp:380] res5a_branch1 -> res5a_branch1
I0117 06:30:06.543267  7652 net.cpp:122] Setting up res5a_branch1
I0117 06:30:06.543298  7652 net.cpp:129] Top shape: 16 2048 7 7 (1605632)
I0117 06:30:06.543303  7652 net.cpp:137] Memory required for data: 3535601920
I0117 06:30:06.543313  7652 layer_factory.hpp:77] Creating layer bn5a_branch1
I0117 06:30:06.543332  7652 net.cpp:84] Creating Layer bn5a_branch1
I0117 06:30:06.543342  7652 net.cpp:406] bn5a_branch1 <- res5a_branch1
I0117 06:30:06.543359  7652 net.cpp:367] bn5a_branch1 -> res5a_branch1 (in-place)
I0117 06:30:06.543871  7652 net.cpp:122] Setting up bn5a_branch1
I0117 06:30:06.543885  7652 net.cpp:129] Top shape: 16 2048 7 7 (1605632)
I0117 06:30:06.543890  7652 net.cpp:137] Memory required for data: 3542024448
I0117 06:30:06.543905  7652 layer_factory.hpp:77] Creating layer scale5a_branch1
I0117 06:30:06.543915  7652 net.cpp:84] Creating Layer scale5a_branch1
I0117 06:30:06.543980  7652 net.cpp:406] scale5a_branch1 <- res5a_branch1
I0117 06:30:06.543993  7652 net.cpp:367] scale5a_branch1 -> res5a_branch1 (in-place)
I0117 06:30:06.544088  7652 layer_factory.hpp:77] Creating layer scale5a_branch1
I0117 06:30:06.544366  7652 net.cpp:122] Setting up scale5a_branch1
I0117 06:30:06.544380  7652 net.cpp:129] Top shape: 16 2048 7 7 (1605632)
I0117 06:30:06.544386  7652 net.cpp:137] Memory required for data: 3548446976
I0117 06:30:06.544396  7652 layer_factory.hpp:77] Creating layer res5a_branch2a
I0117 06:30:06.544412  7652 net.cpp:84] Creating Layer res5a_branch2a
I0117 06:30:06.544421  7652 net.cpp:406] res5a_branch2a <- res4f_res4f_relu_0_split_1
I0117 06:30:06.544431  7652 net.cpp:380] res5a_branch2a -> res5a_branch2a
I0117 06:30:06.550321  7652 net.cpp:122] Setting up res5a_branch2a
I0117 06:30:06.550375  7652 net.cpp:129] Top shape: 16 512 7 7 (401408)
I0117 06:30:06.550392  7652 net.cpp:137] Memory required for data: 3550052608
I0117 06:30:06.550408  7652 layer_factory.hpp:77] Creating layer bn5a_branch2a
I0117 06:30:06.550429  7652 net.cpp:84] Creating Layer bn5a_branch2a
I0117 06:30:06.550437  7652 net.cpp:406] bn5a_branch2a <- res5a_branch2a
I0117 06:30:06.550453  7652 net.cpp:367] bn5a_branch2a -> res5a_branch2a (in-place)
I0117 06:30:06.550922  7652 net.cpp:122] Setting up bn5a_branch2a
I0117 06:30:06.550936  7652 net.cpp:129] Top shape: 16 512 7 7 (401408)
I0117 06:30:06.550941  7652 net.cpp:137] Memory required for data: 3551658240
I0117 06:30:06.550956  7652 layer_factory.hpp:77] Creating layer scale5a_branch2a
I0117 06:30:06.550966  7652 net.cpp:84] Creating Layer scale5a_branch2a
I0117 06:30:06.550973  7652 net.cpp:406] scale5a_branch2a <- res5a_branch2a
I0117 06:30:06.550984  7652 net.cpp:367] scale5a_branch2a -> res5a_branch2a (in-place)
I0117 06:30:06.551061  7652 layer_factory.hpp:77] Creating layer scale5a_branch2a
I0117 06:30:06.551314  7652 net.cpp:122] Setting up scale5a_branch2a
I0117 06:30:06.551329  7652 net.cpp:129] Top shape: 16 512 7 7 (401408)
I0117 06:30:06.551334  7652 net.cpp:137] Memory required for data: 3553263872
I0117 06:30:06.551352  7652 layer_factory.hpp:77] Creating layer res5a_branch2a_relu
I0117 06:30:06.551364  7652 net.cpp:84] Creating Layer res5a_branch2a_relu
I0117 06:30:06.551370  7652 net.cpp:406] res5a_branch2a_relu <- res5a_branch2a
I0117 06:30:06.551380  7652 net.cpp:367] res5a_branch2a_relu -> res5a_branch2a (in-place)
I0117 06:30:06.552747  7652 net.cpp:122] Setting up res5a_branch2a_relu
I0117 06:30:06.552774  7652 net.cpp:129] Top shape: 16 512 7 7 (401408)
I0117 06:30:06.552780  7652 net.cpp:137] Memory required for data: 3554869504
I0117 06:30:06.552786  7652 layer_factory.hpp:77] Creating layer res5a_branch2b
I0117 06:30:06.552798  7652 net.cpp:84] Creating Layer res5a_branch2b
I0117 06:30:06.552805  7652 net.cpp:406] res5a_branch2b <- res5a_branch2a
I0117 06:30:06.552817  7652 net.cpp:380] res5a_branch2b -> res5a_branch2b
I0117 06:30:06.564640  7652 net.cpp:122] Setting up res5a_branch2b
I0117 06:30:06.564668  7652 net.cpp:129] Top shape: 16 512 7 7 (401408)
I0117 06:30:06.564674  7652 net.cpp:137] Memory required for data: 3556475136
I0117 06:30:06.564683  7652 layer_factory.hpp:77] Creating layer bn5a_branch2b
I0117 06:30:06.564704  7652 net.cpp:84] Creating Layer bn5a_branch2b
I0117 06:30:06.564712  7652 net.cpp:406] bn5a_branch2b <- res5a_branch2b
I0117 06:30:06.564723  7652 net.cpp:367] bn5a_branch2b -> res5a_branch2b (in-place)
I0117 06:30:06.565137  7652 net.cpp:122] Setting up bn5a_branch2b
I0117 06:30:06.565151  7652 net.cpp:129] Top shape: 16 512 7 7 (401408)
I0117 06:30:06.565156  7652 net.cpp:137] Memory required for data: 3558080768
I0117 06:30:06.565170  7652 layer_factory.hpp:77] Creating layer scale5a_branch2b
I0117 06:30:06.565178  7652 net.cpp:84] Creating Layer scale5a_branch2b
I0117 06:30:06.565232  7652 net.cpp:406] scale5a_branch2b <- res5a_branch2b
I0117 06:30:06.565243  7652 net.cpp:367] scale5a_branch2b -> res5a_branch2b (in-place)
I0117 06:30:06.565313  7652 layer_factory.hpp:77] Creating layer scale5a_branch2b
I0117 06:30:06.565585  7652 net.cpp:122] Setting up scale5a_branch2b
I0117 06:30:06.565598  7652 net.cpp:129] Top shape: 16 512 7 7 (401408)
I0117 06:30:06.565603  7652 net.cpp:137] Memory required for data: 3559686400
I0117 06:30:06.565623  7652 layer_factory.hpp:77] Creating layer res5a_branch2b_relu
I0117 06:30:06.565634  7652 net.cpp:84] Creating Layer res5a_branch2b_relu
I0117 06:30:06.565639  7652 net.cpp:406] res5a_branch2b_relu <- res5a_branch2b
I0117 06:30:06.565645  7652 net.cpp:367] res5a_branch2b_relu -> res5a_branch2b (in-place)
I0117 06:30:06.565989  7652 net.cpp:122] Setting up res5a_branch2b_relu
I0117 06:30:06.566004  7652 net.cpp:129] Top shape: 16 512 7 7 (401408)
I0117 06:30:06.566009  7652 net.cpp:137] Memory required for data: 3561292032
I0117 06:30:06.566020  7652 layer_factory.hpp:77] Creating layer res5a_branch2c
I0117 06:30:06.566036  7652 net.cpp:84] Creating Layer res5a_branch2c
I0117 06:30:06.566042  7652 net.cpp:406] res5a_branch2c <- res5a_branch2b
I0117 06:30:06.566053  7652 net.cpp:380] res5a_branch2c -> res5a_branch2c
I0117 06:30:06.572660  7652 net.cpp:122] Setting up res5a_branch2c
I0117 06:30:06.572681  7652 net.cpp:129] Top shape: 16 2048 7 7 (1605632)
I0117 06:30:06.572685  7652 net.cpp:137] Memory required for data: 3567714560
I0117 06:30:06.572692  7652 layer_factory.hpp:77] Creating layer bn5a_branch2c
I0117 06:30:06.572705  7652 net.cpp:84] Creating Layer bn5a_branch2c
I0117 06:30:06.572712  7652 net.cpp:406] bn5a_branch2c <- res5a_branch2c
I0117 06:30:06.572721  7652 net.cpp:367] bn5a_branch2c -> res5a_branch2c (in-place)
I0117 06:30:06.573035  7652 net.cpp:122] Setting up bn5a_branch2c
I0117 06:30:06.573045  7652 net.cpp:129] Top shape: 16 2048 7 7 (1605632)
I0117 06:30:06.573050  7652 net.cpp:137] Memory required for data: 3574137088
I0117 06:30:06.573057  7652 layer_factory.hpp:77] Creating layer scale5a_branch2c
I0117 06:30:06.573066  7652 net.cpp:84] Creating Layer scale5a_branch2c
I0117 06:30:06.573071  7652 net.cpp:406] scale5a_branch2c <- res5a_branch2c
I0117 06:30:06.573076  7652 net.cpp:367] scale5a_branch2c -> res5a_branch2c (in-place)
I0117 06:30:06.573137  7652 layer_factory.hpp:77] Creating layer scale5a_branch2c
I0117 06:30:06.573302  7652 net.cpp:122] Setting up scale5a_branch2c
I0117 06:30:06.573312  7652 net.cpp:129] Top shape: 16 2048 7 7 (1605632)
I0117 06:30:06.573316  7652 net.cpp:137] Memory required for data: 3580559616
I0117 06:30:06.573323  7652 layer_factory.hpp:77] Creating layer res5a
I0117 06:30:06.573330  7652 net.cpp:84] Creating Layer res5a
I0117 06:30:06.573335  7652 net.cpp:406] res5a <- res5a_branch1
I0117 06:30:06.573340  7652 net.cpp:406] res5a <- res5a_branch2c
I0117 06:30:06.573346  7652 net.cpp:380] res5a -> res5a
I0117 06:30:06.573380  7652 net.cpp:122] Setting up res5a
I0117 06:30:06.573388  7652 net.cpp:129] Top shape: 16 2048 7 7 (1605632)
I0117 06:30:06.573391  7652 net.cpp:137] Memory required for data: 3586982144
I0117 06:30:06.573397  7652 layer_factory.hpp:77] Creating layer res5a_relu
I0117 06:30:06.573403  7652 net.cpp:84] Creating Layer res5a_relu
I0117 06:30:06.573408  7652 net.cpp:406] res5a_relu <- res5a
I0117 06:30:06.573415  7652 net.cpp:367] res5a_relu -> res5a (in-place)
I0117 06:30:06.574313  7652 net.cpp:122] Setting up res5a_relu
I0117 06:30:06.574337  7652 net.cpp:129] Top shape: 16 2048 7 7 (1605632)
I0117 06:30:06.574342  7652 net.cpp:137] Memory required for data: 3593404672
I0117 06:30:06.574353  7652 layer_factory.hpp:77] Creating layer res5a_res5a_relu_0_split
I0117 06:30:06.574363  7652 net.cpp:84] Creating Layer res5a_res5a_relu_0_split
I0117 06:30:06.574370  7652 net.cpp:406] res5a_res5a_relu_0_split <- res5a
I0117 06:30:06.574379  7652 net.cpp:380] res5a_res5a_relu_0_split -> res5a_res5a_relu_0_split_0
I0117 06:30:06.574388  7652 net.cpp:380] res5a_res5a_relu_0_split -> res5a_res5a_relu_0_split_1
I0117 06:30:06.574447  7652 net.cpp:122] Setting up res5a_res5a_relu_0_split
I0117 06:30:06.574461  7652 net.cpp:129] Top shape: 16 2048 7 7 (1605632)
I0117 06:30:06.574467  7652 net.cpp:129] Top shape: 16 2048 7 7 (1605632)
I0117 06:30:06.574494  7652 net.cpp:137] Memory required for data: 3606249728
I0117 06:30:06.574498  7652 layer_factory.hpp:77] Creating layer res5b_branch2a
I0117 06:30:06.574509  7652 net.cpp:84] Creating Layer res5b_branch2a
I0117 06:30:06.574515  7652 net.cpp:406] res5b_branch2a <- res5a_res5a_relu_0_split_0
I0117 06:30:06.574524  7652 net.cpp:380] res5b_branch2a -> res5b_branch2a
I0117 06:30:06.579324  7652 net.cpp:122] Setting up res5b_branch2a
I0117 06:30:06.579342  7652 net.cpp:129] Top shape: 16 512 7 7 (401408)
I0117 06:30:06.579346  7652 net.cpp:137] Memory required for data: 3607855360
I0117 06:30:06.579352  7652 layer_factory.hpp:77] Creating layer bn5b_branch2a
I0117 06:30:06.579375  7652 net.cpp:84] Creating Layer bn5b_branch2a
I0117 06:30:06.579380  7652 net.cpp:406] bn5b_branch2a <- res5b_branch2a
I0117 06:30:06.579385  7652 net.cpp:367] bn5b_branch2a -> res5b_branch2a (in-place)
I0117 06:30:06.579687  7652 net.cpp:122] Setting up bn5b_branch2a
I0117 06:30:06.579696  7652 net.cpp:129] Top shape: 16 512 7 7 (401408)
I0117 06:30:06.579700  7652 net.cpp:137] Memory required for data: 3609460992
I0117 06:30:06.579710  7652 layer_factory.hpp:77] Creating layer scale5b_branch2a
I0117 06:30:06.579716  7652 net.cpp:84] Creating Layer scale5b_branch2a
I0117 06:30:06.579720  7652 net.cpp:406] scale5b_branch2a <- res5b_branch2a
I0117 06:30:06.579727  7652 net.cpp:367] scale5b_branch2a -> res5b_branch2a (in-place)
I0117 06:30:06.579777  7652 layer_factory.hpp:77] Creating layer scale5b_branch2a
I0117 06:30:06.579942  7652 net.cpp:122] Setting up scale5b_branch2a
I0117 06:30:06.579952  7652 net.cpp:129] Top shape: 16 512 7 7 (401408)
I0117 06:30:06.579955  7652 net.cpp:137] Memory required for data: 3611066624
I0117 06:30:06.579962  7652 layer_factory.hpp:77] Creating layer res5b_branch2a_relu
I0117 06:30:06.579969  7652 net.cpp:84] Creating Layer res5b_branch2a_relu
I0117 06:30:06.579973  7652 net.cpp:406] res5b_branch2a_relu <- res5b_branch2a
I0117 06:30:06.579978  7652 net.cpp:367] res5b_branch2a_relu -> res5b_branch2a (in-place)
I0117 06:30:06.580935  7652 net.cpp:122] Setting up res5b_branch2a_relu
I0117 06:30:06.580950  7652 net.cpp:129] Top shape: 16 512 7 7 (401408)
I0117 06:30:06.580955  7652 net.cpp:137] Memory required for data: 3612672256
I0117 06:30:06.580958  7652 layer_factory.hpp:77] Creating layer res5b_branch2b
I0117 06:30:06.580970  7652 net.cpp:84] Creating Layer res5b_branch2b
I0117 06:30:06.580973  7652 net.cpp:406] res5b_branch2b <- res5b_branch2a
I0117 06:30:06.580982  7652 net.cpp:380] res5b_branch2b -> res5b_branch2b
I0117 06:30:06.590311  7652 net.cpp:122] Setting up res5b_branch2b
I0117 06:30:06.590348  7652 net.cpp:129] Top shape: 16 512 7 7 (401408)
I0117 06:30:06.590353  7652 net.cpp:137] Memory required for data: 3614277888
I0117 06:30:06.590358  7652 layer_factory.hpp:77] Creating layer bn5b_branch2b
I0117 06:30:06.590379  7652 net.cpp:84] Creating Layer bn5b_branch2b
I0117 06:30:06.590384  7652 net.cpp:406] bn5b_branch2b <- res5b_branch2b
I0117 06:30:06.590390  7652 net.cpp:367] bn5b_branch2b -> res5b_branch2b (in-place)
I0117 06:30:06.590692  7652 net.cpp:122] Setting up bn5b_branch2b
I0117 06:30:06.590714  7652 net.cpp:129] Top shape: 16 512 7 7 (401408)
I0117 06:30:06.590718  7652 net.cpp:137] Memory required for data: 3615883520
I0117 06:30:06.590726  7652 layer_factory.hpp:77] Creating layer scale5b_branch2b
I0117 06:30:06.590735  7652 net.cpp:84] Creating Layer scale5b_branch2b
I0117 06:30:06.590739  7652 net.cpp:406] scale5b_branch2b <- res5b_branch2b
I0117 06:30:06.590746  7652 net.cpp:367] scale5b_branch2b -> res5b_branch2b (in-place)
I0117 06:30:06.590801  7652 layer_factory.hpp:77] Creating layer scale5b_branch2b
I0117 06:30:06.590962  7652 net.cpp:122] Setting up scale5b_branch2b
I0117 06:30:06.590971  7652 net.cpp:129] Top shape: 16 512 7 7 (401408)
I0117 06:30:06.590976  7652 net.cpp:137] Memory required for data: 3617489152
I0117 06:30:06.590984  7652 layer_factory.hpp:77] Creating layer res5b_branch2b_relu
I0117 06:30:06.591012  7652 net.cpp:84] Creating Layer res5b_branch2b_relu
I0117 06:30:06.591017  7652 net.cpp:406] res5b_branch2b_relu <- res5b_branch2b
I0117 06:30:06.591024  7652 net.cpp:367] res5b_branch2b_relu -> res5b_branch2b (in-place)
I0117 06:30:06.591271  7652 net.cpp:122] Setting up res5b_branch2b_relu
I0117 06:30:06.591284  7652 net.cpp:129] Top shape: 16 512 7 7 (401408)
I0117 06:30:06.591296  7652 net.cpp:137] Memory required for data: 3619094784
I0117 06:30:06.591301  7652 layer_factory.hpp:77] Creating layer res5b_branch2c
I0117 06:30:06.591311  7652 net.cpp:84] Creating Layer res5b_branch2c
I0117 06:30:06.591318  7652 net.cpp:406] res5b_branch2c <- res5b_branch2b
I0117 06:30:06.591326  7652 net.cpp:380] res5b_branch2c -> res5b_branch2c
I0117 06:30:06.596763  7652 net.cpp:122] Setting up res5b_branch2c
I0117 06:30:06.596781  7652 net.cpp:129] Top shape: 16 2048 7 7 (1605632)
I0117 06:30:06.596786  7652 net.cpp:137] Memory required for data: 3625517312
I0117 06:30:06.596791  7652 layer_factory.hpp:77] Creating layer bn5b_branch2c
I0117 06:30:06.596810  7652 net.cpp:84] Creating Layer bn5b_branch2c
I0117 06:30:06.596815  7652 net.cpp:406] bn5b_branch2c <- res5b_branch2c
I0117 06:30:06.596838  7652 net.cpp:367] bn5b_branch2c -> res5b_branch2c (in-place)
I0117 06:30:06.597174  7652 net.cpp:122] Setting up bn5b_branch2c
I0117 06:30:06.597183  7652 net.cpp:129] Top shape: 16 2048 7 7 (1605632)
I0117 06:30:06.597187  7652 net.cpp:137] Memory required for data: 3631939840
I0117 06:30:06.597195  7652 layer_factory.hpp:77] Creating layer scale5b_branch2c
I0117 06:30:06.597213  7652 net.cpp:84] Creating Layer scale5b_branch2c
I0117 06:30:06.597216  7652 net.cpp:406] scale5b_branch2c <- res5b_branch2c
I0117 06:30:06.597221  7652 net.cpp:367] scale5b_branch2c -> res5b_branch2c (in-place)
I0117 06:30:06.597275  7652 layer_factory.hpp:77] Creating layer scale5b_branch2c
I0117 06:30:06.597440  7652 net.cpp:122] Setting up scale5b_branch2c
I0117 06:30:06.597450  7652 net.cpp:129] Top shape: 16 2048 7 7 (1605632)
I0117 06:30:06.597455  7652 net.cpp:137] Memory required for data: 3638362368
I0117 06:30:06.597462  7652 layer_factory.hpp:77] Creating layer res5b
I0117 06:30:06.597470  7652 net.cpp:84] Creating Layer res5b
I0117 06:30:06.597476  7652 net.cpp:406] res5b <- res5a_res5a_relu_0_split_1
I0117 06:30:06.597479  7652 net.cpp:406] res5b <- res5b_branch2c
I0117 06:30:06.597486  7652 net.cpp:380] res5b -> res5b
I0117 06:30:06.597522  7652 net.cpp:122] Setting up res5b
I0117 06:30:06.597529  7652 net.cpp:129] Top shape: 16 2048 7 7 (1605632)
I0117 06:30:06.597532  7652 net.cpp:137] Memory required for data: 3644784896
I0117 06:30:06.597537  7652 layer_factory.hpp:77] Creating layer res5b_relu
I0117 06:30:06.597543  7652 net.cpp:84] Creating Layer res5b_relu
I0117 06:30:06.597546  7652 net.cpp:406] res5b_relu <- res5b
I0117 06:30:06.597553  7652 net.cpp:367] res5b_relu -> res5b (in-place)
I0117 06:30:06.597787  7652 net.cpp:122] Setting up res5b_relu
I0117 06:30:06.597798  7652 net.cpp:129] Top shape: 16 2048 7 7 (1605632)
I0117 06:30:06.597802  7652 net.cpp:137] Memory required for data: 3651207424
I0117 06:30:06.597805  7652 layer_factory.hpp:77] Creating layer res5b_res5b_relu_0_split
I0117 06:30:06.597815  7652 net.cpp:84] Creating Layer res5b_res5b_relu_0_split
I0117 06:30:06.597818  7652 net.cpp:406] res5b_res5b_relu_0_split <- res5b
I0117 06:30:06.597826  7652 net.cpp:380] res5b_res5b_relu_0_split -> res5b_res5b_relu_0_split_0
I0117 06:30:06.597833  7652 net.cpp:380] res5b_res5b_relu_0_split -> res5b_res5b_relu_0_split_1
I0117 06:30:06.597887  7652 net.cpp:122] Setting up res5b_res5b_relu_0_split
I0117 06:30:06.597895  7652 net.cpp:129] Top shape: 16 2048 7 7 (1605632)
I0117 06:30:06.597899  7652 net.cpp:129] Top shape: 16 2048 7 7 (1605632)
I0117 06:30:06.597903  7652 net.cpp:137] Memory required for data: 3664052480
I0117 06:30:06.597908  7652 layer_factory.hpp:77] Creating layer res5c_branch2a
I0117 06:30:06.597918  7652 net.cpp:84] Creating Layer res5c_branch2a
I0117 06:30:06.597923  7652 net.cpp:406] res5c_branch2a <- res5b_res5b_relu_0_split_0
I0117 06:30:06.597950  7652 net.cpp:380] res5c_branch2a -> res5c_branch2a
I0117 06:30:06.603343  7652 net.cpp:122] Setting up res5c_branch2a
I0117 06:30:06.603368  7652 net.cpp:129] Top shape: 16 512 7 7 (401408)
I0117 06:30:06.603372  7652 net.cpp:137] Memory required for data: 3665658112
I0117 06:30:06.603379  7652 layer_factory.hpp:77] Creating layer bn5c_branch2a
I0117 06:30:06.603387  7652 net.cpp:84] Creating Layer bn5c_branch2a
I0117 06:30:06.603391  7652 net.cpp:406] bn5c_branch2a <- res5c_branch2a
I0117 06:30:06.603413  7652 net.cpp:367] bn5c_branch2a -> res5c_branch2a (in-place)
I0117 06:30:06.603709  7652 net.cpp:122] Setting up bn5c_branch2a
I0117 06:30:06.603719  7652 net.cpp:129] Top shape: 16 512 7 7 (401408)
I0117 06:30:06.603724  7652 net.cpp:137] Memory required for data: 3667263744
I0117 06:30:06.603732  7652 layer_factory.hpp:77] Creating layer scale5c_branch2a
I0117 06:30:06.603739  7652 net.cpp:84] Creating Layer scale5c_branch2a
I0117 06:30:06.603744  7652 net.cpp:406] scale5c_branch2a <- res5c_branch2a
I0117 06:30:06.603749  7652 net.cpp:367] scale5c_branch2a -> res5c_branch2a (in-place)
I0117 06:30:06.603803  7652 layer_factory.hpp:77] Creating layer scale5c_branch2a
I0117 06:30:06.603978  7652 net.cpp:122] Setting up scale5c_branch2a
I0117 06:30:06.603987  7652 net.cpp:129] Top shape: 16 512 7 7 (401408)
I0117 06:30:06.603991  7652 net.cpp:137] Memory required for data: 3668869376
I0117 06:30:06.603998  7652 layer_factory.hpp:77] Creating layer res5c_branch2a_relu
I0117 06:30:06.604007  7652 net.cpp:84] Creating Layer res5c_branch2a_relu
I0117 06:30:06.604065  7652 net.cpp:406] res5c_branch2a_relu <- res5c_branch2a
I0117 06:30:06.604070  7652 net.cpp:367] res5c_branch2a_relu -> res5c_branch2a (in-place)
I0117 06:30:06.604310  7652 net.cpp:122] Setting up res5c_branch2a_relu
I0117 06:30:06.604321  7652 net.cpp:129] Top shape: 16 512 7 7 (401408)
I0117 06:30:06.604323  7652 net.cpp:137] Memory required for data: 3670475008
I0117 06:30:06.604327  7652 layer_factory.hpp:77] Creating layer res5c_branch2b
I0117 06:30:06.604351  7652 net.cpp:84] Creating Layer res5c_branch2b
I0117 06:30:06.604367  7652 net.cpp:406] res5c_branch2b <- res5c_branch2a
I0117 06:30:06.604377  7652 net.cpp:380] res5c_branch2b -> res5c_branch2b
I0117 06:30:06.613831  7652 net.cpp:122] Setting up res5c_branch2b
I0117 06:30:06.613849  7652 net.cpp:129] Top shape: 16 512 7 7 (401408)
I0117 06:30:06.613853  7652 net.cpp:137] Memory required for data: 3672080640
I0117 06:30:06.613859  7652 layer_factory.hpp:77] Creating layer bn5c_branch2b
I0117 06:30:06.613870  7652 net.cpp:84] Creating Layer bn5c_branch2b
I0117 06:30:06.613875  7652 net.cpp:406] bn5c_branch2b <- res5c_branch2b
I0117 06:30:06.613883  7652 net.cpp:367] bn5c_branch2b -> res5c_branch2b (in-place)
I0117 06:30:06.614194  7652 net.cpp:122] Setting up bn5c_branch2b
I0117 06:30:06.614203  7652 net.cpp:129] Top shape: 16 512 7 7 (401408)
I0117 06:30:06.614209  7652 net.cpp:137] Memory required for data: 3673686272
I0117 06:30:06.614217  7652 layer_factory.hpp:77] Creating layer scale5c_branch2b
I0117 06:30:06.614228  7652 net.cpp:84] Creating Layer scale5c_branch2b
I0117 06:30:06.614233  7652 net.cpp:406] scale5c_branch2b <- res5c_branch2b
I0117 06:30:06.614238  7652 net.cpp:367] scale5c_branch2b -> res5c_branch2b (in-place)
I0117 06:30:06.614305  7652 layer_factory.hpp:77] Creating layer scale5c_branch2b
I0117 06:30:06.614506  7652 net.cpp:122] Setting up scale5c_branch2b
I0117 06:30:06.614518  7652 net.cpp:129] Top shape: 16 512 7 7 (401408)
I0117 06:30:06.614521  7652 net.cpp:137] Memory required for data: 3675291904
I0117 06:30:06.614528  7652 layer_factory.hpp:77] Creating layer res5c_branch2b_relu
I0117 06:30:06.614540  7652 net.cpp:84] Creating Layer res5c_branch2b_relu
I0117 06:30:06.614544  7652 net.cpp:406] res5c_branch2b_relu <- res5c_branch2b
I0117 06:30:06.614549  7652 net.cpp:367] res5c_branch2b_relu -> res5c_branch2b (in-place)
I0117 06:30:06.614783  7652 net.cpp:122] Setting up res5c_branch2b_relu
I0117 06:30:06.614794  7652 net.cpp:129] Top shape: 16 512 7 7 (401408)
I0117 06:30:06.614816  7652 net.cpp:137] Memory required for data: 3676897536
I0117 06:30:06.614820  7652 layer_factory.hpp:77] Creating layer res5c_branch2c
I0117 06:30:06.614831  7652 net.cpp:84] Creating Layer res5c_branch2c
I0117 06:30:06.614837  7652 net.cpp:406] res5c_branch2c <- res5c_branch2b
I0117 06:30:06.614843  7652 net.cpp:380] res5c_branch2c -> res5c_branch2c
I0117 06:30:06.620291  7652 net.cpp:122] Setting up res5c_branch2c
I0117 06:30:06.620311  7652 net.cpp:129] Top shape: 16 2048 7 7 (1605632)
I0117 06:30:06.620318  7652 net.cpp:137] Memory required for data: 3683320064
I0117 06:30:06.620326  7652 layer_factory.hpp:77] Creating layer bn5c_branch2c
I0117 06:30:06.620333  7652 net.cpp:84] Creating Layer bn5c_branch2c
I0117 06:30:06.620338  7652 net.cpp:406] bn5c_branch2c <- res5c_branch2c
I0117 06:30:06.620345  7652 net.cpp:367] bn5c_branch2c -> res5c_branch2c (in-place)
I0117 06:30:06.620652  7652 net.cpp:122] Setting up bn5c_branch2c
I0117 06:30:06.620668  7652 net.cpp:129] Top shape: 16 2048 7 7 (1605632)
I0117 06:30:06.620672  7652 net.cpp:137] Memory required for data: 3689742592
I0117 06:30:06.620684  7652 layer_factory.hpp:77] Creating layer scale5c_branch2c
I0117 06:30:06.620690  7652 net.cpp:84] Creating Layer scale5c_branch2c
I0117 06:30:06.620694  7652 net.cpp:406] scale5c_branch2c <- res5c_branch2c
I0117 06:30:06.620699  7652 net.cpp:367] scale5c_branch2c -> res5c_branch2c (in-place)
I0117 06:30:06.620764  7652 layer_factory.hpp:77] Creating layer scale5c_branch2c
I0117 06:30:06.620936  7652 net.cpp:122] Setting up scale5c_branch2c
I0117 06:30:06.620946  7652 net.cpp:129] Top shape: 16 2048 7 7 (1605632)
I0117 06:30:06.620949  7652 net.cpp:137] Memory required for data: 3696165120
I0117 06:30:06.620956  7652 layer_factory.hpp:77] Creating layer res5c
I0117 06:30:06.620983  7652 net.cpp:84] Creating Layer res5c
I0117 06:30:06.620990  7652 net.cpp:406] res5c <- res5b_res5b_relu_0_split_1
I0117 06:30:06.620995  7652 net.cpp:406] res5c <- res5c_branch2c
I0117 06:30:06.621001  7652 net.cpp:380] res5c -> res5c
I0117 06:30:06.621034  7652 net.cpp:122] Setting up res5c
I0117 06:30:06.621042  7652 net.cpp:129] Top shape: 16 2048 7 7 (1605632)
I0117 06:30:06.621045  7652 net.cpp:137] Memory required for data: 3702587648
I0117 06:30:06.621049  7652 layer_factory.hpp:77] Creating layer res5c_relu
I0117 06:30:06.621057  7652 net.cpp:84] Creating Layer res5c_relu
I0117 06:30:06.621060  7652 net.cpp:406] res5c_relu <- res5c
I0117 06:30:06.621068  7652 net.cpp:367] res5c_relu -> res5c (in-place)
I0117 06:30:06.622050  7652 net.cpp:122] Setting up res5c_relu
I0117 06:30:06.622067  7652 net.cpp:129] Top shape: 16 2048 7 7 (1605632)
I0117 06:30:06.622071  7652 net.cpp:137] Memory required for data: 3709010176
I0117 06:30:06.622076  7652 layer_factory.hpp:77] Creating layer pool5
I0117 06:30:06.622084  7652 net.cpp:84] Creating Layer pool5
I0117 06:30:06.622088  7652 net.cpp:406] pool5 <- res5c
I0117 06:30:06.622097  7652 net.cpp:380] pool5 -> pool5
I0117 06:30:06.622383  7652 net.cpp:122] Setting up pool5
I0117 06:30:06.622396  7652 net.cpp:129] Top shape: 16 2048 1 1 (32768)
I0117 06:30:06.622400  7652 net.cpp:137] Memory required for data: 3709141248
I0117 06:30:06.622403  7652 layer_factory.hpp:77] Creating layer wh_fc_724
I0117 06:30:06.622413  7652 net.cpp:84] Creating Layer wh_fc_724
I0117 06:30:06.622417  7652 net.cpp:406] wh_fc_724 <- pool5
I0117 06:30:06.622427  7652 net.cpp:380] wh_fc_724 -> wh_fc_724
I0117 06:30:06.627473  7652 net.cpp:122] Setting up wh_fc_724
I0117 06:30:06.627490  7652 net.cpp:129] Top shape: 16 724 (11584)
I0117 06:30:06.627495  7652 net.cpp:137] Memory required for data: 3709187584
I0117 06:30:06.627502  7652 layer_factory.hpp:77] Creating layer wh_fc_724_wh_fc_724_0_split
I0117 06:30:06.627514  7652 net.cpp:84] Creating Layer wh_fc_724_wh_fc_724_0_split
I0117 06:30:06.627518  7652 net.cpp:406] wh_fc_724_wh_fc_724_0_split <- wh_fc_724
I0117 06:30:06.627526  7652 net.cpp:380] wh_fc_724_wh_fc_724_0_split -> wh_fc_724_wh_fc_724_0_split_0
I0117 06:30:06.627553  7652 net.cpp:380] wh_fc_724_wh_fc_724_0_split -> wh_fc_724_wh_fc_724_0_split_1
I0117 06:30:06.627560  7652 net.cpp:380] wh_fc_724_wh_fc_724_0_split -> wh_fc_724_wh_fc_724_0_split_2
I0117 06:30:06.627642  7652 net.cpp:122] Setting up wh_fc_724_wh_fc_724_0_split
I0117 06:30:06.627651  7652 net.cpp:129] Top shape: 16 724 (11584)
I0117 06:30:06.627656  7652 net.cpp:129] Top shape: 16 724 (11584)
I0117 06:30:06.627660  7652 net.cpp:129] Top shape: 16 724 (11584)
I0117 06:30:06.627663  7652 net.cpp:137] Memory required for data: 3709326592
I0117 06:30:06.627666  7652 layer_factory.hpp:77] Creating layer loss
I0117 06:30:06.627676  7652 net.cpp:84] Creating Layer loss
I0117 06:30:06.627679  7652 net.cpp:406] loss <- wh_fc_724_wh_fc_724_0_split_0
I0117 06:30:06.627686  7652 net.cpp:406] loss <- label_data_1_split_0
I0117 06:30:06.627691  7652 net.cpp:380] loss -> loss
…
