…
I0117 06:44:49.903618  7678 caffe.cpp:279] GPU device name: Tesla P100-SXM2-16GB
I0117 06:44:51.264775  7678 net.cpp:51] Initializing net from parameters: 
name: "ResNet-50"
state {
  phase: TEST
  level: 0
  stage: ""
}
layer {
  name: "data"
  type: "Data"
  top: "data"
  top: "label"
  include {
    phase: TEST
  }
  transform_param {
    mirror: false
    crop_size: 224
    mean_file: "../newFood724_TEST/newFood724_aug_mean.binaryproto"
  }
  data_param {
    source: "../newFood724_TEST/newFood724_test_lmdb"
    batch_size: 16
    backend: LMDB
  }
}
layer {
  name: "conv1"
  type: "Convolution"
  bottom: "data"
  top: "conv1"
  convolution_param {
    num_output: 64
    pad: 3
    kernel_size: 7
    stride: 2
  }
}
layer {
  name: "bn_conv1"
  type: "BatchNorm"
  bottom: "conv1"
  top: "conv1"
  batch_norm_param {
    use_global_stats: true
  }
}
layer {
  name: "scale_conv1"
  type: "Scale"
  bottom: "conv1"
  top: "conv1"
  scale_param {
    bias_term: true
  }
}
layer {
  name: "conv1_relu"
  type: "ReLU"
  bottom: "conv1"
  top: "conv1"
}
layer {
  name: "pool1"
  type: "Pooling"
  bottom: "conv1"
  top: "pool1"
  pooling_param {
    pool: MAX
    kernel_size: 3
    stride: 2
  }
}
layer {
  name: "res2a_branch1"
  type: "Convolution"
  bottom: "pool1"
  top: "res2a_branch1"
  convolution_param {
    num_output: 256
    bias_term: false
    pad: 0
    kernel_size: 1
    stride: 1
  }
}
layer {
  name: "bn2a_branch1"
  type: "BatchNorm"
  bottom: "res2a_branch1"
  top: "res2a_branch1"
  batch_norm_param {
    use_global_stats: true
  }
}
layer {
  name: "scale2a_branch1"
  type: "Scale"
  bottom: "res2a_branch1"
  top: "res2a_branch1"
  scale_param {
    bias_term: true
  }
}
layer {
  name: "res2a_branch2a"
  type: "Convolution"
  bottom: "pool1"
  top: "res2a_branch2a"
  convolution_param {
    num_output: 64
    bias_term: false
    pad: 0
    kernel_size: 1
    stride: 1
  }
}
layer {
  name: "bn2a_branch2a"
  type: "BatchNorm"
  bottom: "res2a_branch2a"
  top: "res2a_branch2a"
  batch_norm_param {
    use_global_stats: true
  }
}
layer {
  name: "scale2a_branch2a"
  type: "Scale"
  bottom: "res2a_branch2a"
  top: "res2a_branch2a"
  scale_param {
    bias_term: true
  }
}
layer {
  name: "res2a_branch2a_relu"
  type: "ReLU"
  bottom: "res2a_branch2a"
  top: "res2a_branch2a"
}
layer {
  name: "res2a_branch2b"
  type: "Convolution"
  bottom: "res2a_branch2a"
  top: "res2a_branch2b"
  convolution_param {
    num_output: 64
    bias_term: false
    pad: 1
    kernel_size: 3
    stride: 1
  }
}
layer {
  name: "bn2a_branch2b"
  type: "BatchNorm"
  bottom: "res2a_branch2b"
  top: "res2a_branch2b"
  batch_norm_param {
    use_global_stats: true
  }
}
layer {
  name: "scale2a_branch2b"
  type: "Scale"
  bottom: "res2a_branch2b"
  top: "res2a_branch2b"
  scale_param {
    bias_term: true
  }
}
layer {
  name: "res2a_branch2b_relu"
  type: "ReLU"
  bottom: "res2a_branch2b"
  top: "res2a_branch2b"
}
layer {
  name: "res2a_branch2c"
  type: "Convolution"
  bottom: "res2a_branch2b"
  top: "res2a_branch2c"
  convolution_param {
    num_output: 256
    bias_term: false
    pad: 0
    kernel_size: 1
    stride: 1
  }
}
layer {
  name: "bn2a_branch2c"
  type: "BatchNorm"
  bottom: "res2a_branch2c"
  top: "res2a_branch2c"
  batch_norm_param {
    use_global_stats: true
  }
}
layer {
  name: "scale2a_branch2c"
  type: "Scale"
  bottom: "res2a_branch2c"
  top: "res2a_branch2c"
  scale_param {
    bias_term: true
  }
}
layer {
  name: "res2a"
  type: "Eltwise"
  bottom: "res2a_branch1"
  bottom: "res2a_branch2c"
  top: "res2a"
}
layer {
  name: "res2a_relu"
  type: "ReLU"
  bottom: "res2a"
  top: "res2a"
}
layer {
  name: "res2b_branch2a"
  type: "Convolution"
  bottom: "res2a"
  top: "res2b_branch2a"
  convolution_param {
    num_output: 64
    bias_term: false
    pad: 0
    kernel_size: 1
    stride: 1
  }
}
layer {
  name: "bn2b_branch2a"
  type: "BatchNorm"
  bottom: "res2b_branch2a"
  top: "res2b_branch2a"
  batch_norm_param {
    use_global_stats: true
  }
}
layer {
  name: "scale2b_branch2a"
  type: "Scale"
  bottom: "res2b_branch2a"
  top: "res2b_branch2a"
  scale_param {
    bias_term: true
  }
}
layer {
  name: "res2b_branch2a_relu"
  type: "ReLU"
  bottom: "res2b_branch2a"
  top: "res2b_branch2a"
}
layer {
  name: "res2b_branch2b"
  type: "Convolution"
  bottom: "res2b_branch2a"
  top: "res2b_branch2b"
  convolution_param {
    num_output: 64
    bias_term: false
    pad: 1
    kernel_size: 3
    stride: 1
  }
}
layer {
  name: "bn2b_branch2b"
  type: "BatchNorm"
  bottom: "res2b_branch2b"
  top: "res2b_branch2b"
  batch_norm_param {
    use_global_stats: true
  }
}
layer {
  name: "scale2b_branch2b"
  type: "Scale"
  bottom: "res2b_branch2b"
  top: "res2b_branch2b"
  scale_param {
    bias_term: true
  }
}
layer {
  name: "res2b_branch2b_relu"
  type: "ReLU"
  bottom: "res2b_branch2b"
  top: "res2b_branch2b"
}
layer {
  name: "res2b_branch2c"
  type: "Convolution"
  bottom: "res2b_branch2b"
  top: "res2b_branch2c"
  convolution_param {
    num_output: 256
    bias_term: false
    pad: 0
    kernel_size: 1
    stride: 1
  }
}
layer {
  name: "bn2b_branch2c"
  type: "BatchNorm"
  bottom: "res2b_branch2c"
  top: "res2b_branch2c"
  batch_norm_param {
    use_global_stats: true
  }
}
layer {
  name: "scale2b_branch2c"
  type: "Scale"
  bottom: "res2b_branch2c"
  top: "res2b_branch2c"
  scale_param {
    bias_term: true
  }
}
layer {
  name: "res2b"
  type: "Eltwise"
  bottom: "res2a"
  bottom: "res2b_branch2c"
  top: "res2b"
}
layer {
  name: "res2b_relu"
  type: "ReLU"
  bottom: "res2b"
  top: "res2b"
}
layer {
  name: "res2c_branch2a"
  type: "Convolution"
  bottom: "res2b"
  top: "res2c_branch2a"
  convolution_param {
    num_output: 64
    bias_term: false
    pad: 0
    kernel_size: 1
    stride: 1
  }
}
layer {
  name: "bn2c_branch2a"
  type: "BatchNorm"
  bottom: "res2c_branch2a"
  top: "res2c_branch2a"
  batch_norm_param {
    use_global_stats: true
  }
}
layer {
  name: "scale2c_branch2a"
  type: "Scale"
  bottom: "res2c_branch2a"
  top: "res2c_branch2a"
  scale_param {
    bias_term: true
  }
}
layer {
  name: "res2c_branch2a_relu"
  type: "ReLU"
  bottom: "res2c_branch2a"
  top: "res2c_branch2a"
}
layer {
  name: "res2c_branch2b"
  type: "Convolution"
  bottom: "res2c_branch2a"
  top: "res2c_branch2b"
  convolution_param {
    num_output: 64
    bias_term: false
    pad: 1
    kernel_size: 3
    stride: 1
  }
}
layer {
  name: "bn2c_branch2b"
  type: "BatchNorm"
  bottom: "res2c_branch2b"
  top: "res2c_branch2b"
  batch_norm_param {
    use_global_stats: true
  }
}
layer {
  name: "scale2c_branch2b"
  type: "Scale"
  bottom: "res2c_branch2b"
  top: "res2c_branch2b"
  scale_param {
    bias_term: true
  }
}
layer {
  name: "res2c_branch2b_relu"
  type: "ReLU"
  bottom: "res2c_branch2b"
  top: "res2c_branch2b"
}
layer {
  name: "res2c_branch2c"
  type: "Convolution"
  bottom: "res2c_branch2b"
  top: "res2c_branch2c"
  convolution_param {
    num_output: 256
    bias_term: false
    pad: 0
    kernel_size: 1
    stride: 1
  }
}
layer {
  name: "bn2c_branch2c"
  type: "BatchNorm"
  bottom: "res2c_branch2c"
  top: "res2c_branch2c"
  batch_norm_param {
    use_global_stats: true
  }
}
layer {
  name: "scale2c_branch2c"
  type: "Scale"
  bottom: "res2c_branch2c"
  top: "res2c_branch2c"
  scale_param {
    bias_term: true
  }
}
layer {
  name: "res2c"
  type: "Eltwise"
  bottom: "res2b"
  bottom: "res2c_branch2c"
  top: "res2c"
}
layer {
  name: "res2c_relu"
  type: "ReLU"
  bottom: "res2c"
  top: "res2c"
}
layer {
  name: "res3a_branch1"
  type: "Convolution"
  bottom: "res2c"
  top: "res3a_branch1"
  convolution_param {
    num_output: 512
    bias_term: false
    pad: 0
    kernel_size: 1
    stride: 2
  }
}
layer {
  name: "bn3a_branch1"
  type: "BatchNorm"
  bottom: "res3a_branch1"
  top: "res3a_branch1"
  batch_norm_param {
    use_global_stats: true
  }
}
layer {
  name: "scale3a_branch1"
  type: "Scale"
  bottom: "res3a_branch1"
  top: "res3a_branch1"
  scale_param {
    bias_term: true
  }
}
layer {
  name: "res3a_branch2a"
  type: "Convolution"
  bottom: "res2c"
  top: "res3a_branch2a"
  convolution_param {
    num_output: 128
    bias_term: false
    pad: 0
    kernel_size: 1
    stride: 2
  }
}
layer {
  name: "bn3a_branch2a"
  type: "BatchNorm"
  bottom: "res3a_branch2a"
  top: "res3a_branch2a"
  batch_norm_param {
    use_global_stats: true
  }
}
layer {
  name: "scale3a_branch2a"
  type: "Scale"
  bottom: "res3a_branch2a"
  top: "res3a_branch2a"
  scale_param {
    bias_term: true
  }
}
layer {
  name: "res3a_branch2a_relu"
  type: "ReLU"
  bottom: "res3a_branch2a"
  top: "res3a_branch2a"
}
layer {
  name: "res3a_branch2b"
  type: "Convolution"
  bottom: "res3a_branch2a"
  top: "res3a_branch2b"
  convolution_param {
    num_output: 128
    bias_term: false
    pad: 1
    kernel_size: 3
    stride: 1
  }
}
layer {
  name: "bn3a_branch2b"
  type: "BatchNorm"
  bottom: "res3a_branch2b"
  top: "res3a_branch2b"
  batch_norm_param {
    use_global_stats: true
  }
}
layer {
  name: "scale3a_branch2b"
  type: "Scale"
  bottom: "res3a_branch2b"
  top: "res3a_branch2b"
  scale_param {
    bias_term: true
  }
}
layer {
  name: "res3a_branch2b_relu"
  type: "ReLU"
  bottom: "res3a_branch2b"
  top: "res3a_branch2b"
}
layer {
  name: "res3a_branch2c"
  type: "Convolution"
  bottom: "res3a_branch2b"
  top: "res3a_branch2c"
  convolution_param {
    num_output: 512
    bias_term: false
    pad: 0
    kernel_size: 1
    stride: 1
  }
}
layer {
  name: "bn3a_branch2c"
  type: "BatchNorm"
  bottom: "res3a_branch2c"
  top: "res3a_branch2c"
  batch_norm_param {
    use_global_stats: true
  }
}
layer {
  name: "scale3a_branch2c"
  type: "Scale"
  bottom: "res3a_branch2c"
  top: "res3a_branch2c"
  scale_param {
    bias_term: true
  }
}
layer {
  name: "res3a"
  type: "Eltwise"
  bottom: "res3a_branch1"
  bottom: "res3a_branch2c"
  top: "res3a"
}
layer {
  name: "res3a_relu"
  type: "ReLU"
  bottom: "res3a"
  top: "res3a"
}
layer {
  name: "res3b_branch2a"
  type: "Convolution"
  bottom: "res3a"
  top: "res3b_branch2a"
  convolution_param {
    num_output: 128
    bias_term: false
    pad: 0
    kernel_size: 1
    stride: 1
  }
}
layer {
  name: "bn3b_branch2a"
  type: "BatchNorm"
  bottom: "res3b_branch2a"
  top: "res3b_branch2a"
  batch_norm_param {
    use_global_stats: true
  }
}
layer {
  name: "scale3b_branch2a"
  type: "Scale"
  bottom: "res3b_branch2a"
  top: "res3b_branch2a"
  scale_param {
    bias_term: true
  }
}
layer {
  name: "res3b_branch2a_relu"
  type: "ReLU"
  bottom: "res3b_branch2a"
  top: "res3b_branch2a"
}
layer {
  name: "res3b_branch2b"
  type: "Convolution"
  bottom: "res3b_branch2a"
  top: "res3b_branch2b"
  convolution_param {
    num_output: 128
    bias_term: false
    pad: 1
    kernel_size: 3
    stride: 1
  }
}
layer {
  name: "bn3b_branch2b"
  type: "BatchNorm"
  bottom: "res3b_branch2b"
  top: "res3b_branch2b"
  batch_norm_param {
    use_global_stats: true
  }
}
layer {
  name: "scale3b_branch2b"
  type: "Scale"
  bottom: "res3b_branch2b"
  top: "res3b_branch2b"
  scale_param {
    bias_term: true
  }
}
layer {
  name: "res3b_branch2b_relu"
  type: "ReLU"
  bottom: "res3b_branch2b"
  top: "res3b_branch2b"
}
layer {
  name: "res3b_branch2c"
  type: "Convolution"
  bottom: "res3b_branch2b"
  top: "res3b_branch2c"
  convolution_param {
    num_output: 512
    bias_term: false
    pad: 0
    kernel_size: 1
    stride: 1
  }
}
layer {
  name: "bn3b_branch2c"
  type: "BatchNorm"
  bottom: "res3b_branch2c"
  top: "res3b_branch2c"
  batch_norm_param {
    use_global_stats: true
  }
}
layer {
  name: "scale3b_branch2c"
  type: "Scale"
  bottom: "res3b_branch2c"
  top: "res3b_branch2c"
  scale_param {
    bias_term: true
  }
}
layer {
  name: "res3b"
  type: "Eltwise"
  bottom: "res3a"
  bottom: "res3b_branch2c"
  top: "res3b"
}
layer {
  name: "res3b_relu"
  type: "ReLU"
  bottom: "res3b"
  top: "res3b"
}
layer {
  name: "res3c_branch2a"
  type: "Convolution"
  bottom: "res3b"
  top: "res3c_branch2a"
  convolution_param {
    num_output: 128
    bias_term: false
    pad: 0
    kernel_size: 1
    stride: 1
  }
}
layer {
  name: "bn3c_branch2a"
  type: "BatchNorm"
  bottom: "res3c_branch2a"
  top: "res3c_branch2a"
  batch_norm_param {
    use_global_stats: true
  }
}
layer {
  name: "scale3c_branch2a"
  type: "Scale"
  bottom: "res3c_branch2a"
  top: "res3c_branch2a"
  scale_param {
    bias_term: true
  }
}
layer {
  name: "res3c_branch2a_relu"
  type: "ReLU"
  bottom: "res3c_branch2a"
  top: "res3c_branch2a"
}
layer {
  name: "res3c_branch2b"
  type: "Convolution"
  bottom: "res3c_branch2a"
  top: "res3c_branch2b"
  convolution_param {
    num_output: 128
    bias_term: false
    pad: 1
    kernel_size: 3
    stride: 1
  }
}
layer {
  name: "bn3c_branch2b"
  type: "BatchNorm"
  bottom: "res3c_branch2b"
  top: "res3c_branch2b"
  batch_norm_param {
    use_global_stats: true
  }
}
layer {
  name: "scale3c_branch2b"
  type: "Scale"
  bottom: "res3c_branch2b"
  top: "res3c_branch2b"
  scale_param {
    bias_term: true
  }
}
layer {
  name: "res3c_branch2b_relu"
  type: "ReLU"
  bottom: "res3c_branch2b"
  top: "res3c_branch2b"
}
layer {
  name: "res3c_branch2c"
  type: "Convolution"
  bottom: "res3c_branch2b"
  top: "res3c_branch2c"
  convolution_param {
    num_output: 512
    bias_term: false
    pad: 0
    kernel_size: 1
    stride: 1
  }
}
layer {
  name: "bn3c_branch2c"
  type: "BatchNorm"
  bottom: "res3c_branch2c"
  top: "res3c_branch2c"
  batch_norm_param {
    use_global_stats: true
  }
}
layer {
  name: "scale3c_branch2c"
  type: "Scale"
  bottom: "res3c_branch2c"
  top: "res3c_branch2c"
  scale_param {
    bias_term: true
  }
}
layer {
  name: "res3c"
  type: "Eltwise"
  bottom: "res3b"
  bottom: "res3c_branch2c"
  top: "res3c"
}
layer {
  name: "res3c_relu"
  type: "ReLU"
  bottom: "res3c"
  top: "res3c"
}
layer {
  name: "res3d_branch2a"
  type: "Convolution"
  bottom: "res3c"
  top: "res3d_branch2a"
  convolution_param {
    num_output: 128
    bias_term: false
    pad: 0
    kernel_size: 1
    stride: 1
  }
}
layer {
  name: "bn3d_branch2a"
  type: "BatchNorm"
  bottom: "res3d_branch2a"
  top: "res3d_branch2a"
  batch_norm_param {
    use_global_stats: true
  }
}
layer {
  name: "scale3d_branch2a"
  type: "Scale"
  bottom: "res3d_branch2a"
  top: "res3d_branch2a"
  scale_param {
    bias_term: true
  }
}
layer {
  name: "res3d_branch2a_relu"
  type: "ReLU"
  bottom: "res3d_branch2a"
  top: "res3d_branch2a"
}
layer {
  name: "res3d_branch2b"
  type: "Convolution"
  bottom: "res3d_branch2a"
  top: "res3d_branch2b"
  convolution_param {
    num_output: 128
    bias_term: false
    pad: 1
    kernel_size: 3
    stride: 1
  }
}
layer {
  name: "bn3d_branch2b"
  type: "BatchNorm"
  bottom: "res3d_branch2b"
  top: "res3d_branch2b"
  batch_norm_param {
    use_global_stats: true
  }
}
layer {
  name: "scale3d_branch2b"
  type: "Scale"
  bottom: "res3d_branch2b"
  top: "res3d_branch2b"
  scale_param {
    bias_term: true
  }
}
layer {
  name: "res3d_branch2b_relu"
  type: "ReLU"
  bottom: "res3d_branch2b"
  top: "res3d_branch2b"
}
layer {
  name: "res3d_branch2c"
  type: "Convolution"
  bottom: "res3d_branch2b"
  top: "res3d_branch2c"
  convolution_param {
    num_output: 512
    bias_term: false
    pad: 0
    kernel_size: 1
    stride: 1
  }
}
layer {
  name: "bn3d_branch2c"
  type: "BatchNorm"
  bottom: "res3d_branch2c"
  top: "res3d_branch2c"
  batch_norm_param {
    use_global_stats: true
  }
}
layer {
  name: "scale3d_branch2c"
  type: "Scale"
  bottom: "res3d_branch2c"
  top: "res3d_branch2c"
  scale_param {
    bias_term: true
  }
}
layer {
  name: "res3d"
  type: "Eltwise"
  bottom: "res3c"
  bottom: "res3d_branch2c"
  top: "res3d"
}
layer {
  name: "res3d_relu"
  type: "ReLU"
  bottom: "res3d"
  top: "res3d"
}
layer {
  name: "res4a_branch1"
  type: "Convolution"
  bottom: "res3d"
  top: "res4a_branch1"
  convolution_param {
    num_output: 1024
    bias_term: false
    pad: 0
    kernel_size: 1
    stride: 2
  }
}
layer {
  name: "bn4a_branch1"
  type: "BatchNorm"
  bottom: "res4a_branch1"
  top: "res4a_branch1"
  batch_norm_param {
    use_global_stats: true
  }
}
layer {
  name: "scale4a_branch1"
  type: "Scale"
  bottom: "res4a_branch1"
  top: "res4a_branch1"
  scale_param {
    bias_term: true
  }
}
layer {
  name: "res4a_branch2a"
  type: "Convolution"
  bottom: "res3d"
  top: "res4a_branch2a"
  convolution_param {
    num_output: 256
    bias_term: false
    pad: 0
    kernel_size: 1
    stride: 2
  }
}
layer {
  name: "bn4a_branch2a"
  type: "BatchNorm"
  bottom: "res4a_branch2a"
  top: "res4a_branch2a"
  batch_norm_param {
    use_global_stats: true
  }
}
layer {
  name: "scale4a_branch2a"
  type: "Scale"
  bottom: "res4a_branch2a"
  top: "res4a_branch2a"
  scale_param {
    bias_term: true
  }
}
layer {
  name: "res4a_branch2a_relu"
  type: "ReLU"
  bottom: "res4a_branch2a"
  top: "res4a_branch2a"
}
layer {
  name: "res4a_branch2b"
  type: "Convolution"
  bottom: "res4a_branch2a"
  top: "res4a_branch2b"
  convolution_param {
    num_output: 256
    bias_term: false
    pad: 1
    kernel_size: 3
    stride: 1
  }
}
layer {
  name: "bn4a_branch2b"
  type: "BatchNorm"
  bottom: "res4a_branch2b"
  top: "res4a_branch2b"
  batch_norm_param {
    use_global_stats: true
  }
}
layer {
  name: "scale4a_branch2b"
  type: "Scale"
  bottom: "res4a_branch2b"
  top: "res4a_branch2b"
  scale_param {
    bias_term: true
  }
}
layer {
  name: "res4a_branch2b_relu"
  type: "ReLU"
  bottom: "res4a_branch2b"
  top: "res4a_branch2b"
}
layer {
  name: "res4a_branch2c"
  type: "Convolution"
  bottom: "res4a_branch2b"
  top: "res4a_branch2c"
  convolution_param {
    num_output: 1024
    bias_term: false
    pad: 0
    kernel_size: 1
    stride: 1
  }
}
layer {
  name: "bn4a_branch2c"
  type: "BatchNorm"
  bottom: "res4a_branch2c"
  top: "res4a_branch2c"
  batch_norm_param {
    use_global_stats: true
  }
}
layer {
  name: "scale4a_branch2c"
  type: "Scale"
  bottom: "res4a_branch2c"
  top: "res4a_branch2c"
  scale_param {
    bias_term: true
  }
}
layer {
  name: "res4a"
  type: "Eltwise"
  bottom: "res4a_branch1"
  bottom: "res4a_branch2c"
  top: "res4a"
}
layer {
  name: "res4a_relu"
  type: "ReLU"
  bottom: "res4a"
  top: "res4a"
}
layer {
  name: "res4b_branch2a"
  type: "Convolution"
  bottom: "res4a"
  top: "res4b_branch2a"
  convolution_param {
    num_output: 256
    bias_term: false
    pad: 0
    kernel_size: 1
    stride: 1
  }
}
layer {
  name: "bn4b_branch2a"
  type: "BatchNorm"
  bottom: "res4b_branch2a"
  top: "res4b_branch2a"
  batch_norm_param {
    use_global_stats: true
  }
}
layer {
  name: "scale4b_branch2a"
  type: "Scale"
  bottom: "res4b_branch2a"
  top: "res4b_branch2a"
  scale_param {
    bias_term: true
  }
}
layer {
  name: "res4b_branch2a_relu"
  type: "ReLU"
  bottom: "res4b_branch2a"
  top: "res4b_branch2a"
}
layer {
  name: "res4b_branch2b"
  type: "Convolution"
  bottom: "res4b_branch2a"
  top: "res4b_branch2b"
  convolution_param {
    num_output: 256
    bias_term: false
    pad: 1
    kernel_size: 3
    stride: 1
  }
}
layer {
  name: "bn4b_branch2b"
  type: "BatchNorm"
  bottom: "res4b_branch2b"
  top: "res4b_branch2b"
  batch_norm_param {
    use_global_stats: true
  }
}
layer {
  name: "scale4b_branch2b"
  type: "Scale"
  bottom: "res4b_branch2b"
  top: "res4b_branch2b"
  scale_param {
    bias_term: true
  }
}
layer {
  name: "res4b_branch2b_relu"
  type: "ReLU"
  bottom: "res4b_branch2b"
  top: "res4b_branch2b"
}
layer {
  name: "res4b_branch2c"
  type: "Convolution"
  bottom: "res4b_branch2b"
  top: "res4b_branch2c"
  convolution_param {
    num_output: 1024
    bias_term: false
    pad: 0
    kernel_size: 1
    stride: 1
  }
}
layer {
  name: "bn4b_branch2c"
  type: "BatchNorm"
  bottom: "res4b_branch2c"
  top: "res4b_branch2c"
  batch_norm_param {
    use_global_stats: true
  }
}
layer {
  name: "scale4b_branch2c"
  type: "Scale"
  bottom: "res4b_branch2c"
  top: "res4b_branch2c"
  scale_param {
    bias_term: true
  }
}
layer {
  name: "res4b"
  type: "Eltwise"
  bottom: "res4a"
  bottom: "res4b_branch2c"
  top: "res4b"
}
layer {
  name: "res4b_relu"
  type: "ReLU"
  bottom: "res4b"
  top: "res4b"
}
layer {
  name: "res4c_branch2a"
  type: "Convolution"
  bottom: "res4b"
  top: "res4c_branch2a"
  convolution_param {
    num_output: 256
    bias_term: false
    pad: 0
    kernel_size: 1
    stride: 1
  }
}
layer {
  name: "bn4c_branch2a"
  type: "BatchNorm"
  bottom: "res4c_branch2a"
  top: "res4c_branch2a"
  batch_norm_param {
    use_global_stats: true
  }
}
layer {
  name: "scale4c_branch2a"
  type: "Scale"
  bottom: "res4c_branch2a"
  top: "res4c_branch2a"
  scale_param {
    bias_term: true
  }
}
layer {
  name: "res4c_branch2a_relu"
  type: "ReLU"
  bottom: "res4c_branch2a"
  top: "res4c_branch2a"
}
layer {
  name: "res4c_branch2b"
  type: "Convolution"
  bottom: "res4c_branch2a"
  top: "res4c_branch2b"
  convolution_param {
    num_output: 256
    bias_term: false
    pad: 1
    kernel_size: 3
    stride: 1
  }
}
layer {
  name: "bn4c_branch2b"
  type: "BatchNorm"
  bottom: "res4c_branch2b"
  top: "res4c_branch2b"
  batch_norm_param {
    use_global_stats: true
  }
}
layer {
  name: "scale4c_branch2b"
  type: "Scale"
  bottom: "res4c_branch2b"
  top: "res4c_branch2b"
  scale_param {
    bias_term: true
  }
}
layer {
  name: "res4c_branch2b_relu"
  type: "ReLU"
  bottom: "res4c_branch2b"
  top: "res4c_branch2b"
}
layer {
  name: "res4c_branch2c"
  type: "Convolution"
  bottom: "res4c_branch2b"
  top: "res4c_branch2c"
  convolution_param {
    num_output: 1024
    bias_term: false
    pad: 0
    kernel_size: 1
    stride: 1
  }
}
layer {
  name: "bn4c_branch2c"
  type: "BatchNorm"
  bottom: "res4c_branch2c"
  top: "res4c_branch2c"
  batch_norm_param {
    use_global_stats: true
  }
}
layer {
  name: "scale4c_branch2c"
  type: "Scale"
  bottom: "res4c_branch2c"
  top: "res4c_branch2c"
  scale_param {
    bias_term: true
  }
}
layer {
  name: "res4c"
  type: "Eltwise"
  bottom: "res4b"
  bottom: "res4c_branch2c"
  top: "res4c"
}
layer {
  name: "res4c_relu"
  type: "ReLU"
  bottom: "res4c"
  top: "res4c"
}
layer {
  name: "res4d_branch2a"
  type: "Convolution"
  bottom: "res4c"
  top: "res4d_branch2a"
  convolution_param {
    num_output: 256
    bias_term: false
    pad: 0
    kernel_size: 1
    stride: 1
  }
}
layer {
  name: "bn4d_branch2a"
  type: "BatchNorm"
  bottom: "res4d_branch2a"
  top: "res4d_branch2a"
  batch_norm_param {
    use_global_stats: true
  }
}
layer {
  name: "scale4d_branch2a"
  type: "Scale"
  bottom: "res4d_branch2a"
  top: "res4d_branch2a"
  scale_param {
    bias_term: true
  }
}
layer {
  name: "res4d_branch2a_relu"
  type: "ReLU"
  bottom: "res4d_branch2a"
  top: "res4d_branch2a"
}
layer {
  name: "res4d_branch2b"
  type: "Convolution"
  bottom: "res4d_branch2a"
  top: "res4d_branch2b"
  convolution_param {
    num_output: 256
    bias_term: false
    pad: 1
    kernel_size: 3
    stride: 1
  }
}
layer {
  name: "bn4d_branch2b"
  type: "BatchNorm"
  bottom: "res4d_branch2b"
  top: "res4d_branch2b"
  batch_norm_param {
    use_global_stats: true
  }
}
layer {
  name: "scale4d_branch2b"
  type: "Scale"
  bottom: "res4d_branch2b"
  top: "res4d_branch2b"
  scale_param {
    bias_term: true
  }
}
layer {
  name: "res4d_branch2b_relu"
  type: "ReLU"
  bottom: "res4d_branch2b"
  top: "res4d_branch2b"
}
layer {
  name: "res4d_branch2c"
  type: "Convolution"
  bottom: "res4d_branch2b"
  top: "res4d_branch2c"
  convolution_param {
    num_output: 1024
    bias_term: false
    pad: 0
    kernel_size: 1
    stride: 1
  }
}
layer {
  name: "bn4d_branch2c"
  type: "BatchNorm"
  bottom: "res4d_branch2c"
  top: "res4d_branch2c"
  batch_norm_param {
    use_global_stats: true
  }
}
layer {
  name: "scale4d_branch2c"
  type: "Scale"
  bottom: "res4d_branch2c"
  top: "res4d_branch2c"
  scale_param {
    bias_term: true
  }
}
layer {
  name: "res4d"
  type: "Eltwise"
  bottom: "res4c"
  bottom: "res4d_branch2c"
  top: "res4d"
}
layer {
  name: "res4d_relu"
  type: "ReLU"
  bottom: "res4d"
  top: "res4d"
}
layer {
  name: "res4e_branch2a"
  type: "Convolution"
  bottom: "res4d"
  top: "res4e_branch2a"
  convolution_param {
    num_output: 256
    bias_term: false
    pad: 0
    kernel_size: 1
    stride: 1
  }
}
layer {
  name: "bn4e_branch2a"
  type: "BatchNorm"
  bottom: "res4e_branch2a"
  top: "res4e_branch2a"
  batch_norm_param {
    use_global_stats: true
  }
}
layer {
  name: "scale4e_branch2a"
  type: "Scale"
  bottom: "res4e_branch2a"
  top: "res4e_branch2a"
  scale_param {
    bias_term: true
  }
}
layer {
  name: "res4e_branch2a_relu"
  type: "ReLU"
  bottom: "res4e_branch2a"
  top: "res4e_branch2a"
}
layer {
  name: "res4e_branch2b"
  type: "Convolution"
  bottom: "res4e_branch2a"
  top: "res4e_branch2b"
  convolution_param {
    num_output: 256
    bias_term: false
    pad: 1
    kernel_size: 3
    stride: 1
  }
}
layer {
  name: "bn4e_branch2b"
  type: "BatchNorm"
  bottom: "res4e_branch2b"
  top: "res4e_branch2b"
  batch_norm_param {
    use_global_stats: true
  }
}
layer {
  name: "scale4e_branch2b"
  type: "Scale"
  bottom: "res4e_branch2b"
  top: "res4e_branch2b"
  scale_param {
    bias_term: true
  }
}
layer {
  name: "res4e_branch2b_relu"
  type: "ReLU"
  bottom: "res4e_branch2b"
  top: "res4e_branch2b"
}
layer {
  name: "res4e_branch2c"
  type: "Convolution"
  bottom: "res4e_branch2b"
  top: "res4e_branch2c"
  convolution_param {
    num_output: 1024
    bias_term: false
    pad: 0
    kernel_size: 1
    stride: 1
  }
}
layer {
  name: "bn4e_branch2c"
  type: "BatchNorm"
  bottom: "res4e_branch2c"
  top: "res4e_branch2c"
  batch_norm_param {
    use_global_stats: true
  }
}
layer {
  name: "scale4e_branch2c"
  type: "Scale"
  bottom: "res4e_branch2c"
  top: "res4e_branch2c"
  scale_param {
    bias_term: true
  }
}
layer {
  name: "res4e"
  type: "Eltwise"
  bottom: "res4d"
  bottom: "res4e_branch2c"
  top: "res4e"
}
layer {
  name: "res4e_relu"
  type: "ReLU"
  bottom: "res4e"
  top: "res4e"
}
layer {
  name: "res4f_branch2a"
  type: "Convolution"
  bottom: "res4e"
  top: "res4f_branch2a"
  convolution_param {
    num_output: 256
    bias_term: false
    pad: 0
    kernel_size: 1
    stride: 1
  }
}
layer {
  name: "bn4f_branch2a"
  type: "BatchNorm"
  bottom: "res4f_branch2a"
  top: "res4f_branch2a"
  batch_norm_param {
    use_global_stats: true
  }
}
layer {
  name: "scale4f_branch2a"
  type: "Scale"
  bottom: "res4f_branch2a"
  top: "res4f_branch2a"
  scale_param {
    bias_term: true
  }
}
layer {
  name: "res4f_branch2a_relu"
  type: "ReLU"
  bottom: "res4f_branch2a"
  top: "res4f_branch2a"
}
layer {
  name: "res4f_branch2b"
  type: "Convolution"
  bottom: "res4f_branch2a"
  top: "res4f_branch2b"
  convolution_param {
    num_output: 256
    bias_term: false
    pad: 1
    kernel_size: 3
    stride: 1
  }
}
layer {
  name: "bn4f_branch2b"
  type: "BatchNorm"
  bottom: "res4f_branch2b"
  top: "res4f_branch2b"
  batch_norm_param {
    use_global_stats: true
  }
}
layer {
  name: "scale4f_branch2b"
  type: "Scale"
  bottom: "res4f_branch2b"
  top: "res4f_branch2b"
  scale_param {
    bias_term: true
  }
}
layer {
  name: "res4f_branch2b_relu"
  type: "ReLU"
  bottom: "res4f_branch2b"
  top: "res4f_branch2b"
}
layer {
  name: "res4f_branch2c"
  type: "Convolution"
  bottom: "res4f_branch2b"
  top: "res4f_branch2c"
  convolution_param {
    num_output: 1024
    bias_term: false
    pad: 0
    kernel_size: 1
    stride: 1
  }
}
layer {
  name: "bn4f_branch2c"
  type: "BatchNorm"
  bottom: "res4f_branch2c"
  top: "res4f_branch2c"
  batch_norm_param {
    use_global_stats: true
  }
}
layer {
  name: "scale4f_branch2c"
  type: "Scale"
  bottom: "res4f_branch2c"
  top: "res4f_branch2c"
  scale_param {
    bias_term: true
  }
}
layer {
  name: "res4f"
  type: "Eltwise"
  bottom: "res4e"
  bottom: "res4f_branch2c"
  top: "res4f"
}
layer {
  name: "res4f_relu"
  type: "ReLU"
  bottom: "res4f"
  top: "res4f"
}
layer {
  name: "res5a_branch1"
  type: "Convolution"
  bottom: "res4f"
  top: "res5a_branch1"
  convolution_param {
    num_output: 2048
    bias_term: false
    pad: 0
    kernel_size: 1
    stride: 2
  }
}
layer {
  name: "bn5a_branch1"
  type: "BatchNorm"
  bottom: "res5a_branch1"
  top: "res5a_branch1"
  batch_norm_param {
    use_global_stats: true
  }
}
layer {
  name: "scale5a_branch1"
  type: "Scale"
  bottom: "res5a_branch1"
  top: "res5a_branch1"
  scale_param {
    bias_term: true
  }
}
layer {
  name: "res5a_branch2a"
  type: "Convolution"
  bottom: "res4f"
  top: "res5a_branch2a"
  convolution_param {
    num_output: 512
    bias_term: false
    pad: 0
    kernel_size: 1
    stride: 2
  }
}
layer {
  name: "bn5a_branch2a"
  type: "BatchNorm"
  bottom: "res5a_branch2a"
  top: "res5a_branch2a"
  batch_norm_param {
    use_global_stats: true
  }
}
layer {
  name: "scale5a_branch2a"
  type: "Scale"
  bottom: "res5a_branch2a"
  top: "res5a_branch2a"
  scale_param {
    bias_term: true
  }
}
layer {
  name: "res5a_branch2a_relu"
  type: "ReLU"
  bottom: "res5a_branch2a"
  top: "res5a_branch2a"
}
layer {
  name: "res5a_branch2b"
  type: "Convolution"
  bottom: "res5a_branch2a"
  top: "res5a_branch2b"
  convolution_param {
    num_output: 512
    bias_term: false
    pad: 1
    kernel_size: 3
    stride: 1
  }
}
layer {
  name: "bn5a_branch2b"
  type: "BatchNorm"
  bottom: "res5a_branch2b"
  top: "res5a_branch2b"
  batch_norm_param {
    use_global_stats: true
  }
}
layer {
  name: "scale5a_branch2b"
  type: "Scale"
  bottom: "res5a_branch2b"
  top: "res5a_branch2b"
  scale_param {
    bias_term: true
  }
}
layer {
  name: "res5a_branch2b_relu"
  type: "ReLU"
  bottom: "res5a_branch2b"
  top: "res5a_branch2b"
}
layer {
  name: "res5a_branch2c"
  type: "Convolution"
  bottom: "res5a_branch2b"
  top: "res5a_branch2c"
  convolution_param {
    num_output: 2048
    bias_term: false
    pad: 0
    kernel_size: 1
    stride: 1
  }
}
layer {
  name: "bn5a_branch2c"
  type: "BatchNorm"
  bottom: "res5a_b
I0117 06:44:51.265851  7678 layer_factory.hpp:77] Creating layer data
I0117 06:44:51.273057  7678 db_lmdb.cpp:35] Opened lmdb ../newFood724_TEST/newFood724_test_lmdb
I0117 06:44:51.273629  7678 net.cpp:84] Creating Layer data
I0117 06:44:51.273646  7678 net.cpp:380] data -> data
I0117 06:44:51.273676  7678 net.cpp:380] data -> label
I0117 06:44:51.273699  7678 data_transformer.cpp:25] Loading mean file from: ../newFood724_TEST/newFood724_aug_mean.binaryproto
I0117 06:44:51.319897  7678 data_layer.cpp:45] output data size: 16,3,224,224
I0117 06:44:51.364257  7678 net.cpp:122] Setting up data
I0117 06:44:51.364296  7678 net.cpp:129] Top shape: 16 3 224 224 (2408448)
I0117 06:44:51.364307  7678 net.cpp:129] Top shape: 16 (16)
I0117 06:44:51.364313  7678 net.cpp:137] Memory required for data: 9633856
I0117 06:44:51.364326  7678 layer_factory.hpp:77] Creating layer label_data_1_split
I0117 06:44:51.364364  7678 net.cpp:84] Creating Layer label_data_1_split
I0117 06:44:51.364377  7678 net.cpp:406] label_data_1_split <- label
I0117 06:44:51.364395  7678 net.cpp:380] label_data_1_split -> label_data_1_split_0
I0117 06:44:51.364415  7678 net.cpp:380] label_data_1_split -> label_data_1_split_1
I0117 06:44:51.364428  7678 net.cpp:380] label_data_1_split -> label_data_1_split_2
I0117 06:44:51.364531  7678 net.cpp:122] Setting up label_data_1_split
I0117 06:44:51.364543  7678 net.cpp:129] Top shape: 16 (16)
I0117 06:44:51.364550  7678 net.cpp:129] Top shape: 16 (16)
I0117 06:44:51.364557  7678 net.cpp:129] Top shape: 16 (16)
I0117 06:44:51.364562  7678 net.cpp:137] Memory required for data: 9634048
I0117 06:44:51.364568  7678 layer_factory.hpp:77] Creating layer conv1
I0117 06:44:51.364595  7678 net.cpp:84] Creating Layer conv1
I0117 06:44:51.364603  7678 net.cpp:406] conv1 <- data
I0117 06:44:51.364614  7678 net.cpp:380] conv1 -> conv1
I0117 06:44:51.734465  7678 net.cpp:122] Setting up conv1
I0117 06:44:51.734505  7678 net.cpp:129] Top shape: 16 64 112 112 (12845056)
I0117 06:44:51.734519  7678 net.cpp:137] Memory required for data: 61014272
I0117 06:44:51.734566  7678 layer_factory.hpp:77] Creating layer bn_conv1
I0117 06:44:51.734598  7678 net.cpp:84] Creating Layer bn_conv1
I0117 06:44:51.734606  7678 net.cpp:406] bn_conv1 <- conv1
I0117 06:44:51.734618  7678 net.cpp:367] bn_conv1 -> conv1 (in-place)
I0117 06:44:51.734874  7678 net.cpp:122] Setting up bn_conv1
I0117 06:44:51.734886  7678 net.cpp:129] Top shape: 16 64 112 112 (12845056)
I0117 06:44:51.734894  7678 net.cpp:137] Memory required for data: 112394496
I0117 06:44:51.734921  7678 layer_factory.hpp:77] Creating layer scale_conv1
I0117 06:44:51.734966  7678 net.cpp:84] Creating Layer scale_conv1
I0117 06:44:51.734998  7678 net.cpp:406] scale_conv1 <- conv1
I0117 06:44:51.735009  7678 net.cpp:367] scale_conv1 -> conv1 (in-place)
I0117 06:44:51.735071  7678 layer_factory.hpp:77] Creating layer scale_conv1
I0117 06:44:51.735247  7678 net.cpp:122] Setting up scale_conv1
I0117 06:44:51.735260  7678 net.cpp:129] Top shape: 16 64 112 112 (12845056)
I0117 06:44:51.735265  7678 net.cpp:137] Memory required for data: 163774720
I0117 06:44:51.735288  7678 layer_factory.hpp:77] Creating layer conv1_relu
I0117 06:44:51.735299  7678 net.cpp:84] Creating Layer conv1_relu
I0117 06:44:51.735306  7678 net.cpp:406] conv1_relu <- conv1
I0117 06:44:51.735314  7678 net.cpp:367] conv1_relu -> conv1 (in-place)
I0117 06:44:51.735539  7678 net.cpp:122] Setting up conv1_relu
I0117 06:44:51.735553  7678 net.cpp:129] Top shape: 16 64 112 112 (12845056)
I0117 06:44:51.735558  7678 net.cpp:137] Memory required for data: 215154944
I0117 06:44:51.735564  7678 layer_factory.hpp:77] Creating layer pool1
I0117 06:44:51.735576  7678 net.cpp:84] Creating Layer pool1
I0117 06:44:51.735584  7678 net.cpp:406] pool1 <- conv1
I0117 06:44:51.735592  7678 net.cpp:380] pool1 -> pool1
I0117 06:44:51.735656  7678 net.cpp:122] Setting up pool1
I0117 06:44:51.735666  7678 net.cpp:129] Top shape: 16 64 56 56 (3211264)
I0117 06:44:51.735672  7678 net.cpp:137] Memory required for data: 228000000
I0117 06:44:51.735680  7678 layer_factory.hpp:77] Creating layer pool1_pool1_0_split
I0117 06:44:51.735690  7678 net.cpp:84] Creating Layer pool1_pool1_0_split
I0117 06:44:51.735697  7678 net.cpp:406] pool1_pool1_0_split <- pool1
I0117 06:44:51.735705  7678 net.cpp:380] pool1_pool1_0_split -> pool1_pool1_0_split_0
I0117 06:44:51.735718  7678 net.cpp:380] pool1_pool1_0_split -> pool1_pool1_0_split_1
I0117 06:44:51.735764  7678 net.cpp:122] Setting up pool1_pool1_0_split
I0117 06:44:51.735774  7678 net.cpp:129] Top shape: 16 64 56 56 (3211264)
I0117 06:44:51.735781  7678 net.cpp:129] Top shape: 16 64 56 56 (3211264)
I0117 06:44:51.735788  7678 net.cpp:137] Memory required for data: 253690112
I0117 06:44:51.735793  7678 layer_factory.hpp:77] Creating layer res2a_branch1
I0117 06:44:51.735808  7678 net.cpp:84] Creating Layer res2a_branch1
I0117 06:44:51.735815  7678 net.cpp:406] res2a_branch1 <- pool1_pool1_0_split_0
I0117 06:44:51.735823  7678 net.cpp:380] res2a_branch1 -> res2a_branch1
I0117 06:44:51.737257  7678 net.cpp:122] Setting up res2a_branch1
I0117 06:44:51.737277  7678 net.cpp:129] Top shape: 16 256 56 56 (12845056)
I0117 06:44:51.737284  7678 net.cpp:137] Memory required for data: 305070336
I0117 06:44:51.737294  7678 layer_factory.hpp:77] Creating layer bn2a_branch1
I0117 06:44:51.737308  7678 net.cpp:84] Creating Layer bn2a_branch1
I0117 06:44:51.737315  7678 net.cpp:406] bn2a_branch1 <- res2a_branch1
I0117 06:44:51.737325  7678 net.cpp:367] bn2a_branch1 -> res2a_branch1 (in-place)
I0117 06:44:51.739212  7678 net.cpp:122] Setting up bn2a_branch1
I0117 06:44:51.739231  7678 net.cpp:129] Top shape: 16 256 56 56 (12845056)
I0117 06:44:51.739238  7678 net.cpp:137] Memory required for data: 356450560
I0117 06:44:51.739259  7678 layer_factory.hpp:77] Creating layer scale2a_branch1
I0117 06:44:51.739274  7678 net.cpp:84] Creating Layer scale2a_branch1
I0117 06:44:51.739282  7678 net.cpp:406] scale2a_branch1 <- res2a_branch1
I0117 06:44:51.739293  7678 net.cpp:367] scale2a_branch1 -> res2a_branch1 (in-place)
I0117 06:44:51.739362  7678 layer_factory.hpp:77] Creating layer scale2a_branch1
I0117 06:44:51.739490  7678 net.cpp:122] Setting up scale2a_branch1
I0117 06:44:51.739500  7678 net.cpp:129] Top shape: 16 256 56 56 (12845056)
I0117 06:44:51.739506  7678 net.cpp:137] Memory required for data: 407830784
I0117 06:44:51.739516  7678 layer_factory.hpp:77] Creating layer res2a_branch2a
I0117 06:44:51.739529  7678 net.cpp:84] Creating Layer res2a_branch2a
I0117 06:44:51.739537  7678 net.cpp:406] res2a_branch2a <- pool1_pool1_0_split_1
I0117 06:44:51.739547  7678 net.cpp:380] res2a_branch2a -> res2a_branch2a
I0117 06:44:51.741014  7678 net.cpp:122] Setting up res2a_branch2a
I0117 06:44:51.741055  7678 net.cpp:129] Top shape: 16 64 56 56 (3211264)
I0117 06:44:51.741065  7678 net.cpp:137] Memory required for data: 420675840
I0117 06:44:51.741081  7678 layer_factory.hpp:77] Creating layer bn2a_branch2a
I0117 06:44:51.741094  7678 net.cpp:84] Creating Layer bn2a_branch2a
I0117 06:44:51.741102  7678 net.cpp:406] bn2a_branch2a <- res2a_branch2a
I0117 06:44:51.741111  7678 net.cpp:367] bn2a_branch2a -> res2a_branch2a (in-place)
I0117 06:44:51.741343  7678 net.cpp:122] Setting up bn2a_branch2a
I0117 06:44:51.741354  7678 net.cpp:129] Top shape: 16 64 56 56 (3211264)
I0117 06:44:51.741360  7678 net.cpp:137] Memory required for data: 433520896
I0117 06:44:51.741379  7678 layer_factory.hpp:77] Creating layer scale2a_branch2a
I0117 06:44:51.741389  7678 net.cpp:84] Creating Layer scale2a_branch2a
I0117 06:44:51.741397  7678 net.cpp:406] scale2a_branch2a <- res2a_branch2a
I0117 06:44:51.741412  7678 net.cpp:367] scale2a_branch2a -> res2a_branch2a (in-place)
I0117 06:44:51.741466  7678 layer_factory.hpp:77] Creating layer scale2a_branch2a
I0117 06:44:51.741605  7678 net.cpp:122] Setting up scale2a_branch2a
I0117 06:44:51.741616  7678 net.cpp:129] Top shape: 16 64 56 56 (3211264)
I0117 06:44:51.741622  7678 net.cpp:137] Memory required for data: 446365952
I0117 06:44:51.741633  7678 layer_factory.hpp:77] Creating layer res2a_branch2a_relu
I0117 06:44:51.741643  7678 net.cpp:84] Creating Layer res2a_branch2a_relu
I0117 06:44:51.741652  7678 net.cpp:406] res2a_branch2a_relu <- res2a_branch2a
I0117 06:44:51.741659  7678 net.cpp:367] res2a_branch2a_relu -> res2a_branch2a (in-place)
I0117 06:44:51.741883  7678 net.cpp:122] Setting up res2a_branch2a_relu
I0117 06:44:51.741895  7678 net.cpp:129] Top shape: 16 64 56 56 (3211264)
I0117 06:44:51.741901  7678 net.cpp:137] Memory required for data: 459211008
I0117 06:44:51.741907  7678 layer_factory.hpp:77] Creating layer res2a_branch2b
I0117 06:44:51.741919  7678 net.cpp:84] Creating Layer res2a_branch2b
I0117 06:44:51.741927  7678 net.cpp:406] res2a_branch2b <- res2a_branch2a
I0117 06:44:51.741937  7678 net.cpp:380] res2a_branch2b -> res2a_branch2b
I0117 06:44:51.745050  7678 net.cpp:122] Setting up res2a_branch2b
I0117 06:44:51.745071  7678 net.cpp:129] Top shape: 16 64 56 56 (3211264)
I0117 06:44:51.745077  7678 net.cpp:137] Memory required for data: 472056064
I0117 06:44:51.745088  7678 layer_factory.hpp:77] Creating layer bn2a_branch2b
I0117 06:44:51.745110  7678 net.cpp:84] Creating Layer bn2a_branch2b
I0117 06:44:51.745118  7678 net.cpp:406] bn2a_branch2b <- res2a_branch2b
I0117 06:44:51.745127  7678 net.cpp:367] bn2a_branch2b -> res2a_branch2b (in-place)
I0117 06:44:51.745354  7678 net.cpp:122] Setting up bn2a_branch2b
I0117 06:44:51.745365  7678 net.cpp:129] Top shape: 16 64 56 56 (3211264)
I0117 06:44:51.745371  7678 net.cpp:137] Memory required for data: 484901120
I0117 06:44:51.745384  7678 layer_factory.hpp:77] Creating layer scale2a_branch2b
I0117 06:44:51.745394  7678 net.cpp:84] Creating Layer scale2a_branch2b
I0117 06:44:51.745402  7678 net.cpp:406] scale2a_branch2b <- res2a_branch2b
I0117 06:44:51.745410  7678 net.cpp:367] scale2a_branch2b -> res2a_branch2b (in-place)
I0117 06:44:51.745463  7678 layer_factory.hpp:77] Creating layer scale2a_branch2b
I0117 06:44:51.745616  7678 net.cpp:122] Setting up scale2a_branch2b
I0117 06:44:51.745628  7678 net.cpp:129] Top shape: 16 64 56 56 (3211264)
I0117 06:44:51.745635  7678 net.cpp:137] Memory required for data: 497746176
I0117 06:44:51.745653  7678 layer_factory.hpp:77] Creating layer res2a_branch2b_relu
I0117 06:44:51.745662  7678 net.cpp:84] Creating Layer res2a_branch2b_relu
I0117 06:44:51.745671  7678 net.cpp:406] res2a_branch2b_relu <- res2a_branch2b
I0117 06:44:51.745679  7678 net.cpp:367] res2a_branch2b_relu -> res2a_branch2b (in-place)
I0117 06:44:51.745887  7678 net.cpp:122] Setting up res2a_branch2b_relu
I0117 06:44:51.745900  7678 net.cpp:129] Top shape: 16 64 56 56 (3211264)
I0117 06:44:51.745906  7678 net.cpp:137] Memory required for data: 510591232
I0117 06:44:51.745913  7678 layer_factory.hpp:77] Creating layer res2a_branch2c
I0117 06:44:51.745946  7678 net.cpp:84] Creating Layer res2a_branch2c
I0117 06:44:51.745954  7678 net.cpp:406] res2a_branch2c <- res2a_branch2b
I0117 06:44:51.745965  7678 net.cpp:380] res2a_branch2c -> res2a_branch2c
I0117 06:44:51.747537  7678 net.cpp:122] Setting up res2a_branch2c
I0117 06:44:51.747558  7678 net.cpp:129] Top shape: 16 256 56 56 (12845056)
I0117 06:44:51.747567  7678 net.cpp:137] Memory required for data: 561971456
I0117 06:44:51.747577  7678 layer_factory.hpp:77] Creating layer bn2a_branch2c
I0117 06:44:51.747591  7678 net.cpp:84] Creating Layer bn2a_branch2c
I0117 06:44:51.747599  7678 net.cpp:406] bn2a_branch2c <- res2a_branch2c
I0117 06:44:51.747611  7678 net.cpp:367] bn2a_branch2c -> res2a_branch2c (in-place)
I0117 06:44:51.747846  7678 net.cpp:122] Setting up bn2a_branch2c
I0117 06:44:51.747859  7678 net.cpp:129] Top shape: 16 256 56 56 (12845056)
I0117 06:44:51.747864  7678 net.cpp:137] Memory required for data: 613351680
I0117 06:44:51.747877  7678 layer_factory.hpp:77] Creating layer scale2a_branch2c
I0117 06:44:51.747887  7678 net.cpp:84] Creating Layer scale2a_branch2c
I0117 06:44:51.747895  7678 net.cpp:406] scale2a_branch2c <- res2a_branch2c
I0117 06:44:51.747902  7678 net.cpp:367] scale2a_branch2c -> res2a_branch2c (in-place)
I0117 06:44:51.747958  7678 layer_factory.hpp:77] Creating layer scale2a_branch2c
I0117 06:44:51.748106  7678 net.cpp:122] Setting up scale2a_branch2c
I0117 06:44:51.748116  7678 net.cpp:129] Top shape: 16 256 56 56 (12845056)
I0117 06:44:51.748121  7678 net.cpp:137] Memory required for data: 664731904
I0117 06:44:51.748132  7678 layer_factory.hpp:77] Creating layer res2a
I0117 06:44:51.748157  7678 net.cpp:84] Creating Layer res2a
I0117 06:44:51.748164  7678 net.cpp:406] res2a <- res2a_branch1
I0117 06:44:51.748172  7678 net.cpp:406] res2a <- res2a_branch2c
I0117 06:44:51.748185  7678 net.cpp:380] res2a -> res2a
I0117 06:44:51.748220  7678 net.cpp:122] Setting up res2a
I0117 06:44:51.748230  7678 net.cpp:129] Top shape: 16 256 56 56 (12845056)
I0117 06:44:51.748235  7678 net.cpp:137] Memory required for data: 716112128
I0117 06:44:51.748250  7678 layer_factory.hpp:77] Creating layer res2a_relu
I0117 06:44:51.748262  7678 net.cpp:84] Creating Layer res2a_relu
I0117 06:44:51.748268  7678 net.cpp:406] res2a_relu <- res2a
I0117 06:44:51.748278  7678 net.cpp:367] res2a_relu -> res2a (in-place)
I0117 06:44:51.748519  7678 net.cpp:122] Setting up res2a_relu
I0117 06:44:51.748533  7678 net.cpp:129] Top shape: 16 256 56 56 (12845056)
I0117 06:44:51.748538  7678 net.cpp:137] Memory required for data: 767492352
I0117 06:44:51.748544  7678 layer_factory.hpp:77] Creating layer res2a_res2a_relu_0_split
I0117 06:44:51.748553  7678 net.cpp:84] Creating Layer res2a_res2a_relu_0_split
I0117 06:44:51.748559  7678 net.cpp:406] res2a_res2a_relu_0_split <- res2a
I0117 06:44:51.748569  7678 net.cpp:380] res2a_res2a_relu_0_split -> res2a_res2a_relu_0_split_0
I0117 06:44:51.748584  7678 net.cpp:380] res2a_res2a_relu_0_split -> res2a_res2a_relu_0_split_1
I0117 06:44:51.748636  7678 net.cpp:122] Setting up res2a_res2a_relu_0_split
I0117 06:44:51.748646  7678 net.cpp:129] Top shape: 16 256 56 56 (12845056)
I0117 06:44:51.748653  7678 net.cpp:129] Top shape: 16 256 56 56 (12845056)
I0117 06:44:51.748659  7678 net.cpp:137] Memory required for data: 870252800
I0117 06:44:51.748666  7678 layer_factory.hpp:77] Creating layer res2b_branch2a
I0117 06:44:51.748679  7678 net.cpp:84] Creating Layer res2b_branch2a
I0117 06:44:51.748685  7678 net.cpp:406] res2b_branch2a <- res2a_res2a_relu_0_split_0
I0117 06:44:51.748703  7678 net.cpp:380] res2b_branch2a -> res2b_branch2a
I0117 06:44:51.750217  7678 net.cpp:122] Setting up res2b_branch2a
I0117 06:44:51.750239  7678 net.cpp:129] Top shape: 16 64 56 56 (3211264)
I0117 06:44:51.750252  7678 net.cpp:137] Memory required for data: 883097856
I0117 06:44:51.750272  7678 layer_factory.hpp:77] Creating layer bn2b_branch2a
I0117 06:44:51.750283  7678 net.cpp:84] Creating Layer bn2b_branch2a
I0117 06:44:51.750290  7678 net.cpp:406] bn2b_branch2a <- res2b_branch2a
I0117 06:44:51.750355  7678 net.cpp:367] bn2b_branch2a -> res2b_branch2a (in-place)
I0117 06:44:51.750602  7678 net.cpp:122] Setting up bn2b_branch2a
I0117 06:44:51.750624  7678 net.cpp:129] Top shape: 16 64 56 56 (3211264)
I0117 06:44:51.750630  7678 net.cpp:137] Memory required for data: 895942912
I0117 06:44:51.750653  7678 layer_factory.hpp:77] Creating layer scale2b_branch2a
I0117 06:44:51.750663  7678 net.cpp:84] Creating Layer scale2b_branch2a
I0117 06:44:51.750670  7678 net.cpp:406] scale2b_branch2a <- res2b_branch2a
I0117 06:44:51.750679  7678 net.cpp:367] scale2b_branch2a -> res2b_branch2a (in-place)
I0117 06:44:51.750736  7678 layer_factory.hpp:77] Creating layer scale2b_branch2a
I0117 06:44:51.750895  7678 net.cpp:122] Setting up scale2b_branch2a
I0117 06:44:51.750906  7678 net.cpp:129] Top shape: 16 64 56 56 (3211264)
I0117 06:44:51.750912  7678 net.cpp:137] Memory required for data: 908787968
I0117 06:44:51.750922  7678 layer_factory.hpp:77] Creating layer res2b_branch2a_relu
I0117 06:44:51.750936  7678 net.cpp:84] Creating Layer res2b_branch2a_relu
I0117 06:44:51.750942  7678 net.cpp:406] res2b_branch2a_relu <- res2b_branch2a
I0117 06:44:51.750950  7678 net.cpp:367] res2b_branch2a_relu -> res2b_branch2a (in-place)
I0117 06:44:51.751180  7678 net.cpp:122] Setting up res2b_branch2a_relu
I0117 06:44:51.751194  7678 net.cpp:129] Top shape: 16 64 56 56 (3211264)
I0117 06:44:51.751199  7678 net.cpp:137] Memory required for data: 921633024
I0117 06:44:51.751205  7678 layer_factory.hpp:77] Creating layer res2b_branch2b
I0117 06:44:51.751219  7678 net.cpp:84] Creating Layer res2b_branch2b
I0117 06:44:51.751226  7678 net.cpp:406] res2b_branch2b <- res2b_branch2a
I0117 06:44:51.751237  7678 net.cpp:380] res2b_branch2b -> res2b_branch2b
I0117 06:44:51.752760  7678 net.cpp:122] Setting up res2b_branch2b
I0117 06:44:51.752782  7678 net.cpp:129] Top shape: 16 64 56 56 (3211264)
I0117 06:44:51.752789  7678 net.cpp:137] Memory required for data: 934478080
I0117 06:44:51.752809  7678 layer_factory.hpp:77] Creating layer bn2b_branch2b
I0117 06:44:51.752831  7678 net.cpp:84] Creating Layer bn2b_branch2b
I0117 06:44:51.752840  7678 net.cpp:406] bn2b_branch2b <- res2b_branch2b
I0117 06:44:51.752848  7678 net.cpp:367] bn2b_branch2b -> res2b_branch2b (in-place)
I0117 06:44:51.753123  7678 net.cpp:122] Setting up bn2b_branch2b
I0117 06:44:51.753134  7678 net.cpp:129] Top shape: 16 64 56 56 (3211264)
I0117 06:44:51.753139  7678 net.cpp:137] Memory required for data: 947323136
I0117 06:44:51.753151  7678 layer_factory.hpp:77] Creating layer scale2b_branch2b
I0117 06:44:51.753162  7678 net.cpp:84] Creating Layer scale2b_branch2b
I0117 06:44:51.753170  7678 net.cpp:406] scale2b_branch2b <- res2b_branch2b
I0117 06:44:51.753180  7678 net.cpp:367] scale2b_branch2b -> res2b_branch2b (in-place)
I0117 06:44:51.753242  7678 layer_factory.hpp:77] Creating layer scale2b_branch2b
I0117 06:44:51.753402  7678 net.cpp:122] Setting up scale2b_branch2b
I0117 06:44:51.753413  7678 net.cpp:129] Top shape: 16 64 56 56 (3211264)
I0117 06:44:51.753427  7678 net.cpp:137] Memory required for data: 960168192
I0117 06:44:51.753437  7678 layer_factory.hpp:77] Creating layer res2b_branch2b_relu
I0117 06:44:51.753454  7678 net.cpp:84] Creating Layer res2b_branch2b_relu
I0117 06:44:51.753460  7678 net.cpp:406] res2b_branch2b_relu <- res2b_branch2b
I0117 06:44:51.753468  7678 net.cpp:367] res2b_branch2b_relu -> res2b_branch2b (in-place)
I0117 06:44:51.754303  7678 net.cpp:122] Setting up res2b_branch2b_relu
I0117 06:44:51.754330  7678 net.cpp:129] Top shape: 16 64 56 56 (3211264)
I0117 06:44:51.754338  7678 net.cpp:137] Memory required for data: 973013248
I0117 06:44:51.754344  7678 layer_factory.hpp:77] Creating layer res2b_branch2c
I0117 06:44:51.754359  7678 net.cpp:84] Creating Layer res2b_branch2c
I0117 06:44:51.754369  7678 net.cpp:406] res2b_branch2c <- res2b_branch2b
I0117 06:44:51.754382  7678 net.cpp:380] res2b_branch2c -> res2b_branch2c
I0117 06:44:51.755892  7678 net.cpp:122] Setting up res2b_branch2c
I0117 06:44:51.755914  7678 net.cpp:129] Top shape: 16 256 56 56 (12845056)
I0117 06:44:51.755942  7678 net.cpp:137] Memory required for data: 1024393472
I0117 06:44:51.755954  7678 layer_factory.hpp:77] Creating layer bn2b_branch2c
I0117 06:44:51.755966  7678 net.cpp:84] Creating Layer bn2b_branch2c
I0117 06:44:51.755975  7678 net.cpp:406] bn2b_branch2c <- res2b_branch2c
I0117 06:44:51.755986  7678 net.cpp:367] bn2b_branch2c -> res2b_branch2c (in-place)
I0117 06:44:51.756232  7678 net.cpp:122] Setting up bn2b_branch2c
I0117 06:44:51.756242  7678 net.cpp:129] Top shape: 16 256 56 56 (12845056)
I0117 06:44:51.756248  7678 net.cpp:137] Memory required for data: 1075773696
I0117 06:44:51.756268  7678 layer_factory.hpp:77] Creating layer scale2b_branch2c
I0117 06:44:51.756279  7678 net.cpp:84] Creating Layer scale2b_branch2c
I0117 06:44:51.756286  7678 net.cpp:406] scale2b_branch2c <- res2b_branch2c
I0117 06:44:51.756295  7678 net.cpp:367] scale2b_branch2c -> res2b_branch2c (in-place)
I0117 06:44:51.756350  7678 layer_factory.hpp:77] Creating layer scale2b_branch2c
I0117 06:44:51.756518  7678 net.cpp:122] Setting up scale2b_branch2c
I0117 06:44:51.756528  7678 net.cpp:129] Top shape: 16 256 56 56 (12845056)
I0117 06:44:51.756533  7678 net.cpp:137] Memory required for data: 1127153920
I0117 06:44:51.756544  7678 layer_factory.hpp:77] Creating layer res2b
I0117 06:44:51.756557  7678 net.cpp:84] Creating Layer res2b
I0117 06:44:51.756564  7678 net.cpp:406] res2b <- res2a_res2a_relu_0_split_1
I0117 06:44:51.756572  7678 net.cpp:406] res2b <- res2b_branch2c
I0117 06:44:51.756585  7678 net.cpp:380] res2b -> res2b
I0117 06:44:51.756636  7678 net.cpp:122] Setting up res2b
I0117 06:44:51.756645  7678 net.cpp:129] Top shape: 16 256 56 56 (12845056)
I0117 06:44:51.756651  7678 net.cpp:137] Memory required for data: 1178534144
I0117 06:44:51.756656  7678 layer_factory.hpp:77] Creating layer res2b_relu
I0117 06:44:51.756665  7678 net.cpp:84] Creating Layer res2b_relu
I0117 06:44:51.756672  7678 net.cpp:406] res2b_relu <- res2b
I0117 06:44:51.756682  7678 net.cpp:367] res2b_relu -> res2b (in-place)
I0117 06:44:51.756913  7678 net.cpp:122] Setting up res2b_relu
I0117 06:44:51.756927  7678 net.cpp:129] Top shape: 16 256 56 56 (12845056)
I0117 06:44:51.756932  7678 net.cpp:137] Memory required for data: 1229914368
I0117 06:44:51.756937  7678 layer_factory.hpp:77] Creating layer res2b_res2b_relu_0_split
I0117 06:44:51.756947  7678 net.cpp:84] Creating Layer res2b_res2b_relu_0_split
I0117 06:44:51.756953  7678 net.cpp:406] res2b_res2b_relu_0_split <- res2b
I0117 06:44:51.756965  7678 net.cpp:380] res2b_res2b_relu_0_split -> res2b_res2b_relu_0_split_0
I0117 06:44:51.756976  7678 net.cpp:380] res2b_res2b_relu_0_split -> res2b_res2b_relu_0_split_1
I0117 06:44:51.757031  7678 net.cpp:122] Setting up res2b_res2b_relu_0_split
I0117 06:44:51.757041  7678 net.cpp:129] Top shape: 16 256 56 56 (12845056)
I0117 06:44:51.757050  7678 net.cpp:129] Top shape: 16 256 56 56 (12845056)
I0117 06:44:51.757056  7678 net.cpp:137] Memory required for data: 1332674816
I0117 06:44:51.757061  7678 layer_factory.hpp:77] Creating layer res2c_branch2a
I0117 06:44:51.757076  7678 net.cpp:84] Creating Layer res2c_branch2a
I0117 06:44:51.757081  7678 net.cpp:406] res2c_branch2a <- res2b_res2b_relu_0_split_0
I0117 06:44:51.757092  7678 net.cpp:380] res2c_branch2a -> res2c_branch2a
I0117 06:44:51.758647  7678 net.cpp:122] Setting up res2c_branch2a
I0117 06:44:51.758669  7678 net.cpp:129] Top shape: 16 64 56 56 (3211264)
I0117 06:44:51.758677  7678 net.cpp:137] Memory required for data: 1345519872
I0117 06:44:51.758687  7678 layer_factory.hpp:77] Creating layer bn2c_branch2a
I0117 06:44:51.758700  7678 net.cpp:84] Creating Layer bn2c_branch2a
I0117 06:44:51.758708  7678 net.cpp:406] bn2c_branch2a <- res2c_branch2a
I0117 06:44:51.758718  7678 net.cpp:367] bn2c_branch2a -> res2c_branch2a (in-place)
I0117 06:44:51.758991  7678 net.cpp:122] Setting up bn2c_branch2a
I0117 06:44:51.759002  7678 net.cpp:129] Top shape: 16 64 56 56 (3211264)
I0117 06:44:51.759007  7678 net.cpp:137] Memory required for data: 1358364928
I0117 06:44:51.759044  7678 layer_factory.hpp:77] Creating layer scale2c_branch2a
I0117 06:44:51.759055  7678 net.cpp:84] Creating Layer scale2c_branch2a
I0117 06:44:51.759063  7678 net.cpp:406] scale2c_branch2a <- res2c_branch2a
I0117 06:44:51.759075  7678 net.cpp:367] scale2c_branch2a -> res2c_branch2a (in-place)
I0117 06:44:51.759133  7678 layer_factory.hpp:77] Creating layer scale2c_branch2a
I0117 06:44:51.759286  7678 net.cpp:122] Setting up scale2c_branch2a
I0117 06:44:51.759296  7678 net.cpp:129] Top shape: 16 64 56 56 (3211264)
I0117 06:44:51.759302  7678 net.cpp:137] Memory required for data: 1371209984
I0117 06:44:51.759312  7678 layer_factory.hpp:77] Creating layer res2c_branch2a_relu
I0117 06:44:51.759325  7678 net.cpp:84] Creating Layer res2c_branch2a_relu
I0117 06:44:51.759332  7678 net.cpp:406] res2c_branch2a_relu <- res2c_branch2a
I0117 06:44:51.759341  7678 net.cpp:367] res2c_branch2a_relu -> res2c_branch2a (in-place)
I0117 06:44:51.759570  7678 net.cpp:122] Setting up res2c_branch2a_relu
I0117 06:44:51.759583  7678 net.cpp:129] Top shape: 16 64 56 56 (3211264)
I0117 06:44:51.759593  7678 net.cpp:137] Memory required for data: 1384055040
I0117 06:44:51.759598  7678 layer_factory.hpp:77] Creating layer res2c_branch2b
I0117 06:44:51.759621  7678 net.cpp:84] Creating Layer res2c_branch2b
I0117 06:44:51.759629  7678 net.cpp:406] res2c_branch2b <- res2c_branch2a
I0117 06:44:51.759640  7678 net.cpp:380] res2c_branch2b -> res2c_branch2b
I0117 06:44:51.761262  7678 net.cpp:122] Setting up res2c_branch2b
I0117 06:44:51.761282  7678 net.cpp:129] Top shape: 16 64 56 56 (3211264)
I0117 06:44:51.761297  7678 net.cpp:137] Memory required for data: 1396900096
I0117 06:44:51.761307  7678 layer_factory.hpp:77] Creating layer bn2c_branch2b
I0117 06:44:51.761323  7678 net.cpp:84] Creating Layer bn2c_branch2b
I0117 06:44:51.761330  7678 net.cpp:406] bn2c_branch2b <- res2c_branch2b
I0117 06:44:51.761348  7678 net.cpp:367] bn2c_branch2b -> res2c_branch2b (in-place)
I0117 06:44:51.761602  7678 net.cpp:122] Setting up bn2c_branch2b
I0117 06:44:51.761613  7678 net.cpp:129] Top shape: 16 64 56 56 (3211264)
I0117 06:44:51.761618  7678 net.cpp:137] Memory required for data: 1409745152
I0117 06:44:51.761632  7678 layer_factory.hpp:77] Creating layer scale2c_branch2b
I0117 06:44:51.761642  7678 net.cpp:84] Creating Layer scale2c_branch2b
I0117 06:44:51.761651  7678 net.cpp:406] scale2c_branch2b <- res2c_branch2b
I0117 06:44:51.761658  7678 net.cpp:367] scale2c_branch2b -> res2c_branch2b (in-place)
I0117 06:44:51.761718  7678 layer_factory.hpp:77] Creating layer scale2c_branch2b
I0117 06:44:51.761870  7678 net.cpp:122] Setting up scale2c_branch2b
I0117 06:44:51.761881  7678 net.cpp:129] Top shape: 16 64 56 56 (3211264)
I0117 06:44:51.761886  7678 net.cpp:137] Memory required for data: 1422590208
I0117 06:44:51.761898  7678 layer_factory.hpp:77] Creating layer res2c_branch2b_relu
I0117 06:44:51.761910  7678 net.cpp:84] Creating Layer res2c_branch2b_relu
I0117 06:44:51.761917  7678 net.cpp:406] res2c_branch2b_relu <- res2c_branch2b
I0117 06:44:51.761924  7678 net.cpp:367] res2c_branch2b_relu -> res2c_branch2b (in-place)
I0117 06:44:51.762151  7678 net.cpp:122] Setting up res2c_branch2b_relu
I0117 06:44:51.762164  7678 net.cpp:129] Top shape: 16 64 56 56 (3211264)
I0117 06:44:51.762171  7678 net.cpp:137] Memory required for data: 1435435264
I0117 06:44:51.762176  7678 layer_factory.hpp:77] Creating layer res2c_branch2c
I0117 06:44:51.762189  7678 net.cpp:84] Creating Layer res2c_branch2c
I0117 06:44:51.762197  7678 net.cpp:406] res2c_branch2c <- res2c_branch2b
I0117 06:44:51.762208  7678 net.cpp:380] res2c_branch2c -> res2c_branch2c
I0117 06:44:51.763842  7678 net.cpp:122] Setting up res2c_branch2c
I0117 06:44:51.763864  7678 net.cpp:129] Top shape: 16 256 56 56 (12845056)
I0117 06:44:51.763870  7678 net.cpp:137] Memory required for data: 1486815488
I0117 06:44:51.763880  7678 layer_factory.hpp:77] Creating layer bn2c_branch2c
I0117 06:44:51.763897  7678 net.cpp:84] Creating Layer bn2c_branch2c
I0117 06:44:51.763906  7678 net.cpp:406] bn2c_branch2c <- res2c_branch2c
I0117 06:44:51.763953  7678 net.cpp:367] bn2c_branch2c -> res2c_branch2c (in-place)
I0117 06:44:51.764216  7678 net.cpp:122] Setting up bn2c_branch2c
I0117 06:44:51.764228  7678 net.cpp:129] Top shape: 16 256 56 56 (12845056)
I0117 06:44:51.764235  7678 net.cpp:137] Memory required for data: 1538195712
I0117 06:44:51.764261  7678 layer_factory.hpp:77] Creating layer scale2c_branch2c
I0117 06:44:51.764277  7678 net.cpp:84] Creating Layer scale2c_branch2c
I0117 06:44:51.764284  7678 net.cpp:406] scale2c_branch2c <- res2c_branch2c
I0117 06:44:51.764292  7678 net.cpp:367] scale2c_branch2c -> res2c_branch2c (in-place)
I0117 06:44:51.764350  7678 layer_factory.hpp:77] Creating layer scale2c_branch2c
I0117 06:44:51.764505  7678 net.cpp:122] Setting up scale2c_branch2c
I0117 06:44:51.764516  7678 net.cpp:129] Top shape: 16 256 56 56 (12845056)
I0117 06:44:51.764531  7678 net.cpp:137] Memory required for data: 1589575936
I0117 06:44:51.764542  7678 layer_factory.hpp:77] Creating layer res2c
I0117 06:44:51.764555  7678 net.cpp:84] Creating Layer res2c
I0117 06:44:51.764564  7678 net.cpp:406] res2c <- res2b_res2b_relu_0_split_1
I0117 06:44:51.764571  7678 net.cpp:406] res2c <- res2c_branch2c
I0117 06:44:51.764581  7678 net.cpp:380] res2c -> res2c
I0117 06:44:51.764618  7678 net.cpp:122] Setting up res2c
I0117 06:44:51.764628  7678 net.cpp:129] Top shape: 16 256 56 56 (12845056)
I0117 06:44:51.764633  7678 net.cpp:137] Memory required for data: 1640956160
I0117 06:44:51.764638  7678 layer_factory.hpp:77] Creating layer res2c_relu
I0117 06:44:51.764649  7678 net.cpp:84] Creating Layer res2c_relu
I0117 06:44:51.764657  7678 net.cpp:406] res2c_relu <- res2c
I0117 06:44:51.764667  7678 net.cpp:367] res2c_relu -> res2c (in-place)
I0117 06:44:51.764899  7678 net.cpp:122] Setting up res2c_relu
I0117 06:44:51.764911  7678 net.cpp:129] Top shape: 16 256 56 56 (12845056)
I0117 06:44:51.764916  7678 net.cpp:137] Memory required for data: 1692336384
I0117 06:44:51.764922  7678 layer_factory.hpp:77] Creating layer res2c_res2c_relu_0_split
I0117 06:44:51.764933  7678 net.cpp:84] Creating Layer res2c_res2c_relu_0_split
I0117 06:44:51.764941  7678 net.cpp:406] res2c_res2c_relu_0_split <- res2c
I0117 06:44:51.764950  7678 net.cpp:380] res2c_res2c_relu_0_split -> res2c_res2c_relu_0_split_0
I0117 06:44:51.764962  7678 net.cpp:380] res2c_res2c_relu_0_split -> res2c_res2c_relu_0_split_1
I0117 06:44:51.765019  7678 net.cpp:122] Setting up res2c_res2c_relu_0_split
I0117 06:44:51.765029  7678 net.cpp:129] Top shape: 16 256 56 56 (12845056)
I0117 06:44:51.765038  7678 net.cpp:129] Top shape: 16 256 56 56 (12845056)
I0117 06:44:51.765043  7678 net.cpp:137] Memory required for data: 1795096832
I0117 06:44:51.765049  7678 layer_factory.hpp:77] Creating layer res3a_branch1
I0117 06:44:51.765063  7678 net.cpp:84] Creating Layer res3a_branch1
I0117 06:44:51.765069  7678 net.cpp:406] res3a_branch1 <- res2c_res2c_relu_0_split_0
I0117 06:44:51.765077  7678 net.cpp:380] res3a_branch1 -> res3a_branch1
I0117 06:44:51.767568  7678 net.cpp:122] Setting up res3a_branch1
I0117 06:44:51.767588  7678 net.cpp:129] Top shape: 16 512 28 28 (6422528)
I0117 06:44:51.767596  7678 net.cpp:137] Memory required for data: 1820786944
I0117 06:44:51.767606  7678 layer_factory.hpp:77] Creating layer bn3a_branch1
I0117 06:44:51.767621  7678 net.cpp:84] Creating Layer bn3a_branch1
I0117 06:44:51.767627  7678 net.cpp:406] bn3a_branch1 <- res3a_branch1
I0117 06:44:51.767637  7678 net.cpp:367] bn3a_branch1 -> res3a_branch1 (in-place)
I0117 06:44:51.769582  7678 net.cpp:122] Setting up bn3a_branch1
I0117 06:44:51.769601  7678 net.cpp:129] Top shape: 16 512 28 28 (6422528)
I0117 06:44:51.769610  7678 net.cpp:137] Memory required for data: 1846477056
I0117 06:44:51.769624  7678 layer_factory.hpp:77] Creating layer scale3a_branch1
I0117 06:44:51.769636  7678 net.cpp:84] Creating Layer scale3a_branch1
I0117 06:44:51.769644  7678 net.cpp:406] scale3a_branch1 <- res3a_branch1
I0117 06:44:51.769660  7678 net.cpp:367] scale3a_branch1 -> res3a_branch1 (in-place)
I0117 06:44:51.769767  7678 layer_factory.hpp:77] Creating layer scale3a_branch1
I0117 06:44:51.769913  7678 net.cpp:122] Setting up scale3a_branch1
I0117 06:44:51.769925  7678 net.cpp:129] Top shape: 16 512 28 28 (6422528)
I0117 06:44:51.769930  7678 net.cpp:137] Memory required for data: 1872167168
I0117 06:44:51.769942  7678 layer_factory.hpp:77] Creating layer res3a_branch2a
I0117 06:44:51.769958  7678 net.cpp:84] Creating Layer res3a_branch2a
I0117 06:44:51.769963  7678 net.cpp:406] res3a_branch2a <- res2c_res2c_relu_0_split_1
I0117 06:44:51.769973  7678 net.cpp:380] res3a_branch2a -> res3a_branch2a
I0117 06:44:51.771579  7678 net.cpp:122] Setting up res3a_branch2a
I0117 06:44:51.771598  7678 net.cpp:129] Top shape: 16 128 28 28 (1605632)
I0117 06:44:51.771605  7678 net.cpp:137] Memory required for data: 1878589696
I0117 06:44:51.771620  7678 layer_factory.hpp:77] Creating layer bn3a_branch2a
I0117 06:44:51.771636  7678 net.cpp:84] Creating Layer bn3a_branch2a
I0117 06:44:51.771643  7678 net.cpp:406] bn3a_branch2a <- res3a_branch2a
I0117 06:44:51.771653  7678 net.cpp:367] bn3a_branch2a -> res3a_branch2a (in-place)
I0117 06:44:51.771916  7678 net.cpp:122] Setting up bn3a_branch2a
I0117 06:44:51.771927  7678 net.cpp:129] Top shape: 16 128 28 28 (1605632)
I0117 06:44:51.771934  7678 net.cpp:137] Memory required for data: 1885012224
I0117 06:44:51.771948  7678 layer_factory.hpp:77] Creating layer scale3a_branch2a
I0117 06:44:51.771961  7678 net.cpp:84] Creating Layer scale3a_branch2a
I0117 06:44:51.771967  7678 net.cpp:406] scale3a_branch2a <- res3a_branch2a
I0117 06:44:51.771980  7678 net.cpp:367] scale3a_branch2a -> res3a_branch2a (in-place)
I0117 06:44:51.772042  7678 layer_factory.hpp:77] Creating layer scale3a_branch2a
I0117 06:44:51.772207  7678 net.cpp:122] Setting up scale3a_branch2a
I0117 06:44:51.772218  7678 net.cpp:129] Top shape: 16 128 28 28 (1605632)
I0117 06:44:51.772223  7678 net.cpp:137] Memory required for data: 1891434752
I0117 06:44:51.772233  7678 layer_factory.hpp:77] Creating layer res3a_branch2a_relu
I0117 06:44:51.772244  7678 net.cpp:84] Creating Layer res3a_branch2a_relu
I0117 06:44:51.772251  7678 net.cpp:406] res3a_branch2a_relu <- res3a_branch2a
I0117 06:44:51.772263  7678 net.cpp:367] res3a_branch2a_relu -> res3a_branch2a (in-place)
I0117 06:44:51.773115  7678 net.cpp:122] Setting up res3a_branch2a_relu
I0117 06:44:51.773133  7678 net.cpp:129] Top shape: 16 128 28 28 (1605632)
I0117 06:44:51.773139  7678 net.cpp:137] Memory required for data: 1897857280
I0117 06:44:51.773145  7678 layer_factory.hpp:77] Creating layer res3a_branch2b
I0117 06:44:51.773165  7678 net.cpp:84] Creating Layer res3a_branch2b
I0117 06:44:51.773174  7678 net.cpp:406] res3a_branch2b <- res3a_branch2a
I0117 06:44:51.773183  7678 net.cpp:380] res3a_branch2b -> res3a_branch2b
I0117 06:44:51.775584  7678 net.cpp:122] Setting up res3a_branch2b
I0117 06:44:51.775604  7678 net.cpp:129] Top shape: 16 128 28 28 (1605632)
I0117 06:44:51.775610  7678 net.cpp:137] Memory required for data: 1904279808
I0117 06:44:51.775620  7678 layer_factory.hpp:77] Creating layer bn3a_branch2b
I0117 06:44:51.775636  7678 net.cpp:84] Creating Layer bn3a_branch2b
I0117 06:44:51.775643  7678 net.cpp:406] bn3a_branch2b <- res3a_branch2b
I0117 06:44:51.775661  7678 net.cpp:367] bn3a_branch2b -> res3a_branch2b (in-place)
I0117 06:44:51.775916  7678 net.cpp:122] Setting up bn3a_branch2b
I0117 06:44:51.775928  7678 net.cpp:129] Top shape: 16 128 28 28 (1605632)
I0117 06:44:51.775933  7678 net.cpp:137] Memory required for data: 1910702336
I0117 06:44:51.775949  7678 layer_factory.hpp:77] Creating layer scale3a_branch2b
I0117 06:44:51.775959  7678 net.cpp:84] Creating Layer scale3a_branch2b
I0117 06:44:51.775966  7678 net.cpp:406] scale3a_branch2b <- res3a_branch2b
I0117 06:44:51.775985  7678 net.cpp:367] scale3a_branch2b -> res3a_branch2b (in-place)
I0117 06:44:51.776038  7678 layer_factory.hpp:77] Creating layer scale3a_branch2b
I0117 06:44:51.776183  7678 net.cpp:122] Setting up scale3a_branch2b
I0117 06:44:51.776195  7678 net.cpp:129] Top shape: 16 128 28 28 (1605632)
I0117 06:44:51.776227  7678 net.cpp:137] Memory required for data: 1917124864
I0117 06:44:51.776240  7678 layer_factory.hpp:77] Creating layer res3a_branch2b_relu
I0117 06:44:51.776250  7678 net.cpp:84] Creating Layer res3a_branch2b_relu
I0117 06:44:51.776260  7678 net.cpp:406] res3a_branch2b_relu <- res3a_branch2b
I0117 06:44:51.776268  7678 net.cpp:367] res3a_branch2b_relu -> res3a_branch2b (in-place)
I0117 06:44:51.777076  7678 net.cpp:122] Setting up res3a_branch2b_relu
I0117 06:44:51.777096  7678 net.cpp:129] Top shape: 16 128 28 28 (1605632)
I0117 06:44:51.777101  7678 net.cpp:137] Memory required for data: 1923547392
I0117 06:44:51.777107  7678 layer_factory.hpp:77] Creating layer res3a_branch2c
I0117 06:44:51.777127  7678 net.cpp:84] Creating Layer res3a_branch2c
I0117 06:44:51.777137  7678 net.cpp:406] res3a_branch2c <- res3a_branch2b
I0117 06:44:51.777148  7678 net.cpp:380] res3a_branch2c -> res3a_branch2c
I0117 06:44:51.778149  7678 net.cpp:122] Setting up res3a_branch2c
I0117 06:44:51.778165  7678 net.cpp:129] Top shape: 16 512 28 28 (6422528)
I0117 06:44:51.778172  7678 net.cpp:137] Memory required for data: 1949237504
I0117 06:44:51.778185  7678 layer_factory.hpp:77] Creating layer bn3a_branch2c
I0117 06:44:51.778197  7678 net.cpp:84] Creating Layer bn3a_branch2c
I0117 06:44:51.778204  7678 net.cpp:406] bn3a_branch2c <- res3a_branch2c
I0117 06:44:51.778218  7678 net.cpp:367] bn3a_branch2c -> res3a_branch2c (in-place)
I0117 06:44:51.778477  7678 net.cpp:122] Setting up bn3a_branch2c
I0117 06:44:51.778489  7678 net.cpp:129] Top shape: 16 512 28 28 (6422528)
I0117 06:44:51.778496  7678 net.cpp:137] Memory required for data: 1974927616
I0117 06:44:51.778511  7678 layer_factory.hpp:77] Creating layer scale3a_branch2c
I0117 06:44:51.778523  7678 net.cpp:84] Creating Layer scale3a_branch2c
I0117 06:44:51.778530  7678 net.cpp:406] scale3a_branch2c <- res3a_branch2c
I0117 06:44:51.778539  7678 net.cpp:367] scale3a_branch2c -> res3a_branch2c (in-place)
I0117 06:44:51.778599  7678 layer_factory.hpp:77] Creating layer scale3a_branch2c
I0117 06:44:51.778744  7678 net.cpp:122] Setting up scale3a_branch2c
I0117 06:44:51.778755  7678 net.cpp:129] Top shape: 16 512 28 28 (6422528)
I0117 06:44:51.778760  7678 net.cpp:137] Memory required for data: 2000617728
I0117 06:44:51.778771  7678 layer_factory.hpp:77] Creating layer res3a
I0117 06:44:51.778790  7678 net.cpp:84] Creating Layer res3a
I0117 06:44:51.778798  7678 net.cpp:406] res3a <- res3a_branch1
I0117 06:44:51.778810  7678 net.cpp:406] res3a <- res3a_branch2c
I0117 06:44:51.778820  7678 net.cpp:380] res3a -> res3a
I0117 06:44:51.778861  7678 net.cpp:122] Setting up res3a
I0117 06:44:51.778872  7678 net.cpp:129] Top shape: 16 512 28 28 (6422528)
I0117 06:44:51.778880  7678 net.cpp:137] Memory required for data: 2026307840
I0117 06:44:51.778887  7678 layer_factory.hpp:77] Creating layer res3a_relu
I0117 06:44:51.778894  7678 net.cpp:84] Creating Layer res3a_relu
I0117 06:44:51.778901  7678 net.cpp:406] res3a_relu <- res3a
I0117 06:44:51.778909  7678 net.cpp:367] res3a_relu -> res3a (in-place)
I0117 06:44:51.779747  7678 net.cpp:122] Setting up res3a_relu
I0117 06:44:51.779765  7678 net.cpp:129] Top shape: 16 512 28 28 (6422528)
I0117 06:44:51.779772  7678 net.cpp:137] Memory required for data: 2051997952
I0117 06:44:51.779778  7678 layer_factory.hpp:77] Creating layer res3a_res3a_relu_0_split
I0117 06:44:51.779798  7678 net.cpp:84] Creating Layer res3a_res3a_relu_0_split
I0117 06:44:51.779806  7678 net.cpp:406] res3a_res3a_relu_0_split <- res3a
I0117 06:44:51.779816  7678 net.cpp:380] res3a_res3a_relu_0_split -> res3a_res3a_relu_0_split_0
I0117 06:44:51.779829  7678 net.cpp:380] res3a_res3a_relu_0_split -> res3a_res3a_relu_0_split_1
I0117 06:44:51.779889  7678 net.cpp:122] Setting up res3a_res3a_relu_0_split
I0117 06:44:51.779902  7678 net.cpp:129] Top shape: 16 512 28 28 (6422528)
I0117 06:44:51.779909  7678 net.cpp:129] Top shape: 16 512 28 28 (6422528)
I0117 06:44:51.779916  7678 net.cpp:137] Memory required for data: 2103378176
I0117 06:44:51.779922  7678 layer_factory.hpp:77] Creating layer res3b_branch2a
I0117 06:44:51.779958  7678 net.cpp:84] Creating Layer res3b_branch2a
I0117 06:44:51.779964  7678 net.cpp:406] res3b_branch2a <- res3a_res3a_relu_0_split_0
I0117 06:44:51.779974  7678 net.cpp:380] res3b_branch2a -> res3b_branch2a
I0117 06:44:51.781575  7678 net.cpp:122] Setting up res3b_branch2a
I0117 06:44:51.781594  7678 net.cpp:129] Top shape: 16 128 28 28 (1605632)
I0117 06:44:51.781601  7678 net.cpp:137] Memory required for data: 2109800704
I0117 06:44:51.781610  7678 layer_factory.hpp:77] Creating layer bn3b_branch2a
I0117 06:44:51.781623  7678 net.cpp:84] Creating Layer bn3b_branch2a
I0117 06:44:51.781631  7678 net.cpp:406] bn3b_branch2a <- res3b_branch2a
I0117 06:44:51.781654  7678 net.cpp:367] bn3b_branch2a -> res3b_branch2a (in-place)
I0117 06:44:51.781931  7678 net.cpp:122] Setting up bn3b_branch2a
I0117 06:44:51.781952  7678 net.cpp:129] Top shape: 16 128 28 28 (1605632)
I0117 06:44:51.781958  7678 net.cpp:137] Memory required for data: 2116223232
I0117 06:44:51.781983  7678 layer_factory.hpp:77] Creating layer scale3b_branch2a
I0117 06:44:51.781993  7678 net.cpp:84] Creating Layer scale3b_branch2a
I0117 06:44:51.782001  7678 net.cpp:406] scale3b_branch2a <- res3b_branch2a
I0117 06:44:51.782011  7678 net.cpp:367] scale3b_branch2a -> res3b_branch2a (in-place)
I0117 06:44:51.782065  7678 layer_factory.hpp:77] Creating layer scale3b_branch2a
I0117 06:44:51.782212  7678 net.cpp:122] Setting up scale3b_branch2a
I0117 06:44:51.782222  7678 net.cpp:129] Top shape: 16 128 28 28 (1605632)
I0117 06:44:51.782227  7678 net.cpp:137] Memory required for data: 2122645760
I0117 06:44:51.782238  7678 layer_factory.hpp:77] Creating layer res3b_branch2a_relu
I0117 06:44:51.782248  7678 net.cpp:84] Creating Layer res3b_branch2a_relu
I0117 06:44:51.782254  7678 net.cpp:406] res3b_branch2a_relu <- res3b_branch2a
I0117 06:44:51.782263  7678 net.cpp:367] res3b_branch2a_relu -> res3b_branch2a (in-place)
I0117 06:44:51.782516  7678 net.cpp:122] Setting up res3b_branch2a_relu
I0117 06:44:51.782529  7678 net.cpp:129] Top shape: 16 128 28 28 (1605632)
I0117 06:44:51.782536  7678 net.cpp:137] Memory required for data: 2129068288
I0117 06:44:51.782541  7678 layer_factory.hpp:77] Creating layer res3b_branch2b
I0117 06:44:51.782559  7678 net.cpp:84] Creating Layer res3b_branch2b
I0117 06:44:51.782567  7678 net.cpp:406] res3b_branch2b <- res3b_branch2a
I0117 06:44:51.782575  7678 net.cpp:380] res3b_branch2b -> res3b_branch2b
I0117 06:44:51.786550  7678 net.cpp:122] Setting up res3b_branch2b
I0117 06:44:51.786571  7678 net.cpp:129] Top shape: 16 128 28 28 (1605632)
I0117 06:44:51.786577  7678 net.cpp:137] Memory required for data: 2135490816
I0117 06:44:51.786587  7678 layer_factory.hpp:77] Creating layer bn3b_branch2b
I0117 06:44:51.786605  7678 net.cpp:84] Creating Layer bn3b_branch2b
I0117 06:44:51.786613  7678 net.cpp:406] bn3b_branch2b <- res3b_branch2b
I0117 06:44:51.786629  7678 net.cpp:367] bn3b_branch2b -> res3b_branch2b (in-place)
I0117 06:44:51.786914  7678 net.cpp:122] Setting up bn3b_branch2b
I0117 06:44:51.786926  7678 net.cpp:129] Top shape: 16 128 28 28 (1605632)
I0117 06:44:51.786940  7678 net.cpp:137] Memory required for data: 2141913344
I0117 06:44:51.786965  7678 layer_factory.hpp:77] Creating layer scale3b_branch2b
I0117 06:44:51.786975  7678 net.cpp:84] Creating Layer scale3b_branch2b
I0117 06:44:51.786983  7678 net.cpp:406] scale3b_branch2b <- res3b_branch2b
I0117 06:44:51.786994  7678 net.cpp:367] scale3b_branch2b -> res3b_branch2b (in-place)
I0117 06:44:51.787061  7678 layer_factory.hpp:77] Creating layer scale3b_branch2b
I0117 06:44:51.787209  7678 net.cpp:122] Setting up scale3b_branch2b
I0117 06:44:51.787220  7678 net.cpp:129] Top shape: 16 128 28 28 (1605632)
I0117 06:44:51.787226  7678 net.cpp:137] Memory required for data: 2148335872
I0117 06:44:51.787236  7678 layer_factory.hpp:77] Creating layer res3b_branch2b_relu
I0117 06:44:51.787246  7678 net.cpp:84] Creating Layer res3b_branch2b_relu
I0117 06:44:51.787252  7678 net.cpp:406] res3b_branch2b_relu <- res3b_branch2b
I0117 06:44:51.787300  7678 net.cpp:367] res3b_branch2b_relu -> res3b_branch2b (in-place)
I0117 06:44:51.787559  7678 net.cpp:122] Setting up res3b_branch2b_relu
I0117 06:44:51.787581  7678 net.cpp:129] Top shape: 16 128 28 28 (1605632)
I0117 06:44:51.787586  7678 net.cpp:137] Memory required for data: 2154758400
I0117 06:44:51.787592  7678 layer_factory.hpp:77] Creating layer res3b_branch2c
I0117 06:44:51.787619  7678 net.cpp:84] Creating Layer res3b_branch2c
I0117 06:44:51.787626  7678 net.cpp:406] res3b_branch2c <- res3b_branch2b
I0117 06:44:51.787647  7678 net.cpp:380] res3b_branch2c -> res3b_branch2c
I0117 06:44:51.789315  7678 net.cpp:122] Setting up res3b_branch2c
I0117 06:44:51.789335  7678 net.cpp:129] Top shape: 16 512 28 28 (6422528)
I0117 06:44:51.789341  7678 net.cpp:137] Memory required for data: 2180448512
I0117 06:44:51.789351  7678 layer_factory.hpp:77] Creating layer bn3b_branch2c
I0117 06:44:51.789366  7678 net.cpp:84] Creating Layer bn3b_branch2c
I0117 06:44:51.789376  7678 net.cpp:406] bn3b_branch2c <- res3b_branch2c
I0117 06:44:51.789386  7678 net.cpp:367] bn3b_branch2c -> res3b_branch2c (in-place)
I0117 06:44:51.789638  7678 net.cpp:122] Setting up bn3b_branch2c
I0117 06:44:51.789649  7678 net.cpp:129] Top shape: 16 512 28 28 (6422528)
I0117 06:44:51.789655  7678 net.cpp:137] Memory required for data: 2206138624
I0117 06:44:51.789670  7678 layer_factory.hpp:77] Creating layer scale3b_branch2c
I0117 06:44:51.789680  7678 net.cpp:84] Creating Layer scale3b_branch2c
I0117 06:44:51.789687  7678 net.cpp:406] scale3b_branch2c <- res3b_branch2c
I0117 06:44:51.789700  7678 net.cpp:367] scale3b_branch2c -> res3b_branch2c (in-place)
I0117 06:44:51.789757  7678 layer_factory.hpp:77] Creating layer scale3b_branch2c
I0117 06:44:51.789899  7678 net.cpp:122] Setting up scale3b_branch2c
I0117 06:44:51.789911  7678 net.cpp:129] Top shape: 16 512 28 28 (6422528)
I0117 06:44:51.789916  7678 net.cpp:137] Memory required for data: 2231828736
I0117 06:44:51.789925  7678 layer_factory.hpp:77] Creating layer res3b
I0117 06:44:51.789935  7678 net.cpp:84] Creating Layer res3b
I0117 06:44:51.789943  7678 net.cpp:406] res3b <- res3a_res3a_relu_0_split_1
I0117 06:44:51.789952  7678 net.cpp:406] res3b <- res3b_branch2c
I0117 06:44:51.789963  7678 net.cpp:380] res3b -> res3b
I0117 06:44:51.789999  7678 net.cpp:122] Setting up res3b
I0117 06:44:51.790009  7678 net.cpp:129] Top shape: 16 512 28 28 (6422528)
I0117 06:44:51.790015  7678 net.cpp:137] Memory required for data: 2257518848
I0117 06:44:51.790020  7678 layer_factory.hpp:77] Creating layer res3b_relu
I0117 06:44:51.790031  7678 net.cpp:84] Creating Layer res3b_relu
I0117 06:44:51.790038  7678 net.cpp:406] res3b_relu <- res3b
I0117 06:44:51.790045  7678 net.cpp:367] res3b_relu -> res3b (in-place)
I0117 06:44:51.790277  7678 net.cpp:122] Setting up res3b_relu
I0117 06:44:51.790290  7678 net.cpp:129] Top shape: 16 512 28 28 (6422528)
I0117 06:44:51.790297  7678 net.cpp:137] Memory required for data: 2283208960
I0117 06:44:51.790302  7678 layer_factory.hpp:77] Creating layer res3b_res3b_relu_0_split
I0117 06:44:51.790310  7678 net.cpp:84] Creating Layer res3b_res3b_relu_0_split
I0117 06:44:51.790318  7678 net.cpp:406] res3b_res3b_relu_0_split <- res3b
I0117 06:44:51.790340  7678 net.cpp:380] res3b_res3b_relu_0_split -> res3b_res3b_relu_0_split_0
I0117 06:44:51.790357  7678 net.cpp:380] res3b_res3b_relu_0_split -> res3b_res3b_relu_0_split_1
I0117 06:44:51.790417  7678 net.cpp:122] Setting up res3b_res3b_relu_0_split
I0117 06:44:51.790427  7678 net.cpp:129] Top shape: 16 512 28 28 (6422528)
I0117 06:44:51.790436  7678 net.cpp:129] Top shape: 16 512 28 28 (6422528)
I0117 06:44:51.790442  7678 net.cpp:137] Memory required for data: 2334589184
I0117 06:44:51.790448  7678 layer_factory.hpp:77] Creating layer res3c_branch2a
I0117 06:44:51.790463  7678 net.cpp:84] Creating Layer res3c_branch2a
I0117 06:44:51.790470  7678 net.cpp:406] res3c_branch2a <- res3b_res3b_relu_0_split_0
I0117 06:44:51.790479  7678 net.cpp:380] res3c_branch2a -> res3c_branch2a
I0117 06:44:51.792206  7678 net.cpp:122] Setting up res3c_branch2a
I0117 06:44:51.792243  7678 net.cpp:129] Top shape: 16 128 28 28 (1605632)
I0117 06:44:51.792250  7678 net.cpp:137] Memory required for data: 2341011712
I0117 06:44:51.792260  7678 layer_factory.hpp:77] Creating layer bn3c_branch2a
I0117 06:44:51.792273  7678 net.cpp:84] Creating Layer bn3c_branch2a
I0117 06:44:51.792282  7678 net.cpp:406] bn3c_branch2a <- res3c_branch2a
I0117 06:44:51.792294  7678 net.cpp:367] bn3c_branch2a -> res3c_branch2a (in-place)
I0117 06:44:51.792544  7678 net.cpp:122] Setting up bn3c_branch2a
I0117 06:44:51.792557  7678 net.cpp:129] Top shape: 16 128 28 28 (1605632)
I0117 06:44:51.792562  7678 net.cpp:137] Memory required for data: 2347434240
I0117 06:44:51.792577  7678 layer_factory.hpp:77] Creating layer scale3c_branch2a
I0117 06:44:51.792587  7678 net.cpp:84] Creating Layer scale3c_branch2a
I0117 06:44:51.792596  7678 net.cpp:406] scale3c_branch2a <- res3c_branch2a
I0117 06:44:51.792604  7678 net.cpp:367] scale3c_branch2a -> res3c_branch2a (in-place)
I0117 06:44:51.792663  7678 layer_factory.hpp:77] Creating layer scale3c_branch2a
I0117 06:44:51.792807  7678 net.cpp:122] Setting up scale3c_branch2a
I0117 06:44:51.792822  7678 net.cpp:129] Top shape: 16 128 28 28 (1605632)
I0117 06:44:51.792829  7678 net.cpp:137] Memory required for data: 2353856768
I0117 06:44:51.792840  7678 layer_factory.hpp:77] Creating layer res3c_branch2a_relu
I0117 06:44:51.792850  7678 net.cpp:84] Creating Layer res3c_branch2a_relu
I0117 06:44:51.792857  7678 net.cpp:406] res3c_branch2a_relu <- res3c_branch2a
I0117 06:44:51.792865  7678 net.cpp:367] res3c_branch2a_relu -> res3c_branch2a (in-place)
I0117 06:44:51.793107  7678 net.cpp:122] Setting up res3c_branch2a_relu
I0117 06:44:51.793121  7678 net.cpp:129] Top shape: 16 128 28 28 (1605632)
I0117 06:44:51.793128  7678 net.cpp:137] Memory required for data: 2360279296
I0117 06:44:51.793133  7678 layer_factory.hpp:77] Creating layer res3c_branch2b
I0117 06:44:51.793146  7678 net.cpp:84] Creating Layer res3c_branch2b
I0117 06:44:51.793154  7678 net.cpp:406] res3c_branch2b <- res3c_branch2a
I0117 06:44:51.793166  7678 net.cpp:380] res3c_branch2b -> res3c_branch2b
I0117 06:44:51.795615  7678 net.cpp:122] Setting up res3c_branch2b
I0117 06:44:51.795635  7678 net.cpp:129] Top shape: 16 128 28 28 (1605632)
I0117 06:44:51.795641  7678 net.cpp:137] Memory required for data: 2366701824
I0117 06:44:51.795656  7678 layer_factory.hpp:77] Creating layer bn3c_branch2b
I0117 06:44:51.795670  7678 net.cpp:84] Creating Layer bn3c_branch2b
I0117 06:44:51.795677  7678 net.cpp:406] bn3c_branch2b <- res3c_branch2b
I0117 06:44:51.795689  7678 net.cpp:367] bn3c_branch2b -> res3c_branch2b (in-place)
I0117 06:44:51.795949  7678 net.cpp:122] Setting up bn3c_branch2b
I0117 06:44:51.795960  7678 net.cpp:129] Top shape: 16 128 28 28 (1605632)
I0117 06:44:51.795966  7678 net.cpp:137] Memory required for data: 2373124352
I0117 06:44:51.795981  7678 layer_factory.hpp:77] Creating layer scale3c_branch2b
I0117 06:44:51.796000  7678 net.cpp:84] Creating Layer scale3c_branch2b
I0117 06:44:51.796007  7678 net.cpp:406] scale3c_branch2b <- res3c_branch2b
I0117 06:44:51.796015  7678 net.cpp:367] scale3c_branch2b -> res3c_branch2b (in-place)
I0117 06:44:51.796079  7678 layer_factory.hpp:77] Creating layer scale3c_branch2b
I0117 06:44:51.796238  7678 net.cpp:122] Setting up scale3c_branch2b
I0117 06:44:51.796249  7678 net.cpp:129] Top shape: 16 128 28 28 (1605632)
I0117 06:44:51.796254  7678 net.cpp:137] Memory required for data: 2379546880
I0117 06:44:51.796265  7678 layer_factory.hpp:77] Creating layer res3c_branch2b_relu
I0117 06:44:51.796278  7678 net.cpp:84] Creating Layer res3c_branch2b_relu
I0117 06:44:51.796285  7678 net.cpp:406] res3c_branch2b_relu <- res3c_branch2b
I0117 06:44:51.796293  7678 net.cpp:367] res3c_branch2b_relu -> res3c_branch2b (in-place)
I0117 06:44:51.797133  7678 net.cpp:122] Setting up res3c_branch2b_relu
I0117 06:44:51.797152  7678 net.cpp:129] Top shape: 16 128 28 28 (1605632)
I0117 06:44:51.797158  7678 net.cpp:137] Memory required for data: 2385969408
I0117 06:44:51.797186  7678 layer_factory.hpp:77] Creating layer res3c_branch2c
I0117 06:44:51.797209  7678 net.cpp:84] Creating Layer res3c_branch2c
I0117 06:44:51.797216  7678 net.cpp:406] res3c_branch2c <- res3c_branch2b
I0117 06:44:51.797233  7678 net.cpp:380] res3c_branch2c -> res3c_branch2c
I0117 06:44:51.798296  7678 net.cpp:122] Setting up res3c_branch2c
I0117 06:44:51.798312  7678 net.cpp:129] Top shape: 16 512 28 28 (6422528)
I0117 06:44:51.798318  7678 net.cpp:137] Memory required for data: 2411659520
I0117 06:44:51.798343  7678 layer_factory.hpp:77] Creating layer bn3c_branch2c
I0117 06:44:51.798365  7678 net.cpp:84] Creating Layer bn3c_branch2c
I0117 06:44:51.798385  7678 net.cpp:406] bn3c_branch2c <- res3c_branch2c
I0117 06:44:51.798399  7678 net.cpp:367] bn3c_branch2c -> res3c_branch2c (in-place)
I0117 06:44:51.798656  7678 net.cpp:122] Setting up bn3c_branch2c
I0117 06:44:51.798667  7678 net.cpp:129] Top shape: 16 512 28 28 (6422528)
I0117 06:44:51.798681  7678 net.cpp:137] Memory required for data: 2437349632
I0117 06:44:51.798697  7678 layer_factory.hpp:77] Creating layer scale3c_branch2c
I0117 06:44:51.798710  7678 net.cpp:84] Creating Layer scale3c_branch2c
I0117 06:44:51.798717  7678 net.cpp:406] scale3c_branch2c <- res3c_branch2c
I0117 06:44:51.798725  7678 net.cpp:367] scale3c_branch2c -> res3c_branch2c (in-place)
I0117 06:44:51.798787  7678 layer_factory.hpp:77] Creating layer scale3c_branch2c
I0117 06:44:51.798934  7678 net.cpp:122] Setting up scale3c_branch2c
I0117 06:44:51.798945  7678 net.cpp:129] Top shape: 16 512 28 28 (6422528)
I0117 06:44:51.798950  7678 net.cpp:137] Memory required for data: 2463039744
I0117 06:44:51.798961  7678 layer_factory.hpp:77] Creating layer res3c
I0117 06:44:51.798975  7678 net.cpp:84] Creating Layer res3c
I0117 06:44:51.798983  7678 net.cpp:406] res3c <- res3b_res3b_relu_0_split_1
I0117 06:44:51.798990  7678 net.cpp:406] res3c <- res3c_branch2c
I0117 06:44:51.799000  7678 net.cpp:380] res3c -> res3c
I0117 06:44:51.799039  7678 net.cpp:122] Setting up res3c
I0117 06:44:51.799048  7678 net.cpp:129] Top shape: 16 512 28 28 (6422528)
I0117 06:44:51.799054  7678 net.cpp:137] Memory required for data: 2488729856
I0117 06:44:51.799059  7678 layer_factory.hpp:77] Creating layer res3c_relu
I0117 06:44:51.799069  7678 net.cpp:84] Creating Layer res3c_relu
I0117 06:44:51.799077  7678 net.cpp:406] res3c_relu <- res3c
I0117 06:44:51.799088  7678 net.cpp:367] res3c_relu -> res3c (in-place)
I0117 06:44:51.799954  7678 net.cpp:122] Setting up res3c_relu
I0117 06:44:51.799973  7678 net.cpp:129] Top shape: 16 512 28 28 (6422528)
I0117 06:44:51.799984  7678 net.cpp:137] Memory required for data: 2514419968
I0117 06:44:51.799991  7678 layer_factory.hpp:77] Creating layer res3c_res3c_relu_0_split
I0117 06:44:51.800004  7678 net.cpp:84] Creating Layer res3c_res3c_relu_0_split
I0117 06:44:51.800019  7678 net.cpp:406] res3c_res3c_relu_0_split <- res3c
I0117 06:44:51.800027  7678 net.cpp:380] res3c_res3c_relu_0_split -> res3c_res3c_relu_0_split_0
I0117 06:44:51.800051  7678 net.cpp:380] res3c_res3c_relu_0_split -> res3c_res3c_relu_0_split_1
I0117 06:44:51.800119  7678 net.cpp:122] Setting up res3c_res3c_relu_0_split
I0117 06:44:51.800129  7678 net.cpp:129] Top shape: 16 512 28 28 (6422528)
I0117 06:44:51.800137  7678 net.cpp:129] Top shape: 16 512 28 28 (6422528)
I0117 06:44:51.800144  7678 net.cpp:137] Memory required for data: 2565800192
I0117 06:44:51.800151  7678 layer_factory.hpp:77] Creating layer res3d_branch2a
I0117 06:44:51.800166  7678 net.cpp:84] Creating Layer res3d_branch2a
I0117 06:44:51.800173  7678 net.cpp:406] res3d_branch2a <- res3c_res3c_relu_0_split_0
I0117 06:44:51.800184  7678 net.cpp:380] res3d_branch2a -> res3d_branch2a
I0117 06:44:51.803565  7678 net.cpp:122] Setting up res3d_branch2a
I0117 06:44:51.803586  7678 net.cpp:129] Top shape: 16 128 28 28 (1605632)
I0117 06:44:51.803592  7678 net.cpp:137] Memory required for data: 2572222720
I0117 06:44:51.803602  7678 layer_factory.hpp:77] Creating layer bn3d_branch2a
I0117 06:44:51.803622  7678 net.cpp:84] Creating Layer bn3d_branch2a
I0117 06:44:51.803647  7678 net.cpp:406] bn3d_branch2a <- res3d_branch2a
I0117 06:44:51.803661  7678 net.cpp:367] bn3d_branch2a -> res3d_branch2a (in-place)
I0117 06:44:51.803922  7678 net.cpp:122] Setting up bn3d_branch2a
I0117 06:44:51.803933  7678 net.cpp:129] Top shape: 16 128 28 28 (1605632)
I0117 06:44:51.803939  7678 net.cpp:137] Memory required for data: 2578645248
I0117 06:44:51.803972  7678 layer_factory.hpp:77] Creating layer scale3d_branch2a
I0117 06:44:51.803984  7678 net.cpp:84] Creating Layer scale3d_branch2a
I0117 06:44:51.803992  7678 net.cpp:406] scale3d_branch2a <- res3d_branch2a
I0117 06:44:51.804000  7678 net.cpp:367] scale3d_branch2a -> res3d_branch2a (in-place)
I0117 06:44:51.804062  7678 layer_factory.hpp:77] Creating layer scale3d_branch2a
I0117 06:44:51.804210  7678 net.cpp:122] Setting up scale3d_branch2a
I0117 06:44:51.804221  7678 net.cpp:129] Top shape: 16 128 28 28 (1605632)
I0117 06:44:51.804226  7678 net.cpp:137] Memory required for data: 2585067776
I0117 06:44:51.804237  7678 layer_factory.hpp:77] Creating layer res3d_branch2a_relu
I0117 06:44:51.804247  7678 net.cpp:84] Creating Layer res3d_branch2a_relu
I0117 06:44:51.804255  7678 net.cpp:406] res3d_branch2a_relu <- res3d_branch2a
I0117 06:44:51.804262  7678 net.cpp:367] res3d_branch2a_relu -> res3d_branch2a (in-place)
I0117 06:44:51.804514  7678 net.cpp:122] Setting up res3d_branch2a_relu
I0117 06:44:51.804528  7678 net.cpp:129] Top shape: 16 128 28 28 (1605632)
I0117 06:44:51.804534  7678 net.cpp:137] Memory required for data: 2591490304
I0117 06:44:51.804539  7678 layer_factory.hpp:77] Creating layer res3d_branch2b
I0117 06:44:51.804553  7678 net.cpp:84] Creating Layer res3d_branch2b
I0117 06:44:51.804560  7678 net.cpp:406] res3d_branch2b <- res3d_branch2a
I0117 06:44:51.804569  7678 net.cpp:380] res3d_branch2b -> res3d_branch2b
I0117 06:44:51.807039  7678 net.cpp:122] Setting up res3d_branch2b
I0117 06:44:51.807059  7678 net.cpp:129] Top shape: 16 128 28 28 (1605632)
I0117 06:44:51.807065  7678 net.cpp:137] Memory required for data: 2597912832
I0117 06:44:51.807082  7678 layer_factory.hpp:77] Creating layer bn3d_branch2b
I0117 06:44:51.807098  7678 net.cpp:84] Creating Layer bn3d_branch2b
I0117 06:44:51.807106  7678 net.cpp:406] bn3d_branch2b <- res3d_branch2b
I0117 06:44:51.807114  7678 net.cpp:367] bn3d_branch2b -> res3d_branch2b (in-place)
I0117 06:44:51.807387  7678 net.cpp:122] Setting up bn3d_branch2b
I0117 06:44:51.807399  7678 net.cpp:129] Top shape: 16 128 28 28 (1605632)
I0117 06:44:51.807404  7678 net.cpp:137] Memory required for data: 2604335360
I0117 06:44:51.807423  7678 layer_factory.hpp:77] Creating layer scale3d_branch2b
I0117 06:44:51.807435  7678 net.cpp:84] Creating Layer scale3d_branch2b
I0117 06:44:51.807441  7678 net.cpp:406] scale3d_branch2b <- res3d_branch2b
I0117 06:44:51.807451  7678 net.cpp:367] scale3d_branch2b -> res3d_branch2b (in-place)
I0117 06:44:51.807512  7678 layer_factory.hpp:77] Creating layer scale3d_branch2b
I0117 06:44:51.807672  7678 net.cpp:122] Setting up scale3d_branch2b
I0117 06:44:51.807682  7678 net.cpp:129] Top shape: 16 128 28 28 (1605632)
I0117 06:44:51.807687  7678 net.cpp:137] Memory required for data: 2610757888
I0117 06:44:51.807698  7678 layer_factory.hpp:77] Creating layer res3d_branch2b_relu
I0117 06:44:51.807708  7678 net.cpp:84] Creating Layer res3d_branch2b_relu
I0117 06:44:51.807715  7678 net.cpp:406] res3d_branch2b_relu <- res3d_branch2b
I0117 06:44:51.807726  7678 net.cpp:367] res3d_branch2b_relu -> res3d_branch2b (in-place)
I0117 06:44:51.807976  7678 net.cpp:122] Setting up res3d_branch2b_relu
I0117 06:44:51.807989  7678 net.cpp:129] Top shape: 16 128 28 28 (1605632)
I0117 06:44:51.807994  7678 net.cpp:137] Memory required for data: 2617180416
I0117 06:44:51.808001  7678 layer_factory.hpp:77] Creating layer res3d_branch2c
I0117 06:44:51.808012  7678 net.cpp:84] Creating Layer res3d_branch2c
I0117 06:44:51.808020  7678 net.cpp:406] res3d_branch2c <- res3d_branch2b
I0117 06:44:51.808033  7678 net.cpp:380] res3d_branch2c -> res3d_branch2c
I0117 06:44:51.809738  7678 net.cpp:122] Setting up res3d_branch2c
I0117 06:44:51.809758  7678 net.cpp:129] Top shape: 16 512 28 28 (6422528)
I0117 06:44:51.809765  7678 net.cpp:137] Memory required for data: 2642870528
I0117 06:44:51.809775  7678 layer_factory.hpp:77] Creating layer bn3d_branch2c
I0117 06:44:51.809798  7678 net.cpp:84] Creating Layer bn3d_branch2c
I0117 06:44:51.809805  7678 net.cpp:406] bn3d_branch2c <- res3d_branch2c
I0117 06:44:51.809813  7678 net.cpp:367] bn3d_branch2c -> res3d_branch2c (in-place)
I0117 06:44:51.810079  7678 net.cpp:122] Setting up bn3d_branch2c
I0117 06:44:51.810091  7678 net.cpp:129] Top shape: 16 512 28 28 (6422528)
I0117 06:44:51.810096  7678 net.cpp:137] Memory required for data: 2668560640
I0117 06:44:51.810112  7678 layer_factory.hpp:77] Creating layer scale3d_branch2c
I0117 06:44:51.810122  7678 net.cpp:84] Creating Layer scale3d_branch2c
I0117 06:44:51.810129  7678 net.cpp:406] scale3d_branch2c <- res3d_branch2c
I0117 06:44:51.810142  7678 net.cpp:367] scale3d_branch2c -> res3d_branch2c (in-place)
I0117 06:44:51.810206  7678 layer_factory.hpp:77] Creating layer scale3d_branch2c
I0117 06:44:51.810392  7678 net.cpp:122] Setting up scale3d_branch2c
I0117 06:44:51.810405  7678 net.cpp:129] Top shape: 16 512 28 28 (6422528)
I0117 06:44:51.810410  7678 net.cpp:137] Memory required for data: 2694250752
I0117 06:44:51.810420  7678 layer_factory.hpp:77] Creating layer res3d
I0117 06:44:51.810434  7678 net.cpp:84] Creating Layer res3d
I0117 06:44:51.810442  7678 net.cpp:406] res3d <- res3c_res3c_relu_0_split_1
I0117 06:44:51.810449  7678 net.cpp:406] res3d <- res3d_branch2c
I0117 06:44:51.810462  7678 net.cpp:380] res3d -> res3d
I0117 06:44:51.810499  7678 net.cpp:122] Setting up res3d
I0117 06:44:51.810508  7678 net.cpp:129] Top shape: 16 512 28 28 (6422528)
I0117 06:44:51.810514  7678 net.cpp:137] Memory required for data: 2719940864
I0117 06:44:51.810519  7678 layer_factory.hpp:77] Creating layer res3d_relu
I0117 06:44:51.810534  7678 net.cpp:84] Creating Layer res3d_relu
I0117 06:44:51.810540  7678 net.cpp:406] res3d_relu <- res3d
I0117 06:44:51.810549  7678 net.cpp:367] res3d_relu -> res3d (in-place)
I0117 06:44:51.810789  7678 net.cpp:122] Setting up res3d_relu
I0117 06:44:51.810802  7678 net.cpp:129] Top shape: 16 512 28 28 (6422528)
I0117 06:44:51.810807  7678 net.cpp:137] Memory required for data: 2745630976
I0117 06:44:51.810813  7678 layer_factory.hpp:77] Creating layer res3d_res3d_relu_0_split
I0117 06:44:51.810822  7678 net.cpp:84] Creating Layer res3d_res3d_relu_0_split
I0117 06:44:51.810843  7678 net.cpp:406] res3d_res3d_relu_0_split <- res3d
I0117 06:44:51.810851  7678 net.cpp:380] res3d_res3d_relu_0_split -> res3d_res3d_relu_0_split_0
I0117 06:44:51.810864  7678 net.cpp:380] res3d_res3d_relu_0_split -> res3d_res3d_relu_0_split_1
I0117 06:44:51.810935  7678 net.cpp:122] Setting up res3d_res3d_relu_0_split
I0117 06:44:51.810945  7678 net.cpp:129] Top shape: 16 512 28 28 (6422528)
I0117 06:44:51.810952  7678 net.cpp:129] Top shape: 16 512 28 28 (6422528)
I0117 06:44:51.810958  7678 net.cpp:137] Memory required for data: 2797011200
I0117 06:44:51.810964  7678 layer_factory.hpp:77] Creating layer res4a_branch1
I0117 06:44:51.810978  7678 net.cpp:84] Creating Layer res4a_branch1
I0117 06:44:51.810984  7678 net.cpp:406] res4a_branch1 <- res3d_res3d_relu_0_split_0
I0117 06:44:51.810993  7678 net.cpp:380] res4a_branch1 -> res4a_branch1
I0117 06:44:51.814657  7678 net.cpp:122] Setting up res4a_branch1
I0117 06:44:51.814677  7678 net.cpp:129] Top shape: 16 1024 14 14 (3211264)
I0117 06:44:51.814683  7678 net.cpp:137] Memory required for data: 2809856256
I0117 06:44:51.814693  7678 layer_factory.hpp:77] Creating layer bn4a_branch1
I0117 06:44:51.814707  7678 net.cpp:84] Creating Layer bn4a_branch1
I0117 06:44:51.814714  7678 net.cpp:406] bn4a_branch1 <- res4a_branch1
I0117 06:44:51.814728  7678 net.cpp:367] bn4a_branch1 -> res4a_branch1 (in-place)
I0117 06:44:51.815009  7678 net.cpp:122] Setting up bn4a_branch1
I0117 06:44:51.815021  7678 net.cpp:129] Top shape: 16 1024 14 14 (3211264)
I0117 06:44:51.815047  7678 net.cpp:137] Memory required for data: 2822701312
I0117 06:44:51.815064  7678 layer_factory.hpp:77] Creating layer scale4a_branch1
I0117 06:44:51.815078  7678 net.cpp:84] Creating Layer scale4a_branch1
I0117 06:44:51.815085  7678 net.cpp:406] scale4a_branch1 <- res4a_branch1
I0117 06:44:51.815094  7678 net.cpp:367] scale4a_branch1 -> res4a_branch1 (in-place)
I0117 06:44:51.815150  7678 layer_factory.hpp:77] Creating layer scale4a_branch1
I0117 06:44:51.815311  7678 net.cpp:122] Setting up scale4a_branch1
I0117 06:44:51.815327  7678 net.cpp:129] Top shape: 16 1024 14 14 (3211264)
I0117 06:44:51.815333  7678 net.cpp:137] Memory required for data: 2835546368
I0117 06:44:51.815343  7678 layer_factory.hpp:77] Creating layer res4a_branch2a
I0117 06:44:51.815361  7678 net.cpp:84] Creating Layer res4a_branch2a
I0117 06:44:51.815367  7678 net.cpp:406] res4a_branch2a <- res3d_res3d_relu_0_split_1
I0117 06:44:51.815376  7678 net.cpp:380] res4a_branch2a -> res4a_branch2a
I0117 06:44:51.818840  7678 net.cpp:122] Setting up res4a_branch2a
I0117 06:44:51.818861  7678 net.cpp:129] Top shape: 16 256 14 14 (802816)
I0117 06:44:51.818867  7678 net.cpp:137] Memory required for data: 2838757632
I0117 06:44:51.818876  7678 layer_factory.hpp:77] Creating layer bn4a_branch2a
I0117 06:44:51.818943  7678 net.cpp:84] Creating Layer bn4a_branch2a
I0117 06:44:51.818951  7678 net.cpp:406] bn4a_branch2a <- res4a_branch2a
I0117 06:44:51.818967  7678 net.cpp:367] bn4a_branch2a -> res4a_branch2a (in-place)
I0117 06:44:51.819227  7678 net.cpp:122] Setting up bn4a_branch2a
I0117 06:44:51.819238  7678 net.cpp:129] Top shape: 16 256 14 14 (802816)
I0117 06:44:51.819244  7678 net.cpp:137] Memory required for data: 2841968896
I0117 06:44:51.819260  7678 layer_factory.hpp:77] Creating layer scale4a_branch2a
I0117 06:44:51.819285  7678 net.cpp:84] Creating Layer scale4a_branch2a
I0117 06:44:51.819293  7678 net.cpp:406] scale4a_branch2a <- res4a_branch2a
I0117 06:44:51.819303  7678 net.cpp:367] scale4a_branch2a -> res4a_branch2a (in-place)
I0117 06:44:51.819362  7678 layer_factory.hpp:77] Creating layer scale4a_branch2a
I0117 06:44:51.819531  7678 net.cpp:122] Setting up scale4a_branch2a
I0117 06:44:51.819541  7678 net.cpp:129] Top shape: 16 256 14 14 (802816)
I0117 06:44:51.819546  7678 net.cpp:137] Memory required for data: 2845180160
I0117 06:44:51.819556  7678 layer_factory.hpp:77] Creating layer res4a_branch2a_relu
I0117 06:44:51.819567  7678 net.cpp:84] Creating Layer res4a_branch2a_relu
I0117 06:44:51.819574  7678 net.cpp:406] res4a_branch2a_relu <- res4a_branch2a
I0117 06:44:51.819586  7678 net.cpp:367] res4a_branch2a_relu -> res4a_branch2a (in-place)
I0117 06:44:51.819818  7678 net.cpp:122] Setting up res4a_branch2a_relu
I0117 06:44:51.819833  7678 net.cpp:129] Top shape: 16 256 14 14 (802816)
I0117 06:44:51.819838  7678 net.cpp:137] Memory required for data: 2848391424
I0117 06:44:51.819844  7678 layer_factory.hpp:77] Creating layer res4a_branch2b
I0117 06:44:51.819857  7678 net.cpp:84] Creating Layer res4a_branch2b
I0117 06:44:51.819864  7678 net.cpp:406] res4a_branch2b <- res4a_branch2a
I0117 06:44:51.819874  7678 net.cpp:380] res4a_branch2b -> res4a_branch2b
I0117 06:44:51.824519  7678 net.cpp:122] Setting up res4a_branch2b
I0117 06:44:51.824539  7678 net.cpp:129] Top shape: 16 256 14 14 (802816)
I0117 06:44:51.824546  7678 net.cpp:137] Memory required for data: 2851602688
I0117 06:44:51.824556  7678 layer_factory.hpp:77] Creating layer bn4a_branch2b
I0117 06:44:51.824576  7678 net.cpp:84] Creating Layer bn4a_branch2b
I0117 06:44:51.824584  7678 net.cpp:406] bn4a_branch2b <- res4a_branch2b
I0117 06:44:51.824596  7678 net.cpp:367] bn4a_branch2b -> res4a_branch2b (in-place)
I0117 06:44:51.824885  7678 net.cpp:122] Setting up bn4a_branch2b
I0117 06:44:51.824898  7678 net.cpp:129] Top shape: 16 256 14 14 (802816)
I0117 06:44:51.824903  7678 net.cpp:137] Memory required for data: 2854813952
I0117 06:44:51.824916  7678 layer_factory.hpp:77] Creating layer scale4a_branch2b
I0117 06:44:51.824931  7678 net.cpp:84] Creating Layer scale4a_branch2b
I0117 06:44:51.824956  7678 net.cpp:406] scale4a_branch2b <- res4a_branch2b
I0117 06:44:51.824967  7678 net.cpp:367] scale4a_branch2b -> res4a_branch2b (in-place)
I0117 06:44:51.825031  7678 layer_factory.hpp:77] Creating layer scale4a_branch2b
I0117 06:44:51.825188  7678 net.cpp:122] Setting up scale4a_branch2b
I0117 06:44:51.825199  7678 net.cpp:129] Top shape: 16 256 14 14 (802816)
I0117 06:44:51.825204  7678 net.cpp:137] Memory required for data: 2858025216
I0117 06:44:51.825215  7678 layer_factory.hpp:77] Creating layer res4a_branch2b_relu
I0117 06:44:51.825225  7678 net.cpp:84] Creating Layer res4a_branch2b_relu
I0117 06:44:51.825233  7678 net.cpp:406] res4a_branch2b_relu <- res4a_branch2b
I0117 06:44:51.825254  7678 net.cpp:367] res4a_branch2b_relu -> res4a_branch2b (in-place)
I0117 06:44:51.825510  7678 net.cpp:122] Setting up res4a_branch2b_relu
I0117 06:44:51.825523  7678 net.cpp:129] Top shape: 16 256 14 14 (802816)
I0117 06:44:51.825529  7678 net.cpp:137] Memory required for data: 2861236480
I0117 06:44:51.825536  7678 layer_factory.hpp:77] Creating layer res4a_branch2c
I0117 06:44:51.825549  7678 net.cpp:84] Creating Layer res4a_branch2c
I0117 06:44:51.825556  7678 net.cpp:406] res4a_branch2c <- res4a_branch2b
I0117 06:44:51.825567  7678 net.cpp:380] res4a_branch2c -> res4a_branch2c
I0117 06:44:51.827399  7678 net.cpp:122] Setting up res4a_branch2c
I0117 06:44:51.827419  7678 net.cpp:129] Top shape: 16 1024 14 14 (3211264)
I0117 06:44:51.827425  7678 net.cpp:137] Memory required for data: 2874081536
I0117 06:44:51.827446  7678 layer_factory.hpp:77] Creating layer bn4a_branch2c
I0117 06:44:51.827463  7678 net.cpp:84] Creating Layer bn4a_branch2c
I0117 06:44:51.827471  7678 net.cpp:406] bn4a_branch2c <- res4a_branch2c
I0117 06:44:51.827481  7678 net.cpp:367] bn4a_branch2c -> res4a_branch2c (in-place)
I0117 06:44:51.827777  7678 net.cpp:122] Setting up bn4a_branch2c
I0117 06:44:51.827790  7678 net.cpp:129] Top shape: 16 1024 14 14 (3211264)
I0117 06:44:51.827795  7678 net.cpp:137] Memory required for data: 2886926592
I0117 06:44:51.827814  7678 layer_factory.hpp:77] Creating layer scale4a_branch2c
I0117 06:44:51.827824  7678 net.cpp:84] Creating Layer scale4a_branch2c
I0117 06:44:51.827832  7678 net.cpp:406] scale4a_branch2c <- res4a_branch2c
I0117 06:44:51.827843  7678 net.cpp:367] scale4a_branch2c -> res4a_branch2c (in-place)
I0117 06:44:51.827898  7678 layer_factory.hpp:77] Creating layer scale4a_branch2c
I0117 06:44:51.828068  7678 net.cpp:122] Setting up scale4a_branch2c
I0117 06:44:51.828079  7678 net.cpp:129] Top shape: 16 1024 14 14 (3211264)
I0117 06:44:51.828084  7678 net.cpp:137] Memory required for data: 2899771648
I0117 06:44:51.828095  7678 layer_factory.hpp:77] Creating layer res4a
I0117 06:44:51.828105  7678 net.cpp:84] Creating Layer res4a
I0117 06:44:51.828114  7678 net.cpp:406] res4a <- res4a_branch1
I0117 06:44:51.828121  7678 net.cpp:406] res4a <- res4a_branch2c
I0117 06:44:51.828131  7678 net.cpp:380] res4a -> res4a
I0117 06:44:51.828171  7678 net.cpp:122] Setting up res4a
I0117 06:44:51.828184  7678 net.cpp:129] Top shape: 16 1024 14 14 (3211264)
I0117 06:44:51.828191  7678 net.cpp:137] Memory required for data: 2912616704
I0117 06:44:51.828197  7678 layer_factory.hpp:77] Creating layer res4a_relu
I0117 06:44:51.828208  7678 net.cpp:84] Creating Layer res4a_relu
I0117 06:44:51.828215  7678 net.cpp:406] res4a_relu <- res4a
I0117 06:44:51.828223  7678 net.cpp:367] res4a_relu -> res4a (in-place)
I0117 06:44:51.829147  7678 net.cpp:122] Setting up res4a_relu
I0117 06:44:51.829166  7678 net.cpp:129] Top shape: 16 1024 14 14 (3211264)
I0117 06:44:51.829181  7678 net.cpp:137] Memory required for data: 2925461760
I0117 06:44:51.829187  7678 layer_factory.hpp:77] Creating layer res4a_res4a_relu_0_split
I0117 06:44:51.829213  7678 net.cpp:84] Creating Layer res4a_res4a_relu_0_split
I0117 06:44:51.829221  7678 net.cpp:406] res4a_res4a_relu_0_split <- res4a
I0117 06:44:51.829236  7678 net.cpp:380] res4a_res4a_relu_0_split -> res4a_res4a_relu_0_split_0
I0117 06:44:51.829252  7678 net.cpp:380] res4a_res4a_relu_0_split -> res4a_res4a_relu_0_split_1
I0117 06:44:51.829335  7678 net.cpp:122] Setting up res4a_res4a_relu_0_split
I0117 06:44:51.829357  7678 net.cpp:129] Top shape: 16 1024 14 14 (3211264)
I0117 06:44:51.829365  7678 net.cpp:129] Top shape: 16 1024 14 14 (3211264)
I0117 06:44:51.829380  7678 net.cpp:137] Memory required for data: 2951151872
I0117 06:44:51.829390  7678 layer_factory.hpp:77] Creating layer res4b_branch2a
I0117 06:44:51.829406  7678 net.cpp:84] Creating Layer res4b_branch2a
I0117 06:44:51.829412  7678 net.cpp:406] res4b_branch2a <- res4a_res4a_relu_0_split_0
I0117 06:44:51.829423  7678 net.cpp:380] res4b_branch2a -> res4b_branch2a
I0117 06:44:51.833714  7678 net.cpp:122] Setting up res4b_branch2a
I0117 06:44:51.833734  7678 net.cpp:129] Top shape: 16 256 14 14 (802816)
I0117 06:44:51.833740  7678 net.cpp:137] Memory required for data: 2954363136
I0117 06:44:51.833750  7678 layer_factory.hpp:77] Creating layer bn4b_branch2a
I0117 06:44:51.833766  7678 net.cpp:84] Creating Layer bn4b_branch2a
I0117 06:44:51.833775  7678 net.cpp:406] bn4b_branch2a <- res4b_branch2a
I0117 06:44:51.833783  7678 net.cpp:367] bn4b_branch2a -> res4b_branch2a (in-place)
I0117 06:44:51.834056  7678 net.cpp:122] Setting up bn4b_branch2a
I0117 06:44:51.834067  7678 net.cpp:129] Top shape: 16 256 14 14 (802816)
I0117 06:44:51.834074  7678 net.cpp:137] Memory required for data: 2957574400
I0117 06:44:51.834089  7678 layer_factory.hpp:77] Creating layer scale4b_branch2a
I0117 06:44:51.834098  7678 net.cpp:84] Creating Layer scale4b_branch2a
I0117 06:44:51.834111  7678 net.cpp:406] scale4b_branch2a <- res4b_branch2a
I0117 06:44:51.834120  7678 net.cpp:367] scale4b_branch2a -> res4b_branch2a (in-place)
I0117 06:44:51.834184  7678 layer_factory.hpp:77] Creating layer scale4b_branch2a
I0117 06:44:51.834343  7678 net.cpp:122] Setting up scale4b_branch2a
I0117 06:44:51.834355  7678 net.cpp:129] Top shape: 16 256 14 14 (802816)
I0117 06:44:51.834362  7678 net.cpp:137] Memory required for data: 2960785664
I0117 06:44:51.834372  7678 layer_factory.hpp:77] Creating layer res4b_branch2a_relu
I0117 06:44:51.834385  7678 net.cpp:84] Creating Layer res4b_branch2a_relu
I0117 06:44:51.834393  7678 net.cpp:406] res4b_branch2a_relu <- res4b_branch2a
I0117 06:44:51.834399  7678 net.cpp:367] res4b_branch2a_relu -> res4b_branch2a (in-place)
I0117 06:44:51.834642  7678 net.cpp:122] Setting up res4b_branch2a_relu
I0117 06:44:51.834667  7678 net.cpp:129] Top shape: 16 256 14 14 (802816)
I0117 06:44:51.834673  7678 net.cpp:137] Memory required for data: 2963996928
I0117 06:44:51.834681  7678 layer_factory.hpp:77] Creating layer res4b_branch2b
I0117 06:44:51.834703  7678 net.cpp:84] Creating Layer res4b_branch2b
I0117 06:44:51.834725  7678 net.cpp:406] res4b_branch2b <- res4b_branch2a
I0117 06:44:51.834738  7678 net.cpp:380] res4b_branch2b -> res4b_branch2b
I0117 06:44:51.839406  7678 net.cpp:122] Setting up res4b_branch2b
I0117 06:44:51.839434  7678 net.cpp:129] Top shape: 16 256 14 14 (802816)
I0117 06:44:51.839442  7678 net.cpp:137] Memory required for data: 2967208192
I0117 06:44:51.839452  7678 layer_factory.hpp:77] Creating layer bn4b_branch2b
I0117 06:44:51.839473  7678 net.cpp:84] Creating Layer bn4b_branch2b
I0117 06:44:51.839481  7678 net.cpp:406] bn4b_branch2b <- res4b_branch2b
I0117 06:44:51.839490  7678 net.cpp:367] bn4b_branch2b -> res4b_branch2b (in-place)
I0117 06:44:51.839779  7678 net.cpp:122] Setting up bn4b_branch2b
I0117 06:44:51.839790  7678 net.cpp:129] Top shape: 16 256 14 14 (802816)
I0117 06:44:51.839797  7678 net.cpp:137] Memory required for data: 2970419456
I0117 06:44:51.839812  7678 layer_factory.hpp:77] Creating layer scale4b_branch2b
I0117 06:44:51.839823  7678 net.cpp:84] Creating Layer scale4b_branch2b
I0117 06:44:51.839830  7678 net.cpp:406] scale4b_branch2b <- res4b_branch2b
I0117 06:44:51.839845  7678 net.cpp:367] scale4b_branch2b -> res4b_branch2b (in-place)
I0117 06:44:51.839910  7678 layer_factory.hpp:77] Creating layer scale4b_branch2b
I0117 06:44:51.840065  7678 net.cpp:122] Setting up scale4b_branch2b
I0117 06:44:51.840104  7678 net.cpp:129] Top shape: 16 256 14 14 (802816)
I0117 06:44:51.840111  7678 net.cpp:137] Memory required for data: 2973630720
I0117 06:44:51.840121  7678 layer_factory.hpp:77] Creating layer res4b_branch2b_relu
I0117 06:44:51.840135  7678 net.cpp:84] Creating Layer res4b_branch2b_relu
I0117 06:44:51.840143  7678 net.cpp:406] res4b_branch2b_relu <- res4b_branch2b
I0117 06:44:51.840150  7678 net.cpp:367] res4b_branch2b_relu -> res4b_branch2b (in-place)
I0117 06:44:51.840399  7678 net.cpp:122] Setting up res4b_branch2b_relu
I0117 06:44:51.840412  7678 net.cpp:129] Top shape: 16 256 14 14 (802816)
I0117 06:44:51.840422  7678 net.cpp:137] Memory required for data: 2976841984
I0117 06:44:51.840430  7678 layer_factory.hpp:77] Creating layer res4b_branch2c
I0117 06:44:51.840442  7678 net.cpp:84] Creating Layer res4b_branch2c
I0117 06:44:51.840448  7678 net.cpp:406] res4b_branch2c <- res4b_branch2b
I0117 06:44:51.840466  7678 net.cpp:380] res4b_branch2c -> res4b_branch2c
I0117 06:44:51.842420  7678 net.cpp:122] Setting up res4b_branch2c
I0117 06:44:51.842440  7678 net.cpp:129] Top shape: 16 1024 14 14 (3211264)
I0117 06:44:51.842447  7678 net.cpp:137] Memory required for data: 2989687040
I0117 06:44:51.842456  7678 layer_factory.hpp:77] Creating layer bn4b_branch2c
I0117 06:44:51.842480  7678 net.cpp:84] Creating Layer bn4b_branch2c
I0117 06:44:51.842489  7678 net.cpp:406] bn4b_branch2c <- res4b_branch2c
I0117 06:44:51.842499  7678 net.cpp:367] bn4b_branch2c -> res4b_branch2c (in-place)
I0117 06:44:51.842795  7678 net.cpp:122] Setting up bn4b_branch2c
I0117 06:44:51.842806  7678 net.cpp:129] Top shape: 16 1024 14 14 (3211264)
I0117 06:44:51.842813  7678 net.cpp:137] Memory required for data: 3002532096
I0117 06:44:51.842835  7678 layer_factory.hpp:77] Creating layer scale4b_branch2c
I0117 06:44:51.842847  7678 net.cpp:84] Creating Layer scale4b_branch2c
I0117 06:44:51.842854  7678 net.cpp:406] scale4b_branch2c <- res4b_branch2c
I0117 06:44:51.842862  7678 net.cpp:367] scale4b_branch2c -> res4b_branch2c (in-place)
I0117 06:44:51.842918  7678 layer_factory.hpp:77] Creating layer scale4b_branch2c
I0117 06:44:51.843096  7678 net.cpp:122] Setting up scale4b_branch2c
I0117 06:44:51.843106  7678 net.cpp:129] Top shape: 16 1024 14 14 (3211264)
I0117 06:44:51.843112  7678 net.cpp:137] Memory required for data: 3015377152
I0117 06:44:51.843122  7678 layer_factory.hpp:77] Creating layer res4b
I0117 06:44:51.843133  7678 net.cpp:84] Creating Layer res4b
I0117 06:44:51.843142  7678 net.cpp:406] res4b <- res4a_res4a_relu_0_split_1
I0117 06:44:51.843149  7678 net.cpp:406] res4b <- res4b_branch2c
I0117 06:44:51.843161  7678 net.cpp:380] res4b -> res4b
I0117 06:44:51.843200  7678 net.cpp:122] Setting up res4b
I0117 06:44:51.843214  7678 net.cpp:129] Top shape: 16 1024 14 14 (3211264)
I0117 06:44:51.843221  7678 net.cpp:137] Memory required for data: 3028222208
I0117 06:44:51.843226  7678 layer_factory.hpp:77] Creating layer res4b_relu
I0117 06:44:51.843235  7678 net.cpp:84] Creating Layer res4b_relu
I0117 06:44:51.843241  7678 net.cpp:406] res4b_relu <- res4b
I0117 06:44:51.843250  7678 net.cpp:367] res4b_relu -> res4b (in-place)
I0117 06:44:51.843495  7678 net.cpp:122] Setting up res4b_relu
I0117 06:44:51.843508  7678 net.cpp:129] Top shape: 16 1024 14 14 (3211264)
I0117 06:44:51.843514  7678 net.cpp:137] Memory required for data: 3041067264
I0117 06:44:51.843520  7678 layer_factory.hpp:77] Creating layer res4b_res4b_relu_0_split
I0117 06:44:51.843531  7678 net.cpp:84] Creating Layer res4b_res4b_relu_0_split
I0117 06:44:51.843539  7678 net.cpp:406] res4b_res4b_relu_0_split <- res4b
I0117 06:44:51.843549  7678 net.cpp:380] res4b_res4b_relu_0_split -> res4b_res4b_relu_0_split_0
I0117 06:44:51.843570  7678 net.cpp:380] res4b_res4b_relu_0_split -> res4b_res4b_relu_0_split_1
I0117 06:44:51.843644  7678 net.cpp:122] Setting up res4b_res4b_relu_0_split
I0117 06:44:51.843655  7678 net.cpp:129] Top shape: 16 1024 14 14 (3211264)
I0117 06:44:51.843663  7678 net.cpp:129] Top shape: 16 1024 14 14 (3211264)
I0117 06:44:51.843689  7678 net.cpp:137] Memory required for data: 3066757376
I0117 06:44:51.843696  7678 layer_factory.hpp:77] Creating layer res4c_branch2a
I0117 06:44:51.843713  7678 net.cpp:84] Creating Layer res4c_branch2a
I0117 06:44:51.843720  7678 net.cpp:406] res4c_branch2a <- res4b_res4b_relu_0_split_0
I0117 06:44:51.843730  7678 net.cpp:380] res4c_branch2a -> res4c_branch2a
I0117 06:44:51.847303  7678 net.cpp:122] Setting up res4c_branch2a
I0117 06:44:51.847332  7678 net.cpp:129] Top shape: 16 256 14 14 (802816)
I0117 06:44:51.847338  7678 net.cpp:137] Memory required for data: 3069968640
I0117 06:44:51.847353  7678 layer_factory.hpp:77] Creating layer bn4c_branch2a
I0117 06:44:51.847369  7678 net.cpp:84] Creating Layer bn4c_branch2a
I0117 06:44:51.847385  7678 net.cpp:406] bn4c_branch2a <- res4c_branch2a
I0117 06:44:51.847409  7678 net.cpp:367] bn4c_branch2a -> res4c_branch2a (in-place)
I0117 06:44:51.847705  7678 net.cpp:122] Setting up bn4c_branch2a
I0117 06:44:51.847718  7678 net.cpp:129] Top shape: 16 256 14 14 (802816)
I0117 06:44:51.847733  7678 net.cpp:137] Memory required for data: 3073179904
I0117 06:44:51.847755  7678 layer_factory.hpp:77] Creating layer scale4c_branch2a
I0117 06:44:51.847769  7678 net.cpp:84] Creating Layer scale4c_branch2a
I0117 06:44:51.847781  7678 net.cpp:406] scale4c_branch2a <- res4c_branch2a
I0117 06:44:51.847790  7678 net.cpp:367] scale4c_branch2a -> res4c_branch2a (in-place)
I0117 06:44:51.847858  7678 layer_factory.hpp:77] Creating layer scale4c_branch2a
I0117 06:44:51.848012  7678 net.cpp:122] Setting up scale4c_branch2a
I0117 06:44:51.848022  7678 net.cpp:129] Top shape: 16 256 14 14 (802816)
I0117 06:44:51.848028  7678 net.cpp:137] Memory required for data: 3076391168
I0117 06:44:51.848038  7678 layer_factory.hpp:77] Creating layer res4c_branch2a_relu
I0117 06:44:51.848049  7678 net.cpp:84] Creating Layer res4c_branch2a_relu
I0117 06:44:51.848057  7678 net.cpp:406] res4c_branch2a_relu <- res4c_branch2a
I0117 06:44:51.848067  7678 net.cpp:367] res4c_branch2a_relu -> res4c_branch2a (in-place)
I0117 06:44:51.848310  7678 net.cpp:122] Setting up res4c_branch2a_relu
I0117 06:44:51.848325  7678 net.cpp:129] Top shape: 16 256 14 14 (802816)
I0117 06:44:51.848331  7678 net.cpp:137] Memory required for data: 3079602432
I0117 06:44:51.848336  7678 layer_factory.hpp:77] Creating layer res4c_branch2b
I0117 06:44:51.848356  7678 net.cpp:84] Creating Layer res4c_branch2b
I0117 06:44:51.848363  7678 net.cpp:406] res4c_branch2b <- res4c_branch2a
I0117 06:44:51.848373  7678 net.cpp:380] res4c_branch2b -> res4c_branch2b
I0117 06:44:51.853003  7678 net.cpp:122] Setting up res4c_branch2b
I0117 06:44:51.853031  7678 net.cpp:129] Top shape: 16 256 14 14 (802816)
I0117 06:44:51.853037  7678 net.cpp:137] Memory required for data: 3082813696
I0117 06:44:51.853054  7678 layer_factory.hpp:77] Creating layer bn4c_branch2b
I0117 06:44:51.853080  7678 net.cpp:84] Creating Layer bn4c_branch2b
I0117 06:44:51.853088  7678 net.cpp:406] bn4c_branch2b <- res4c_branch2b
I0117 06:44:51.853107  7678 net.cpp:367] bn4c_branch2b -> res4c_branch2b (in-place)
I0117 06:44:51.853410  7678 net.cpp:122] Setting up bn4c_branch2b
I0117 06:44:51.853420  7678 net.cpp:129] Top shape: 16 256 14 14 (802816)
I0117 06:44:51.853426  7678 net.cpp:137] Memory required for data: 3086024960
I0117 06:44:51.853446  7678 layer_factory.hpp:77] Creating layer scale4c_branch2b
I0117 06:44:51.853463  7678 net.cpp:84] Creating Layer scale4c_branch2b
I0117 06:44:51.853471  7678 net.cpp:406] scale4c_branch2b <- res4c_branch2b
I0117 06:44:51.853479  7678 net.cpp:367] scale4c_branch2b -> res4c_branch2b (in-place)
I0117 06:44:51.853543  7678 layer_factory.hpp:77] Creating layer scale4c_branch2b
I0117 06:44:51.853716  7678 net.cpp:122] Setting up scale4c_branch2b
I0117 06:44:51.853726  7678 net.cpp:129] Top shape: 16 256 14 14 (802816)
I0117 06:44:51.853737  7678 net.cpp:137] Memory required for data: 3089236224
I0117 06:44:51.853749  7678 layer_factory.hpp:77] Creating layer res4c_branch2b_relu
I0117 06:44:51.853757  7678 net.cpp:84] Creating Layer res4c_branch2b_relu
I0117 06:44:51.853782  7678 net.cpp:406] res4c_branch2b_relu <- res4c_branch2b
I0117 06:44:51.853796  7678 net.cpp:367] res4c_branch2b_relu -> res4c_branch2b (in-place)
I0117 06:44:51.854058  7678 net.cpp:122] Setting up res4c_branch2b_relu
I0117 06:44:51.854071  7678 net.cpp:129] Top shape: 16 256 14 14 (802816)
I0117 06:44:51.854076  7678 net.cpp:137] Memory required for data: 3092447488
I0117 06:44:51.854082  7678 layer_factory.hpp:77] Creating layer res4c_branch2c
I0117 06:44:51.854097  7678 net.cpp:84] Creating Layer res4c_branch2c
I0117 06:44:51.854104  7678 net.cpp:406] res4c_branch2c <- res4c_branch2b
I0117 06:44:51.854113  7678 net.cpp:380] res4c_branch2c -> res4c_branch2c
I0117 06:44:51.856040  7678 net.cpp:122] Setting up res4c_branch2c
I0117 06:44:51.856062  7678 net.cpp:129] Top shape: 16 1024 14 14 (3211264)
I0117 06:44:51.856070  7678 net.cpp:137] Memory required for data: 3105292544
I0117 06:44:51.856079  7678 layer_factory.hpp:77] Creating layer bn4c_branch2c
I0117 06:44:51.856092  7678 net.cpp:84] Creating Layer bn4c_branch2c
I0117 06:44:51.856101  7678 net.cpp:406] bn4c_branch2c <- res4c_branch2c
I0117 06:44:51.856113  7678 net.cpp:367] bn4c_branch2c -> res4c_branch2c (in-place)
I0117 06:44:51.856410  7678 net.cpp:122] Setting up bn4c_branch2c
I0117 06:44:51.856421  7678 net.cpp:129] Top shape: 16 1024 14 14 (3211264)
I0117 06:44:51.856427  7678 net.cpp:137] Memory required for data: 3118137600
I0117 06:44:51.856441  7678 layer_factory.hpp:77] Creating layer scale4c_branch2c
I0117 06:44:51.856451  7678 net.cpp:84] Creating Layer scale4c_branch2c
I0117 06:44:51.856459  7678 net.cpp:406] scale4c_branch2c <- res4c_branch2c
I0117 06:44:51.856467  7678 net.cpp:367] scale4c_branch2c -> res4c_branch2c (in-place)
I0117 06:44:51.856526  7678 layer_factory.hpp:77] Creating layer scale4c_branch2c
I0117 06:44:51.856688  7678 net.cpp:122] Setting up scale4c_branch2c
I0117 06:44:51.856699  7678 net.cpp:129] Top shape: 16 1024 14 14 (3211264)
I0117 06:44:51.856705  7678 net.cpp:137] Memory required for data: 3130982656
I0117 06:44:51.856715  7678 layer_factory.hpp:77] Creating layer res4c
I0117 06:44:51.856729  7678 net.cpp:84] Creating Layer res4c
I0117 06:44:51.856736  7678 net.cpp:406] res4c <- res4b_res4b_relu_0_split_1
I0117 06:44:51.856743  7678 net.cpp:406] res4c <- res4c_branch2c
I0117 06:44:51.856753  7678 net.cpp:380] res4c -> res4c
I0117 06:44:51.856798  7678 net.cpp:122] Setting up res4c
I0117 06:44:51.856808  7678 net.cpp:129] Top shape: 16 1024 14 14 (3211264)
I0117 06:44:51.856814  7678 net.cpp:137] Memory required for data: 3143827712
I0117 06:44:51.856819  7678 layer_factory.hpp:77] Creating layer res4c_relu
I0117 06:44:51.856829  7678 net.cpp:84] Creating Layer res4c_relu
I0117 06:44:51.856837  7678 net.cpp:406] res4c_relu <- res4c
I0117 06:44:51.856848  7678 net.cpp:367] res4c_relu -> res4c (in-place)
I0117 06:44:51.857738  7678 net.cpp:122] Setting up res4c_relu
I0117 06:44:51.857758  7678 net.cpp:129] Top shape: 16 1024 14 14 (3211264)
I0117 06:44:51.857764  7678 net.cpp:137] Memory required for data: 3156672768
I0117 06:44:51.857777  7678 layer_factory.hpp:77] Creating layer res4c_res4c_relu_0_split
I0117 06:44:51.857789  7678 net.cpp:84] Creating Layer res4c_res4c_relu_0_split
I0117 06:44:51.857797  7678 net.cpp:406] res4c_res4c_relu_0_split <- res4c
I0117 06:44:51.857810  7678 net.cpp:380] res4c_res4c_relu_0_split -> res4c_res4c_relu_0_split_0
I0117 06:44:51.857825  7678 net.cpp:380] res4c_res4c_relu_0_split -> res4c_res4c_relu_0_split_1
I0117 06:44:51.857890  7678 net.cpp:122] Setting up res4c_res4c_relu_0_split
I0117 06:44:51.857902  7678 net.cpp:129] Top shape: 16 1024 14 14 (3211264)
I0117 06:44:51.857908  7678 net.cpp:129] Top shape: 16 1024 14 14 (3211264)
I0117 06:44:51.857916  7678 net.cpp:137] Memory required for data: 3182362880
I0117 06:44:51.857921  7678 layer_factory.hpp:77] Creating layer res4d_branch2a
I0117 06:44:51.857935  7678 net.cpp:84] Creating Layer res4d_branch2a
I0117 06:44:51.857947  7678 net.cpp:406] res4d_branch2a <- res4c_res4c_relu_0_split_0
I0117 06:44:51.857986  7678 net.cpp:380] res4d_branch2a -> res4d_branch2a
I0117 06:44:51.861476  7678 net.cpp:122] Setting up res4d_branch2a
I0117 06:44:51.861496  7678 net.cpp:129] Top shape: 16 256 14 14 (802816)
I0117 06:44:51.861502  7678 net.cpp:137] Memory required for data: 3185574144
I0117 06:44:51.861512  7678 layer_factory.hpp:77] Creating layer bn4d_branch2a
I0117 06:44:51.861526  7678 net.cpp:84] Creating Layer bn4d_branch2a
I0117 06:44:51.861533  7678 net.cpp:406] bn4d_branch2a <- res4d_branch2a
I0117 06:44:51.861551  7678 net.cpp:367] bn4d_branch2a -> res4d_branch2a (in-place)
I0117 06:44:51.861837  7678 net.cpp:122] Setting up bn4d_branch2a
I0117 06:44:51.861850  7678 net.cpp:129] Top shape: 16 256 14 14 (802816)
I0117 06:44:51.861855  7678 net.cpp:137] Memory required for data: 3188785408
I0117 06:44:51.861878  7678 layer_factory.hpp:77] Creating layer scale4d_branch2a
I0117 06:44:51.861899  7678 net.cpp:84] Creating Layer scale4d_branch2a
I0117 06:44:51.861907  7678 net.cpp:406] scale4d_branch2a <- res4d_branch2a
I0117 06:44:51.861918  7678 net.cpp:367] scale4d_branch2a -> res4d_branch2a (in-place)
I0117 06:44:51.861989  7678 layer_factory.hpp:77] Creating layer scale4d_branch2a
I0117 06:44:51.862144  7678 net.cpp:122] Setting up scale4d_branch2a
I0117 06:44:51.862155  7678 net.cpp:129] Top shape: 16 256 14 14 (802816)
I0117 06:44:51.862160  7678 net.cpp:137] Memory required for data: 3191996672
I0117 06:44:51.862171  7678 layer_factory.hpp:77] Creating layer res4d_branch2a_relu
I0117 06:44:51.862181  7678 net.cpp:84] Creating Layer res4d_branch2a_relu
I0117 06:44:51.862188  7678 net.cpp:406] res4d_branch2a_relu <- res4d_branch2a
I0117 06:44:51.862196  7678 net.cpp:367] res4d_branch2a_relu -> res4d_branch2a (in-place)
I0117 06:44:51.862443  7678 net.cpp:122] Setting up res4d_branch2a_relu
I0117 06:44:51.862457  7678 net.cpp:129] Top shape: 16 256 14 14 (802816)
I0117 06:44:51.862463  7678 net.cpp:137] Memory required for data: 3195207936
I0117 06:44:51.862469  7678 layer_factory.hpp:77] Creating layer res4d_branch2b
I0117 06:44:51.862485  7678 net.cpp:84] Creating Layer res4d_branch2b
I0117 06:44:51.862491  7678 net.cpp:406] res4d_branch2b <- res4d_branch2a
I0117 06:44:51.862504  7678 net.cpp:380] res4d_branch2b -> res4d_branch2b
I0117 06:44:51.867161  7678 net.cpp:122] Setting up res4d_branch2b
I0117 06:44:51.867182  7678 net.cpp:129] Top shape: 16 256 14 14 (802816)
I0117 06:44:51.867187  7678 net.cpp:137] Memory required for data: 3198419200
I0117 06:44:51.867197  7678 layer_factory.hpp:77] Creating layer bn4d_branch2b
I0117 06:44:51.867211  7678 net.cpp:84] Creating Layer bn4d_branch2b
I0117 06:44:51.867219  7678 net.cpp:406] bn4d_branch2b <- res4d_branch2b
I0117 06:44:51.867233  7678 net.cpp:367] bn4d_branch2b -> res4d_branch2b (in-place)
I0117 06:44:51.867516  7678 net.cpp:122] Setting up bn4d_branch2b
I0117 06:44:51.867528  7678 net.cpp:129] Top shape: 16 256 14 14 (802816)
I0117 06:44:51.867534  7678 net.cpp:137] Memory required for data: 3201630464
I0117 06:44:51.867548  7678 layer_factory.hpp:77] Creating layer scale4d_branch2b
I0117 06:44:51.867558  7678 net.cpp:84] Creating Layer scale4d_branch2b
I0117 06:44:51.867566  7678 net.cpp:406] scale4d_branch2b <- res4d_branch2b
I0117 06:44:51.867578  7678 net.cpp:367] scale4d_branch2b -> res4d_branch2b (in-place)
I0117 06:44:51.867640  7678 layer_factory.hpp:77] Creating layer scale4d_branch2b
I0117 06:44:51.867805  7678 net.cpp:122] Setting up scale4d_branch2b
I0117 06:44:51.867825  7678 net.cpp:129] Top shape: 16 256 14 14 (802816)
I0117 06:44:51.867830  7678 net.cpp:137] Memory required for data: 3204841728
I0117 06:44:51.867841  7678 layer_factory.hpp:77] Creating layer res4d_branch2b_relu
I0117 06:44:51.867851  7678 net.cpp:84] Creating Layer res4d_branch2b_relu
I0117 06:44:51.867858  7678 net.cpp:406] res4d_branch2b_relu <- res4d_branch2b
I0117 06:44:51.867866  7678 net.cpp:367] res4d_branch2b_relu -> res4d_branch2b (in-place)
I0117 06:44:51.868124  7678 net.cpp:122] Setting up res4d_branch2b_relu
I0117 06:44:51.868136  7678 net.cpp:129] Top shape: 16 256 14 14 (802816)
I0117 06:44:51.868163  7678 net.cpp:137] Memory required for data: 3208052992
I0117 06:44:51.868173  7678 layer_factory.hpp:77] Creating layer res4d_branch2c
I0117 06:44:51.868188  7678 net.cpp:84] Creating Layer res4d_branch2c
I0117 06:44:51.868196  7678 net.cpp:406] res4d_branch2c <- res4d_branch2b
I0117 06:44:51.868207  7678 net.cpp:380] res4d_branch2c -> res4d_branch2c
I0117 06:44:51.870189  7678 net.cpp:122] Setting up res4d_branch2c
I0117 06:44:51.870208  7678 net.cpp:129] Top shape: 16 1024 14 14 (3211264)
I0117 06:44:51.870215  7678 net.cpp:137] Memory required for data: 3220898048
I0117 06:44:51.870224  7678 layer_factory.hpp:77] Creating layer bn4d_branch2c
I0117 06:44:51.870241  7678 net.cpp:84] Creating Layer bn4d_branch2c
I0117 06:44:51.870249  7678 net.cpp:406] bn4d_branch2c <- res4d_branch2c
I0117 06:44:51.870260  7678 net.cpp:367] bn4d_branch2c -> res4d_branch2c (in-place)
I0117 06:44:51.870555  7678 net.cpp:122] Setting up bn4d_branch2c
I0117 06:44:51.870568  7678 net.cpp:129] Top shape: 16 1024 14 14 (3211264)
I0117 06:44:51.870574  7678 net.cpp:137] Memory required for data: 3233743104
I0117 06:44:51.870587  7678 layer_factory.hpp:77] Creating layer scale4d_branch2c
I0117 06:44:51.870599  7678 net.cpp:84] Creating Layer scale4d_branch2c
I0117 06:44:51.870605  7678 net.cpp:406] scale4d_branch2c <- res4d_branch2c
I0117 06:44:51.870615  7678 net.cpp:367] scale4d_branch2c -> res4d_branch2c (in-place)
I0117 06:44:51.870676  7678 layer_factory.hpp:77] Creating layer scale4d_branch2c
I0117 06:44:51.870846  7678 net.cpp:122] Setting up scale4d_branch2c
I0117 06:44:51.870857  7678 net.cpp:129] Top shape: 16 1024 14 14 (3211264)
I0117 06:44:51.870862  7678 net.cpp:137] Memory required for data: 3246588160
I0117 06:44:51.870872  7678 layer_factory.hpp:77] Creating layer res4d
I0117 06:44:51.870882  7678 net.cpp:84] Creating Layer res4d
I0117 06:44:51.870890  7678 net.cpp:406] res4d <- res4c_res4c_relu_0_split_1
I0117 06:44:51.870898  7678 net.cpp:406] res4d <- res4d_branch2c
I0117 06:44:51.870910  7678 net.cpp:380] res4d -> res4d
I0117 06:44:51.870949  7678 net.cpp:122] Setting up res4d
I0117 06:44:51.870959  7678 net.cpp:129] Top shape: 16 1024 14 14 (3211264)
I0117 06:44:51.870965  7678 net.cpp:137] Memory required for data: 3259433216
I0117 06:44:51.870978  7678 layer_factory.hpp:77] Creating layer res4d_relu
I0117 06:44:51.871001  7678 net.cpp:84] Creating Layer res4d_relu
I0117 06:44:51.871007  7678 net.cpp:406] res4d_relu <- res4d
I0117 06:44:51.871014  7678 net.cpp:367] res4d_relu -> res4d (in-place)
I0117 06:44:51.871255  7678 net.cpp:122] Setting up res4d_relu
I0117 06:44:51.871269  7678 net.cpp:129] Top shape: 16 1024 14 14 (3211264)
I0117 06:44:51.871274  7678 net.cpp:137] Memory required for data: 3272278272
I0117 06:44:51.871280  7678 layer_factory.hpp:77] Creating layer res4d_res4d_relu_0_split
I0117 06:44:51.871291  7678 net.cpp:84] Creating Layer res4d_res4d_relu_0_split
I0117 06:44:51.871299  7678 net.cpp:406] res4d_res4d_relu_0_split <- res4d
I0117 06:44:51.871309  7678 net.cpp:380] res4d_res4d_relu_0_split -> res4d_res4d_relu_0_split_0
I0117 06:44:51.871320  7678 net.cpp:380] res4d_res4d_relu_0_split -> res4d_res4d_relu_0_split_1
I0117 06:44:51.871385  7678 net.cpp:122] Setting up res4d_res4d_relu_0_split
I0117 06:44:51.871395  7678 net.cpp:129] Top shape: 16 1024 14 14 (3211264)
I0117 06:44:51.871402  7678 net.cpp:129] Top shape: 16 1024 14 14 (3211264)
I0117 06:44:51.871409  7678 net.cpp:137] Memory required for data: 3297968384
I0117 06:44:51.871414  7678 layer_factory.hpp:77] Creating layer res4e_branch2a
I0117 06:44:51.871428  7678 net.cpp:84] Creating Layer res4e_branch2a
I0117 06:44:51.871434  7678 net.cpp:406] res4e_branch2a <- res4d_res4d_relu_0_split_0
I0117 06:44:51.871443  7678 net.cpp:380] res4e_branch2a -> res4e_branch2a
I0117 06:44:51.875756  7678 net.cpp:122] Setting up res4e_branch2a
I0117 06:44:51.875800  7678 net.cpp:129] Top shape: 16 256 14 14 (802816)
I0117 06:44:51.875809  7678 net.cpp:137] Memory required for data: 3301179648
I0117 06:44:51.875823  7678 layer_factory.hpp:77] Creating layer bn4e_branch2a
I0117 06:44:51.875907  7678 net.cpp:84] Creating Layer bn4e_branch2a
I0117 06:44:51.875921  7678 net.cpp:406] bn4e_branch2a <- res4e_branch2a
I0117 06:44:51.875941  7678 net.cpp:367] bn4e_branch2a -> res4e_branch2a (in-place)
I0117 06:44:51.876410  7678 net.cpp:122] Setting up bn4e_branch2a
I0117 06:44:51.876435  7678 net.cpp:129] Top shape: 16 256 14 14 (802816)
I0117 06:44:51.876441  7678 net.cpp:137] Memory required for data: 3304390912
I0117 06:44:51.876461  7678 layer_factory.hpp:77] Creating layer scale4e_branch2a
I0117 06:44:51.876477  7678 net.cpp:84] Creating Layer scale4e_branch2a
I0117 06:44:51.876482  7678 net.cpp:406] scale4e_branch2a <- res4e_branch2a
I0117 06:44:51.876500  7678 net.cpp:367] scale4e_branch2a -> res4e_branch2a (in-place)
I0117 06:44:51.876598  7678 layer_factory.hpp:77] Creating layer scale4e_branch2a
I0117 06:44:51.876854  7678 net.cpp:122] Setting up scale4e_branch2a
I0117 06:44:51.876868  7678 net.cpp:129] Top shape: 16 256 14 14 (802816)
I0117 06:44:51.876873  7678 net.cpp:137] Memory required for data: 3307602176
I0117 06:44:51.876884  7678 layer_factory.hpp:77] Creating layer res4e_branch2a_relu
I0117 06:44:51.876898  7678 net.cpp:84] Creating Layer res4e_branch2a_relu
I0117 06:44:51.876904  7678 net.cpp:406] res4e_branch2a_relu <- res4e_branch2a
I0117 06:44:51.876916  7678 net.cpp:367] res4e_branch2a_relu -> res4e_branch2a (in-place)
I0117 06:44:51.877298  7678 net.cpp:122] Setting up res4e_branch2a_relu
I0117 06:44:51.877315  7678 net.cpp:129] Top shape: 16 256 14 14 (802816)
I0117 06:44:51.877321  7678 net.cpp:137] Memory required for data: 3310813440
I0117 06:44:51.877331  7678 layer_factory.hpp:77] Creating layer res4e_branch2b
I0117 06:44:51.877348  7678 net.cpp:84] Creating Layer res4e_branch2b
I0117 06:44:51.877358  7678 net.cpp:406] res4e_branch2b <- res4e_branch2a
I0117 06:44:51.877378  7678 net.cpp:380] res4e_branch2b -> res4e_branch2b
I0117 06:44:51.884645  7678 net.cpp:122] Setting up res4e_branch2b
I0117 06:44:51.884673  7678 net.cpp:129] Top shape: 16 256 14 14 (802816)
I0117 06:44:51.884680  7678 net.cpp:137] Memory required for data: 3314024704
I0117 06:44:51.884690  7678 layer_factory.hpp:77] Creating layer bn4e_branch2b
I0117 06:44:51.884706  7678 net.cpp:84] Creating Layer bn4e_branch2b
I0117 06:44:51.884712  7678 net.cpp:406] bn4e_branch2b <- res4e_branch2b
I0117 06:44:51.884727  7678 net.cpp:367] bn4e_branch2b -> res4e_branch2b (in-place)
I0117 06:44:51.885157  7678 net.cpp:122] Setting up bn4e_branch2b
I0117 06:44:51.885170  7678 net.cpp:129] Top shape: 16 256 14 14 (802816)
I0117 06:44:51.885175  7678 net.cpp:137] Memory required for data: 3317235968
I0117 06:44:51.885190  7678 layer_factory.hpp:77] Creating layer scale4e_branch2b
I0117 06:44:51.885206  7678 net.cpp:84] Creating Layer scale4e_branch2b
I0117 06:44:51.885215  7678 net.cpp:406] scale4e_branch2b <- res4e_branch2b
I0117 06:44:51.885223  7678 net.cpp:367] scale4e_branch2b -> res4e_branch2b (in-place)
I0117 06:44:51.885313  7678 layer_factory.hpp:77] Creating layer scale4e_branch2b
I0117 06:44:51.885545  7678 net.cpp:122] Setting up scale4e_branch2b
I0117 06:44:51.885557  7678 net.cpp:129] Top shape: 16 256 14 14 (802816)
I0117 06:44:51.885563  7678 net.cpp:137] Memory required for data: 3320447232
I0117 06:44:51.885577  7678 layer_factory.hpp:77] Creating layer res4e_branch2b_relu
I0117 06:44:51.885588  7678 net.cpp:84] Creating Layer res4e_branch2b_relu
I0117 06:44:51.885596  7678 net.cpp:406] res4e_branch2b_relu <- res4e_branch2b
I0117 06:44:51.885607  7678 net.cpp:367] res4e_branch2b_relu -> res4e_branch2b (in-place)
I0117 06:44:51.885985  7678 net.cpp:122] Setting up res4e_branch2b_relu
I0117 06:44:51.886001  7678 net.cpp:129] Top shape: 16 256 14 14 (802816)
I0117 06:44:51.886006  7678 net.cpp:137] Memory required for data: 3323658496
I0117 06:44:51.886013  7678 layer_factory.hpp:77] Creating layer res4e_branch2c
I0117 06:44:51.886027  7678 net.cpp:84] Creating Layer res4e_branch2c
I0117 06:44:51.886034  7678 net.cpp:406] res4e_branch2c <- res4e_branch2b
I0117 06:44:51.886080  7678 net.cpp:380] res4e_branch2c -> res4e_branch2c
I0117 06:44:51.888984  7678 net.cpp:122] Setting up res4e_branch2c
I0117 06:44:51.889009  7678 net.cpp:129] Top shape: 16 1024 14 14 (3211264)
I0117 06:44:51.889016  7678 net.cpp:137] Memory required for data: 3336503552
I0117 06:44:51.889026  7678 layer_factory.hpp:77] Creating layer bn4e_branch2c
I0117 06:44:51.889039  7678 net.cpp:84] Creating Layer bn4e_branch2c
I0117 06:44:51.889045  7678 net.cpp:406] bn4e_branch2c <- res4e_branch2c
I0117 06:44:51.889057  7678 net.cpp:367] bn4e_branch2c -> res4e_branch2c (in-place)
I0117 06:44:51.889487  7678 net.cpp:122] Setting up bn4e_branch2c
I0117 06:44:51.889500  7678 net.cpp:129] Top shape: 16 1024 14 14 (3211264)
I0117 06:44:51.889505  7678 net.cpp:137] Memory required for data: 3349348608
I0117 06:44:51.889519  7678 layer_factory.hpp:77] Creating layer scale4e_branch2c
I0117 06:44:51.889528  7678 net.cpp:84] Creating Layer scale4e_branch2c
I0117 06:44:51.889534  7678 net.cpp:406] scale4e_branch2c <- res4e_branch2c
I0117 06:44:51.889542  7678 net.cpp:367] scale4e_branch2c -> res4e_branch2c (in-place)
I0117 06:44:51.889617  7678 layer_factory.hpp:77] Creating layer scale4e_branch2c
I0117 06:44:51.889871  7678 net.cpp:122] Setting up scale4e_branch2c
I0117 06:44:51.889884  7678 net.cpp:129] Top shape: 16 1024 14 14 (3211264)
I0117 06:44:51.889889  7678 net.cpp:137] Memory required for data: 3362193664
I0117 06:44:51.889902  7678 layer_factory.hpp:77] Creating layer res4e
I0117 06:44:51.889919  7678 net.cpp:84] Creating Layer res4e
I0117 06:44:51.889927  7678 net.cpp:406] res4e <- res4d_res4d_relu_0_split_1
I0117 06:44:51.889935  7678 net.cpp:406] res4e <- res4e_branch2c
I0117 06:44:51.889945  7678 net.cpp:380] res4e -> res4e
I0117 06:44:51.889995  7678 net.cpp:122] Setting up res4e
I0117 06:44:51.890007  7678 net.cpp:129] Top shape: 16 1024 14 14 (3211264)
I0117 06:44:51.890012  7678 net.cpp:137] Memory required for data: 3375038720
I0117 06:44:51.890017  7678 layer_factory.hpp:77] Creating layer res4e_relu
I0117 06:44:51.890028  7678 net.cpp:84] Creating Layer res4e_relu
I0117 06:44:51.890036  7678 net.cpp:406] res4e_relu <- res4e
I0117 06:44:51.890048  7678 net.cpp:367] res4e_relu -> res4e (in-place)
I0117 06:44:51.891319  7678 net.cpp:122] Setting up res4e_relu
I0117 06:44:51.891342  7678 net.cpp:129] Top shape: 16 1024 14 14 (3211264)
I0117 06:44:51.891347  7678 net.cpp:137] Memory required for data: 3387883776
I0117 06:44:51.891353  7678 layer_factory.hpp:77] Creating layer res4e_res4e_relu_0_split
I0117 06:44:51.891363  7678 net.cpp:84] Creating Layer res4e_res4e_relu_0_split
I0117 06:44:51.891369  7678 net.cpp:406] res4e_res4e_relu_0_split <- res4e
I0117 06:44:51.891384  7678 net.cpp:380] res4e_res4e_relu_0_split -> res4e_res4e_relu_0_split_0
I0117 06:44:51.891396  7678 net.cpp:380] res4e_res4e_relu_0_split -> res4e_res4e_relu_0_split_1
I0117 06:44:51.891477  7678 net.cpp:122] Setting up res4e_res4e_relu_0_split
I0117 06:44:51.891489  7678 net.cpp:129] Top shape: 16 1024 14 14 (3211264)
I0117 06:44:51.891499  7678 net.cpp:129] Top shape: 16 1024 14 14 (3211264)
I0117 06:44:51.891505  7678 net.cpp:137] Memory required for data: 3413573888
I0117 06:44:51.891510  7678 layer_factory.hpp:77] Creating layer res4f_branch2a
I0117 06:44:51.891521  7678 net.cpp:84] Creating Layer res4f_branch2a
I0117 06:44:51.891530  7678 net.cpp:406] res4f_branch2a <- res4e_res4e_relu_0_split_0
I0117 06:44:51.891541  7678 net.cpp:380] res4f_branch2a -> res4f_branch2a
I0117 06:44:51.896584  7678 net.cpp:122] Setting up res4f_branch2a
I0117 06:44:51.896610  7678 net.cpp:129] Top shape: 16 256 14 14 (802816)
I0117 06:44:51.896615  7678 net.cpp:137] Memory required for data: 3416785152
I0117 06:44:51.896625  7678 layer_factory.hpp:77] Creating layer bn4f_branch2a
I0117 06:44:51.896636  7678 net.cpp:84] Creating Layer bn4f_branch2a
I0117 06:44:51.896642  7678 net.cpp:406] bn4f_branch2a <- res4f_branch2a
I0117 06:44:51.896651  7678 net.cpp:367] bn4f_branch2a -> res4f_branch2a (in-place)
I0117 06:44:51.897047  7678 net.cpp:122] Setting up bn4f_branch2a
I0117 06:44:51.897083  7678 net.cpp:129] Top shape: 16 256 14 14 (802816)
I0117 06:44:51.897089  7678 net.cpp:137] Memory required for data: 3419996416
I0117 06:44:51.897102  7678 layer_factory.hpp:77] Creating layer scale4f_branch2a
I0117 06:44:51.897112  7678 net.cpp:84] Creating Layer scale4f_branch2a
I0117 06:44:51.897119  7678 net.cpp:406] scale4f_branch2a <- res4f_branch2a
I0117 06:44:51.897130  7678 net.cpp:367] scale4f_branch2a -> res4f_branch2a (in-place)
I0117 06:44:51.897208  7678 layer_factory.hpp:77] Creating layer scale4f_branch2a
I0117 06:44:51.897428  7678 net.cpp:122] Setting up scale4f_branch2a
I0117 06:44:51.897440  7678 net.cpp:129] Top shape: 16 256 14 14 (802816)
I0117 06:44:51.897445  7678 net.cpp:137] Memory required for data: 3423207680
I0117 06:44:51.897454  7678 layer_factory.hpp:77] Creating layer res4f_branch2a_relu
I0117 06:44:51.897465  7678 net.cpp:84] Creating Layer res4f_branch2a_relu
I0117 06:44:51.897477  7678 net.cpp:406] res4f_branch2a_relu <- res4f_branch2a
I0117 06:44:51.897485  7678 net.cpp:367] res4f_branch2a_relu -> res4f_branch2a (in-place)
I0117 06:44:51.897836  7678 net.cpp:122] Setting up res4f_branch2a_relu
I0117 06:44:51.897851  7678 net.cpp:129] Top shape: 16 256 14 14 (802816)
I0117 06:44:51.897857  7678 net.cpp:137] Memory required for data: 3426418944
I0117 06:44:51.897863  7678 layer_factory.hpp:77] Creating layer res4f_branch2b
I0117 06:44:51.897878  7678 net.cpp:84] Creating Layer res4f_branch2b
I0117 06:44:51.897886  7678 net.cpp:406] res4f_branch2b <- res4f_branch2a
I0117 06:44:51.897899  7678 net.cpp:380] res4f_branch2b -> res4f_branch2b
I0117 06:44:51.912299  7678 net.cpp:122] Setting up res4f_branch2b
I0117 06:44:51.912330  7678 net.cpp:129] Top shape: 16 256 14 14 (802816)
I0117 06:44:51.912343  7678 net.cpp:137] Memory required for data: 3429630208
I0117 06:44:51.912362  7678 layer_factory.hpp:77] Creating layer bn4f_branch2b
I0117 06:44:51.912384  7678 net.cpp:84] Creating Layer bn4f_branch2b
I0117 06:44:51.912407  7678 net.cpp:406] bn4f_branch2b <- res4f_branch2b
I0117 06:44:51.912438  7678 net.cpp:367] bn4f_branch2b -> res4f_branch2b (in-place)
I0117 06:44:51.912878  7678 net.cpp:122] Setting up bn4f_branch2b
I0117 06:44:51.912889  7678 net.cpp:129] Top shape: 16 256 14 14 (802816)
I0117 06:44:51.912894  7678 net.cpp:137] Memory required for data: 3432841472
I0117 06:44:51.912906  7678 layer_factory.hpp:77] Creating layer scale4f_branch2b
I0117 06:44:51.912917  7678 net.cpp:84] Creating Layer scale4f_branch2b
I0117 06:44:51.912923  7678 net.cpp:406] scale4f_branch2b <- res4f_branch2b
I0117 06:44:51.912932  7678 net.cpp:367] scale4f_branch2b -> res4f_branch2b (in-place)
I0117 06:44:51.913031  7678 layer_factory.hpp:77] Creating layer scale4f_branch2b
I0117 06:44:51.913249  7678 net.cpp:122] Setting up scale4f_branch2b
I0117 06:44:51.913260  7678 net.cpp:129] Top shape: 16 256 14 14 (802816)
I0117 06:44:51.913264  7678 net.cpp:137] Memory required for data: 3436052736
I0117 06:44:51.913275  7678 layer_factory.hpp:77] Creating layer res4f_branch2b_relu
I0117 06:44:51.913287  7678 net.cpp:84] Creating Layer res4f_branch2b_relu
I0117 06:44:51.913295  7678 net.cpp:406] res4f_branch2b_relu <- res4f_branch2b
I0117 06:44:51.913302  7678 net.cpp:367] res4f_branch2b_relu -> res4f_branch2b (in-place)
I0117 06:44:51.913642  7678 net.cpp:122] Setting up res4f_branch2b_relu
I0117 06:44:51.913656  7678 net.cpp:129] Top shape: 16 256 14 14 (802816)
I0117 06:44:51.913661  7678 net.cpp:137] Memory required for data: 3439264000
I0117 06:44:51.913671  7678 layer_factory.hpp:77] Creating layer res4f_branch2c
I0117 06:44:51.913687  7678 net.cpp:84] Creating Layer res4f_branch2c
I0117 06:44:51.913695  7678 net.cpp:406] res4f_branch2c <- res4f_branch2b
I0117 06:44:51.913707  7678 net.cpp:380] res4f_branch2c -> res4f_branch2c
I0117 06:44:51.916259  7678 net.cpp:122] Setting up res4f_branch2c
I0117 06:44:51.916280  7678 net.cpp:129] Top shape: 16 1024 14 14 (3211264)
I0117 06:44:51.916285  7678 net.cpp:137] Memory required for data: 3452109056
I0117 06:44:51.916321  7678 layer_factory.hpp:77] Creating layer bn4f_branch2c
I0117 06:44:51.916335  7678 net.cpp:84] Creating Layer bn4f_branch2c
I0117 06:44:51.916343  7678 net.cpp:406] bn4f_branch2c <- res4f_branch2c
I0117 06:44:51.916352  7678 net.cpp:367] bn4f_branch2c -> res4f_branch2c (in-place)
I0117 06:44:51.916739  7678 net.cpp:122] Setting up bn4f_branch2c
I0117 06:44:51.916750  7678 net.cpp:129] Top shape: 16 1024 14 14 (3211264)
I0117 06:44:51.916754  7678 net.cpp:137] Memory required for data: 3464954112
I0117 06:44:51.916996  7678 layer_factory.hpp:77] Creating layer scale4f_branch2c
I0117 06:44:51.917012  7678 net.cpp:84] Creating Layer scale4f_branch2c
I0117 06:44:51.917018  7678 net.cpp:406] scale4f_branch2c <- res4f_branch2c
I0117 06:44:51.917026  7678 net.cpp:367] scale4f_branch2c -> res4f_branch2c (in-place)
I0117 06:44:51.917094  7678 layer_factory.hpp:77] Creating layer scale4f_branch2c
I0117 06:44:51.917300  7678 net.cpp:122] Setting up scale4f_branch2c
I0117 06:44:51.917311  7678 net.cpp:129] Top shape: 16 1024 14 14 (3211264)
I0117 06:44:51.917315  7678 net.cpp:137] Memory required for data: 3477799168
I0117 06:44:51.917325  7678 layer_factory.hpp:77] Creating layer res4f
I0117 06:44:51.917335  7678 net.cpp:84] Creating Layer res4f
I0117 06:44:51.917340  7678 net.cpp:406] res4f <- res4e_res4e_relu_0_split_1
I0117 06:44:51.917347  7678 net.cpp:406] res4f <- res4f_branch2c
I0117 06:44:51.917359  7678 net.cpp:380] res4f -> res4f
I0117 06:44:51.917400  7678 net.cpp:122] Setting up res4f
I0117 06:44:51.917413  7678 net.cpp:129] Top shape: 16 1024 14 14 (3211264)
I0117 06:44:51.917419  7678 net.cpp:137] Memory required for data: 3490644224
I0117 06:44:51.917424  7678 layer_factory.hpp:77] Creating layer res4f_relu
I0117 06:44:51.917434  7678 net.cpp:84] Creating Layer res4f_relu
I0117 06:44:51.917441  7678 net.cpp:406] res4f_relu <- res4f
I0117 06:44:51.917448  7678 net.cpp:367] res4f_relu -> res4f (in-place)
I0117 06:44:51.917754  7678 net.cpp:122] Setting up res4f_relu
I0117 06:44:51.917768  7678 net.cpp:129] Top shape: 16 1024 14 14 (3211264)
I0117 06:44:51.917776  7678 net.cpp:137] Memory required for data: 3503489280
I0117 06:44:51.917783  7678 layer_factory.hpp:77] Creating layer res4f_res4f_relu_0_split
I0117 06:44:51.917795  7678 net.cpp:84] Creating Layer res4f_res4f_relu_0_split
I0117 06:44:51.917803  7678 net.cpp:406] res4f_res4f_relu_0_split <- res4f
I0117 06:44:51.917810  7678 net.cpp:380] res4f_res4f_relu_0_split -> res4f_res4f_relu_0_split_0
I0117 06:44:51.917821  7678 net.cpp:380] res4f_res4f_relu_0_split -> res4f_res4f_relu_0_split_1
I0117 06:44:51.917897  7678 net.cpp:122] Setting up res4f_res4f_relu_0_split
I0117 06:44:51.917906  7678 net.cpp:129] Top shape: 16 1024 14 14 (3211264)
I0117 06:44:51.917913  7678 net.cpp:129] Top shape: 16 1024 14 14 (3211264)
I0117 06:44:51.917919  7678 net.cpp:137] Memory required for data: 3529179392
I0117 06:44:51.917923  7678 layer_factory.hpp:77] Creating layer res5a_branch1
I0117 06:44:51.917946  7678 net.cpp:84] Creating Layer res5a_branch1
I0117 06:44:51.917953  7678 net.cpp:406] res5a_branch1 <- res4f_res4f_relu_0_split_0
I0117 06:44:51.917960  7678 net.cpp:380] res5a_branch1 -> res5a_branch1
I0117 06:44:51.928633  7678 net.cpp:122] Setting up res5a_branch1
I0117 06:44:51.928654  7678 net.cpp:129] Top shape: 16 2048 7 7 (1605632)
I0117 06:44:51.928659  7678 net.cpp:137] Memory required for data: 3535601920
I0117 06:44:51.928668  7678 layer_factory.hpp:77] Creating layer bn5a_branch1
I0117 06:44:51.928683  7678 net.cpp:84] Creating Layer bn5a_branch1
I0117 06:44:51.928689  7678 net.cpp:406] bn5a_branch1 <- res5a_branch1
I0117 06:44:51.928705  7678 net.cpp:367] bn5a_branch1 -> res5a_branch1 (in-place)
I0117 06:44:51.929137  7678 net.cpp:122] Setting up bn5a_branch1
I0117 06:44:51.929149  7678 net.cpp:129] Top shape: 16 2048 7 7 (1605632)
I0117 06:44:51.929153  7678 net.cpp:137] Memory required for data: 3542024448
I0117 06:44:51.929167  7678 layer_factory.hpp:77] Creating layer scale5a_branch1
I0117 06:44:51.929174  7678 net.cpp:84] Creating Layer scale5a_branch1
I0117 06:44:51.929201  7678 net.cpp:406] scale5a_branch1 <- res5a_branch1
I0117 06:44:51.929210  7678 net.cpp:367] scale5a_branch1 -> res5a_branch1 (in-place)
I0117 06:44:51.929291  7678 layer_factory.hpp:77] Creating layer scale5a_branch1
I0117 06:44:51.929491  7678 net.cpp:122] Setting up scale5a_branch1
I0117 06:44:51.929502  7678 net.cpp:129] Top shape: 16 2048 7 7 (1605632)
I0117 06:44:51.929508  7678 net.cpp:137] Memory required for data: 3548446976
I0117 06:44:51.929515  7678 layer_factory.hpp:77] Creating layer res5a_branch2a
I0117 06:44:51.929567  7678 net.cpp:84] Creating Layer res5a_branch2a
I0117 06:44:51.929575  7678 net.cpp:406] res5a_branch2a <- res4f_res4f_relu_0_split_1
I0117 06:44:51.929585  7678 net.cpp:380] res5a_branch2a -> res5a_branch2a
I0117 06:44:51.934223  7678 net.cpp:122] Setting up res5a_branch2a
I0117 06:44:51.934245  7678 net.cpp:129] Top shape: 16 512 7 7 (401408)
I0117 06:44:51.934250  7678 net.cpp:137] Memory required for data: 3550052608
I0117 06:44:51.934265  7678 layer_factory.hpp:77] Creating layer bn5a_branch2a
I0117 06:44:51.934279  7678 net.cpp:84] Creating Layer bn5a_branch2a
I0117 06:44:51.934285  7678 net.cpp:406] bn5a_branch2a <- res5a_branch2a
I0117 06:44:51.934293  7678 net.cpp:367] bn5a_branch2a -> res5a_branch2a (in-place)
I0117 06:44:51.934695  7678 net.cpp:122] Setting up bn5a_branch2a
I0117 06:44:51.934707  7678 net.cpp:129] Top shape: 16 512 7 7 (401408)
I0117 06:44:51.934711  7678 net.cpp:137] Memory required for data: 3551658240
I0117 06:44:51.934722  7678 layer_factory.hpp:77] Creating layer scale5a_branch2a
I0117 06:44:51.934742  7678 net.cpp:84] Creating Layer scale5a_branch2a
I0117 06:44:51.934747  7678 net.cpp:406] scale5a_branch2a <- res5a_branch2a
I0117 06:44:51.934756  7678 net.cpp:367] scale5a_branch2a -> res5a_branch2a (in-place)
I0117 06:44:51.934831  7678 layer_factory.hpp:77] Creating layer scale5a_branch2a
I0117 06:44:51.935039  7678 net.cpp:122] Setting up scale5a_branch2a
I0117 06:44:51.935048  7678 net.cpp:129] Top shape: 16 512 7 7 (401408)
I0117 06:44:51.935052  7678 net.cpp:137] Memory required for data: 3553263872
I0117 06:44:51.935061  7678 layer_factory.hpp:77] Creating layer res5a_branch2a_relu
I0117 06:44:51.935073  7678 net.cpp:84] Creating Layer res5a_branch2a_relu
I0117 06:44:51.935078  7678 net.cpp:406] res5a_branch2a_relu <- res5a_branch2a
I0117 06:44:51.935087  7678 net.cpp:367] res5a_branch2a_relu -> res5a_branch2a (in-place)
I0117 06:44:51.936223  7678 net.cpp:122] Setting up res5a_branch2a_relu
I0117 06:44:51.936242  7678 net.cpp:129] Top shape: 16 512 7 7 (401408)
I0117 06:44:51.936247  7678 net.cpp:137] Memory required for data: 3554869504
I0117 06:44:51.936252  7678 layer_factory.hpp:77] Creating layer res5a_branch2b
I0117 06:44:51.936267  7678 net.cpp:84] Creating Layer res5a_branch2b
I0117 06:44:51.936282  7678 net.cpp:406] res5a_branch2b <- res5a_branch2a
I0117 06:44:51.936292  7678 net.cpp:380] res5a_branch2b -> res5a_branch2b
I0117 06:44:51.947402  7678 net.cpp:122] Setting up res5a_branch2b
I0117 06:44:51.947427  7678 net.cpp:129] Top shape: 16 512 7 7 (401408)
I0117 06:44:51.947432  7678 net.cpp:137] Memory required for data: 3556475136
I0117 06:44:51.947443  7678 layer_factory.hpp:77] Creating layer bn5a_branch2b
I0117 06:44:51.947453  7678 net.cpp:84] Creating Layer bn5a_branch2b
I0117 06:44:51.947461  7678 net.cpp:406] bn5a_branch2b <- res5a_branch2b
I0117 06:44:51.947469  7678 net.cpp:367] bn5a_branch2b -> res5a_branch2b (in-place)
I0117 06:44:51.947834  7678 net.cpp:122] Setting up bn5a_branch2b
I0117 06:44:51.947846  7678 net.cpp:129] Top shape: 16 512 7 7 (401408)
I0117 06:44:51.947851  7678 net.cpp:137] Memory required for data: 3558080768
I0117 06:44:51.947863  7678 layer_factory.hpp:77] Creating layer scale5a_branch2b
I0117 06:44:51.947875  7678 net.cpp:84] Creating Layer scale5a_branch2b
I0117 06:44:51.947880  7678 net.cpp:406] scale5a_branch2b <- res5a_branch2b
I0117 06:44:51.947886  7678 net.cpp:367] scale5a_branch2b -> res5a_branch2b (in-place)
I0117 06:44:51.947952  7678 layer_factory.hpp:77] Creating layer scale5a_branch2b
I0117 06:44:51.948185  7678 net.cpp:122] Setting up scale5a_branch2b
I0117 06:44:51.948197  7678 net.cpp:129] Top shape: 16 512 7 7 (401408)
I0117 06:44:51.948202  7678 net.cpp:137] Memory required for data: 3559686400
I0117 06:44:51.948211  7678 layer_factory.hpp:77] Creating layer res5a_branch2b_relu
I0117 06:44:51.948223  7678 net.cpp:84] Creating Layer res5a_branch2b_relu
I0117 06:44:51.948227  7678 net.cpp:406] res5a_branch2b_relu <- res5a_branch2b
I0117 06:44:51.948233  7678 net.cpp:367] res5a_branch2b_relu -> res5a_branch2b (in-place)
I0117 06:44:51.948534  7678 net.cpp:122] Setting up res5a_branch2b_relu
I0117 06:44:51.948546  7678 net.cpp:129] Top shape: 16 512 7 7 (401408)
I0117 06:44:51.948551  7678 net.cpp:137] Memory required for data: 3561292032
I0117 06:44:51.948555  7678 layer_factory.hpp:77] Creating layer res5a_branch2c
I0117 06:44:51.948568  7678 net.cpp:84] Creating Layer res5a_branch2c
I0117 06:44:51.948576  7678 net.cpp:406] res5a_branch2c <- res5a_branch2b
I0117 06:44:51.948583  7678 net.cpp:380] res5a_branch2c -> res5a_branch2c
I0117 06:44:51.954979  7678 net.cpp:122] Setting up res5a_branch2c
I0117 06:44:51.955001  7678 net.cpp:129] Top shape: 16 2048 7 7 (1605632)
I0117 06:44:51.955006  7678 net.cpp:137] Memory required for data: 3567714560
I0117 06:44:51.955014  7678 layer_factory.hpp:77] Creating layer bn5a_branch2c
I0117 06:44:51.955026  7678 net.cpp:84] Creating Layer bn5a_branch2c
I0117 06:44:51.955032  7678 net.cpp:406] bn5a_branch2c <- res5a_branch2c
I0117 06:44:51.955044  7678 net.cpp:367] bn5a_branch2c -> res5a_branch2c (in-place)
I0117 06:44:51.955381  7678 net.cpp:122] Setting up bn5a_branch2c
I0117 06:44:51.955391  7678 net.cpp:129] Top shape: 16 2048 7 7 (1605632)
I0117 06:44:51.955395  7678 net.cpp:137] Memory required for data: 3574137088
I0117 06:44:51.955407  7678 layer_factory.hpp:77] Creating layer scale5a_branch2c
I0117 06:44:51.955418  7678 net.cpp:84] Creating Layer scale5a_branch2c
I0117 06:44:51.955423  7678 net.cpp:406] scale5a_branch2c <- res5a_branch2c
I0117 06:44:51.955430  7678 net.cpp:367] scale5a_branch2c -> res5a_branch2c (in-place)
I0117 06:44:51.955498  7678 layer_factory.hpp:77] Creating layer scale5a_branch2c
I0117 06:44:51.955703  7678 net.cpp:122] Setting up scale5a_branch2c
I0117 06:44:51.955714  7678 net.cpp:129] Top shape: 16 2048 7 7 (1605632)
I0117 06:44:51.955718  7678 net.cpp:137] Memory required for data: 3580559616
I0117 06:44:51.955725  7678 layer_factory.hpp:77] Creating layer res5a
I0117 06:44:51.955736  7678 net.cpp:84] Creating Layer res5a
I0117 06:44:51.955741  7678 net.cpp:406] res5a <- res5a_branch1
I0117 06:44:51.955746  7678 net.cpp:406] res5a <- res5a_branch2c
I0117 06:44:51.955755  7678 net.cpp:380] res5a -> res5a
I0117 06:44:51.955792  7678 net.cpp:122] Setting up res5a
I0117 06:44:51.955804  7678 net.cpp:129] Top shape: 16 2048 7 7 (1605632)
I0117 06:44:51.955809  7678 net.cpp:137] Memory required for data: 3586982144
I0117 06:44:51.955813  7678 layer_factory.hpp:77] Creating layer res5a_relu
I0117 06:44:51.955821  7678 net.cpp:84] Creating Layer res5a_relu
I0117 06:44:51.955824  7678 net.cpp:406] res5a_relu <- res5a
I0117 06:44:51.955830  7678 net.cpp:367] res5a_relu -> res5a (in-place)
I0117 06:44:51.956995  7678 net.cpp:122] Setting up res5a_relu
I0117 06:44:51.957013  7678 net.cpp:129] Top shape: 16 2048 7 7 (1605632)
I0117 06:44:51.957018  7678 net.cpp:137] Memory required for data: 3593404672
I0117 06:44:51.957022  7678 layer_factory.hpp:77] Creating layer res5a_res5a_relu_0_split
I0117 06:44:51.957042  7678 net.cpp:84] Creating Layer res5a_res5a_relu_0_split
I0117 06:44:51.957047  7678 net.cpp:406] res5a_res5a_relu_0_split <- res5a
I0117 06:44:51.957054  7678 net.cpp:380] res5a_res5a_relu_0_split -> res5a_res5a_relu_0_split_0
I0117 06:44:51.957069  7678 net.cpp:380] res5a_res5a_relu_0_split -> res5a_res5a_relu_0_split_1
I0117 06:44:51.957144  7678 net.cpp:122] Setting up res5a_res5a_relu_0_split
I0117 06:44:51.957175  7678 net.cpp:129] Top shape: 16 2048 7 7 (1605632)
I0117 06:44:51.957180  7678 net.cpp:129] Top shape: 16 2048 7 7 (1605632)
I0117 06:44:51.957209  7678 net.cpp:137] Memory required for data: 3606249728
I0117 06:44:51.957219  7678 layer_factory.hpp:77] Creating layer res5b_branch2a
I0117 06:44:51.957232  7678 net.cpp:84] Creating Layer res5b_branch2a
I0117 06:44:51.957240  7678 net.cpp:406] res5b_branch2a <- res5a_res5a_relu_0_split_0
I0117 06:44:51.957247  7678 net.cpp:380] res5b_branch2a -> res5b_branch2a
I0117 06:44:51.962817  7678 net.cpp:122] Setting up res5b_branch2a
I0117 06:44:51.962839  7678 net.cpp:129] Top shape: 16 512 7 7 (401408)
I0117 06:44:51.962844  7678 net.cpp:137] Memory required for data: 3607855360
I0117 06:44:51.962852  7678 layer_factory.hpp:77] Creating layer bn5b_branch2a
I0117 06:44:51.962862  7678 net.cpp:84] Creating Layer bn5b_branch2a
I0117 06:44:51.962867  7678 net.cpp:406] bn5b_branch2a <- res5b_branch2a
I0117 06:44:51.962873  7678 net.cpp:367] bn5b_branch2a -> res5b_branch2a (in-place)
I0117 06:44:51.963202  7678 net.cpp:122] Setting up bn5b_branch2a
I0117 06:44:51.963217  7678 net.cpp:129] Top shape: 16 512 7 7 (401408)
I0117 06:44:51.963220  7678 net.cpp:137] Memory required for data: 3609460992
I0117 06:44:51.963229  7678 layer_factory.hpp:77] Creating layer scale5b_branch2a
I0117 06:44:51.963238  7678 net.cpp:84] Creating Layer scale5b_branch2a
I0117 06:44:51.963241  7678 net.cpp:406] scale5b_branch2a <- res5b_branch2a
I0117 06:44:51.963248  7678 net.cpp:367] scale5b_branch2a -> res5b_branch2a (in-place)
I0117 06:44:51.963315  7678 layer_factory.hpp:77] Creating layer scale5b_branch2a
I0117 06:44:51.963505  7678 net.cpp:122] Setting up scale5b_branch2a
I0117 06:44:51.963515  7678 net.cpp:129] Top shape: 16 512 7 7 (401408)
I0117 06:44:51.963520  7678 net.cpp:137] Memory required for data: 3611066624
I0117 06:44:51.963527  7678 layer_factory.hpp:77] Creating layer res5b_branch2a_relu
I0117 06:44:51.963537  7678 net.cpp:84] Creating Layer res5b_branch2a_relu
I0117 06:44:51.963543  7678 net.cpp:406] res5b_branch2a_relu <- res5b_branch2a
I0117 06:44:51.963551  7678 net.cpp:367] res5b_branch2a_relu -> res5b_branch2a (in-place)
I0117 06:44:51.964540  7678 net.cpp:122] Setting up res5b_branch2a_relu
I0117 06:44:51.964560  7678 net.cpp:129] Top shape: 16 512 7 7 (401408)
I0117 06:44:51.964565  7678 net.cpp:137] Memory required for data: 3612672256
I0117 06:44:51.964570  7678 layer_factory.hpp:77] Creating layer res5b_branch2b
I0117 06:44:51.964582  7678 net.cpp:84] Creating Layer res5b_branch2b
I0117 06:44:51.964587  7678 net.cpp:406] res5b_branch2b <- res5b_branch2a
I0117 06:44:51.964594  7678 net.cpp:380] res5b_branch2b -> res5b_branch2b
I0117 06:44:51.974750  7678 net.cpp:122] Setting up res5b_branch2b
I0117 06:44:51.974781  7678 net.cpp:129] Top shape: 16 512 7 7 (401408)
I0117 06:44:51.974784  7678 net.cpp:137] Memory required for data: 3614277888
I0117 06:44:51.974797  7678 layer_factory.hpp:77] Creating layer bn5b_branch2b
I0117 06:44:51.974809  7678 net.cpp:84] Creating Layer bn5b_branch2b
I0117 06:44:51.974814  7678 net.cpp:406] bn5b_branch2b <- res5b_branch2b
I0117 06:44:51.974822  7678 net.cpp:367] bn5b_branch2b -> res5b_branch2b (in-place)
I0117 06:44:51.975132  7678 net.cpp:122] Setting up bn5b_branch2b
I0117 06:44:51.975149  7678 net.cpp:129] Top shape: 16 512 7 7 (401408)
I0117 06:44:51.975152  7678 net.cpp:137] Memory required for data: 3615883520
I0117 06:44:51.975162  7678 layer_factory.hpp:77] Creating layer scale5b_branch2b
I0117 06:44:51.975173  7678 net.cpp:84] Creating Layer scale5b_branch2b
I0117 06:44:51.975178  7678 net.cpp:406] scale5b_branch2b <- res5b_branch2b
I0117 06:44:51.975184  7678 net.cpp:367] scale5b_branch2b -> res5b_branch2b (in-place)
I0117 06:44:51.975244  7678 layer_factory.hpp:77] Creating layer scale5b_branch2b
I0117 06:44:51.975417  7678 net.cpp:122] Setting up scale5b_branch2b
I0117 06:44:51.975427  7678 net.cpp:129] Top shape: 16 512 7 7 (401408)
I0117 06:44:51.975432  7678 net.cpp:137] Memory required for data: 3617489152
I0117 06:44:51.975440  7678 layer_factory.hpp:77] Creating layer res5b_branch2b_relu
I0117 06:44:51.975471  7678 net.cpp:84] Creating Layer res5b_branch2b_relu
I0117 06:44:51.975476  7678 net.cpp:406] res5b_branch2b_relu <- res5b_branch2b
I0117 06:44:51.975487  7678 net.cpp:367] res5b_branch2b_relu -> res5b_branch2b (in-place)
I0117 06:44:51.975749  7678 net.cpp:122] Setting up res5b_branch2b_relu
I0117 06:44:51.975762  7678 net.cpp:129] Top shape: 16 512 7 7 (401408)
I0117 06:44:51.975765  7678 net.cpp:137] Memory required for data: 3619094784
I0117 06:44:51.975769  7678 layer_factory.hpp:77] Creating layer res5b_branch2c
I0117 06:44:51.975783  7678 net.cpp:84] Creating Layer res5b_branch2c
I0117 06:44:51.975788  7678 net.cpp:406] res5b_branch2c <- res5b_branch2b
I0117 06:44:51.975795  7678 net.cpp:380] res5b_branch2c -> res5b_branch2c
I0117 06:44:51.981709  7678 net.cpp:122] Setting up res5b_branch2c
I0117 06:44:51.981731  7678 net.cpp:129] Top shape: 16 2048 7 7 (1605632)
I0117 06:44:51.981735  7678 net.cpp:137] Memory required for data: 3625517312
I0117 06:44:51.981745  7678 layer_factory.hpp:77] Creating layer bn5b_branch2c
I0117 06:44:51.981758  7678 net.cpp:84] Creating Layer bn5b_branch2c
I0117 06:44:51.981763  7678 net.cpp:406] bn5b_branch2c <- res5b_branch2c
I0117 06:44:51.981770  7678 net.cpp:367] bn5b_branch2c -> res5b_branch2c (in-place)
I0117 06:44:51.982095  7678 net.cpp:122] Setting up bn5b_branch2c
I0117 06:44:51.982105  7678 net.cpp:129] Top shape: 16 2048 7 7 (1605632)
I0117 06:44:51.982110  7678 net.cpp:137] Memory required for data: 3631939840
I0117 06:44:51.982118  7678 layer_factory.hpp:77] Creating layer scale5b_branch2c
I0117 06:44:51.982125  7678 net.cpp:84] Creating Layer scale5b_branch2c
I0117 06:44:51.982129  7678 net.cpp:406] scale5b_branch2c <- res5b_branch2c
I0117 06:44:51.982137  7678 net.cpp:367] scale5b_branch2c -> res5b_branch2c (in-place)
I0117 06:44:51.982194  7678 layer_factory.hpp:77] Creating layer scale5b_branch2c
I0117 06:44:51.982398  7678 net.cpp:122] Setting up scale5b_branch2c
I0117 06:44:51.982409  7678 net.cpp:129] Top shape: 16 2048 7 7 (1605632)
I0117 06:44:51.982414  7678 net.cpp:137] Memory required for data: 3638362368
I0117 06:44:51.982420  7678 layer_factory.hpp:77] Creating layer res5b
I0117 06:44:51.982429  7678 net.cpp:84] Creating Layer res5b
I0117 06:44:51.982437  7678 net.cpp:406] res5b <- res5a_res5a_relu_0_split_1
I0117 06:44:51.982445  7678 net.cpp:406] res5b <- res5b_branch2c
I0117 06:44:51.982450  7678 net.cpp:380] res5b -> res5b
I0117 06:44:51.982489  7678 net.cpp:122] Setting up res5b
I0117 06:44:51.982498  7678 net.cpp:129] Top shape: 16 2048 7 7 (1605632)
I0117 06:44:51.982506  7678 net.cpp:137] Memory required for data: 3644784896
I0117 06:44:51.982509  7678 layer_factory.hpp:77] Creating layer res5b_relu
I0117 06:44:51.982517  7678 net.cpp:84] Creating Layer res5b_relu
I0117 06:44:51.982520  7678 net.cpp:406] res5b_relu <- res5b
I0117 06:44:51.982525  7678 net.cpp:367] res5b_relu -> res5b (in-place)
I0117 06:44:51.982775  7678 net.cpp:122] Setting up res5b_relu
I0117 06:44:51.982787  7678 net.cpp:129] Top shape: 16 2048 7 7 (1605632)
I0117 06:44:51.982791  7678 net.cpp:137] Memory required for data: 3651207424
I0117 06:44:51.982795  7678 layer_factory.hpp:77] Creating layer res5b_res5b_relu_0_split
I0117 06:44:51.982802  7678 net.cpp:84] Creating Layer res5b_res5b_relu_0_split
I0117 06:44:51.982807  7678 net.cpp:406] res5b_res5b_relu_0_split <- res5b
I0117 06:44:51.982825  7678 net.cpp:380] res5b_res5b_relu_0_split -> res5b_res5b_relu_0_split_0
I0117 06:44:51.982875  7678 net.cpp:380] res5b_res5b_relu_0_split -> res5b_res5b_relu_0_split_1
I0117 06:44:51.982941  7678 net.cpp:122] Setting up res5b_res5b_relu_0_split
I0117 06:44:51.982949  7678 net.cpp:129] Top shape: 16 2048 7 7 (1605632)
I0117 06:44:51.982954  7678 net.cpp:129] Top shape: 16 2048 7 7 (1605632)
I0117 06:44:51.982959  7678 net.cpp:137] Memory required for data: 3664052480
I0117 06:44:51.982964  7678 layer_factory.hpp:77] Creating layer res5c_branch2a
I0117 06:44:51.982975  7678 net.cpp:84] Creating Layer res5c_branch2a
I0117 06:44:51.982980  7678 net.cpp:406] res5c_branch2a <- res5b_res5b_relu_0_split_0
I0117 06:44:51.983007  7678 net.cpp:380] res5c_branch2a -> res5c_branch2a
I0117 06:44:51.988826  7678 net.cpp:122] Setting up res5c_branch2a
I0117 06:44:51.988845  7678 net.cpp:129] Top shape: 16 512 7 7 (401408)
I0117 06:44:51.988849  7678 net.cpp:137] Memory required for data: 3665658112
I0117 06:44:51.988855  7678 layer_factory.hpp:77] Creating layer bn5c_branch2a
I0117 06:44:51.988867  7678 net.cpp:84] Creating Layer bn5c_branch2a
I0117 06:44:51.988871  7678 net.cpp:406] bn5c_branch2a <- res5c_branch2a
I0117 06:44:51.988878  7678 net.cpp:367] bn5c_branch2a -> res5c_branch2a (in-place)
I0117 06:44:51.989177  7678 net.cpp:122] Setting up bn5c_branch2a
I0117 06:44:51.989187  7678 net.cpp:129] Top shape: 16 512 7 7 (401408)
I0117 06:44:51.989192  7678 net.cpp:137] Memory required for data: 3667263744
I0117 06:44:51.989200  7678 layer_factory.hpp:77] Creating layer scale5c_branch2a
I0117 06:44:51.989210  7678 net.cpp:84] Creating Layer scale5c_branch2a
I0117 06:44:51.989213  7678 net.cpp:406] scale5c_branch2a <- res5c_branch2a
I0117 06:44:51.989219  7678 net.cpp:367] scale5c_branch2a -> res5c_branch2a (in-place)
I0117 06:44:51.989281  7678 layer_factory.hpp:77] Creating layer scale5c_branch2a
I0117 06:44:51.989485  7678 net.cpp:122] Setting up scale5c_branch2a
I0117 06:44:51.989495  7678 net.cpp:129] Top shape: 16 512 7 7 (401408)
I0117 06:44:51.989498  7678 net.cpp:137] Memory required for data: 3668869376
I0117 06:44:51.989506  7678 layer_factory.hpp:77] Creating layer res5c_branch2a_relu
I0117 06:44:51.989514  7678 net.cpp:84] Creating Layer res5c_branch2a_relu
I0117 06:44:51.989540  7678 net.cpp:406] res5c_branch2a_relu <- res5c_branch2a
I0117 06:44:51.989547  7678 net.cpp:367] res5c_branch2a_relu -> res5c_branch2a (in-place)
I0117 06:44:51.989784  7678 net.cpp:122] Setting up res5c_branch2a_relu
I0117 06:44:51.989804  7678 net.cpp:129] Top shape: 16 512 7 7 (401408)
I0117 06:44:51.989809  7678 net.cpp:137] Memory required for data: 3670475008
I0117 06:44:51.989814  7678 layer_factory.hpp:77] Creating layer res5c_branch2b
I0117 06:44:51.989822  7678 net.cpp:84] Creating Layer res5c_branch2b
I0117 06:44:51.989827  7678 net.cpp:406] res5c_branch2b <- res5c_branch2a
I0117 06:44:51.989835  7678 net.cpp:380] res5c_branch2b -> res5c_branch2b
I0117 06:44:52.000133  7678 net.cpp:122] Setting up res5c_branch2b
I0117 06:44:52.000160  7678 net.cpp:129] Top shape: 16 512 7 7 (401408)
I0117 06:44:52.000165  7678 net.cpp:137] Memory required for data: 3672080640
I0117 06:44:52.000174  7678 layer_factory.hpp:77] Creating layer bn5c_branch2b
I0117 06:44:52.000187  7678 net.cpp:84] Creating Layer bn5c_branch2b
I0117 06:44:52.000192  7678 net.cpp:406] bn5c_branch2b <- res5c_branch2b
I0117 06:44:52.000202  7678 net.cpp:367] bn5c_branch2b -> res5c_branch2b (in-place)
I0117 06:44:52.000525  7678 net.cpp:122] Setting up bn5c_branch2b
I0117 06:44:52.000535  7678 net.cpp:129] Top shape: 16 512 7 7 (401408)
I0117 06:44:52.000540  7678 net.cpp:137] Memory required for data: 3673686272
I0117 06:44:52.000548  7678 layer_factory.hpp:77] Creating layer scale5c_branch2b
I0117 06:44:52.000560  7678 net.cpp:84] Creating Layer scale5c_branch2b
I0117 06:44:52.000563  7678 net.cpp:406] scale5c_branch2b <- res5c_branch2b
I0117 06:44:52.000578  7678 net.cpp:367] scale5c_branch2b -> res5c_branch2b (in-place)
I0117 06:44:52.000636  7678 layer_factory.hpp:77] Creating layer scale5c_branch2b
I0117 06:44:52.000825  7678 net.cpp:122] Setting up scale5c_branch2b
I0117 06:44:52.000835  7678 net.cpp:129] Top shape: 16 512 7 7 (401408)
I0117 06:44:52.000840  7678 net.cpp:137] Memory required for data: 3675291904
I0117 06:44:52.000847  7678 layer_factory.hpp:77] Creating layer res5c_branch2b_relu
I0117 06:44:52.000855  7678 net.cpp:84] Creating Layer res5c_branch2b_relu
I0117 06:44:52.000861  7678 net.cpp:406] res5c_branch2b_relu <- res5c_branch2b
I0117 06:44:52.000865  7678 net.cpp:367] res5c_branch2b_relu -> res5c_branch2b (in-place)
I0117 06:44:52.001116  7678 net.cpp:122] Setting up res5c_branch2b_relu
I0117 06:44:52.001128  7678 net.cpp:129] Top shape: 16 512 7 7 (401408)
I0117 06:44:52.001168  7678 net.cpp:137] Memory required for data: 3676897536
I0117 06:44:52.001175  7678 layer_factory.hpp:77] Creating layer res5c_branch2c
I0117 06:44:52.001190  7678 net.cpp:84] Creating Layer res5c_branch2c
I0117 06:44:52.001197  7678 net.cpp:406] res5c_branch2c <- res5c_branch2b
I0117 06:44:52.001204  7678 net.cpp:380] res5c_branch2c -> res5c_branch2c
I0117 06:44:52.009542  7678 net.cpp:122] Setting up res5c_branch2c
I0117 06:44:52.009596  7678 net.cpp:129] Top shape: 16 2048 7 7 (1605632)
I0117 06:44:52.009605  7678 net.cpp:137] Memory required for data: 3683320064
I0117 06:44:52.009620  7678 layer_factory.hpp:77] Creating layer bn5c_branch2c
I0117 06:44:52.009668  7678 net.cpp:84] Creating Layer bn5c_branch2c
I0117 06:44:52.009692  7678 net.cpp:406] bn5c_branch2c <- res5c_branch2c
I0117 06:44:52.009717  7678 net.cpp:367] bn5c_branch2c -> res5c_branch2c (in-place)
I0117 06:44:52.010372  7678 net.cpp:122] Setting up bn5c_branch2c
I0117 06:44:52.010390  7678 net.cpp:129] Top shape: 16 2048 7 7 (1605632)
I0117 06:44:52.010396  7678 net.cpp:137] Memory required for data: 3689742592
I0117 06:44:52.010416  7678 layer_factory.hpp:77] Creating layer scale5c_branch2c
I0117 06:44:52.010429  7678 net.cpp:84] Creating Layer scale5c_branch2c
I0117 06:44:52.010437  7678 net.cpp:406] scale5c_branch2c <- res5c_branch2c
I0117 06:44:52.010445  7678 net.cpp:367] scale5c_branch2c -> res5c_branch2c (in-place)
I0117 06:44:52.010588  7678 layer_factory.hpp:77] Creating layer scale5c_branch2c
I0117 06:44:52.010900  7678 net.cpp:122] Setting up scale5c_branch2c
I0117 06:44:52.010913  7678 net.cpp:129] Top shape: 16 2048 7 7 (1605632)
I0117 06:44:52.010920  7678 net.cpp:137] Memory required for data: 3696165120
I0117 06:44:52.010931  7678 layer_factory.hpp:77] Creating layer res5c
I0117 06:44:52.010948  7678 net.cpp:84] Creating Layer res5c
I0117 06:44:52.010957  7678 net.cpp:406] res5c <- res5b_res5b_relu_0_split_1
I0117 06:44:52.010965  7678 net.cpp:406] res5c <- res5c_branch2c
I0117 06:44:52.010974  7678 net.cpp:380] res5c -> res5c
I0117 06:44:52.011034  7678 net.cpp:122] Setting up res5c
I0117 06:44:52.011049  7678 net.cpp:129] Top shape: 16 2048 7 7 (1605632)
I0117 06:44:52.011054  7678 net.cpp:137] Memory required for data: 3702587648
I0117 06:44:52.011060  7678 layer_factory.hpp:77] Creating layer res5c_relu
I0117 06:44:52.011076  7678 net.cpp:84] Creating Layer res5c_relu
I0117 06:44:52.011085  7678 net.cpp:406] res5c_relu <- res5c
I0117 06:44:52.011096  7678 net.cpp:367] res5c_relu -> res5c (in-place)
I0117 06:44:52.012605  7678 net.cpp:122] Setting up res5c_relu
I0117 06:44:52.012634  7678 net.cpp:129] Top shape: 16 2048 7 7 (1605632)
I0117 06:44:52.012641  7678 net.cpp:137] Memory required for data: 3709010176
I0117 06:44:52.012648  7678 layer_factory.hpp:77] Creating layer pool5
I0117 06:44:52.012665  7678 net.cpp:84] Creating Layer pool5
I0117 06:44:52.012672  7678 net.cpp:406] pool5 <- res5c
I0117 06:44:52.012693  7678 net.cpp:380] pool5 -> pool5
I0117 06:44:52.013232  7678 net.cpp:122] Setting up pool5
I0117 06:44:52.013252  7678 net.cpp:129] Top shape: 16 2048 1 1 (32768)
I0117 06:44:52.013268  7678 net.cpp:137] Memory required for data: 3709141248
I0117 06:44:52.013275  7678 layer_factory.hpp:77] Creating layer wh_fc_724
I0117 06:44:52.013288  7678 net.cpp:84] Creating Layer wh_fc_724
I0117 06:44:52.013294  7678 net.cpp:406] wh_fc_724 <- pool5
I0117 06:44:52.013308  7678 net.cpp:380] wh_fc_724 -> wh_fc_724
I0117 06:44:52.020956  7678 net.cpp:122] Setting up wh_fc_724
I0117 06:44:52.021000  7678 net.cpp:129] Top shape: 16 724 (11584)
I0117 06:44:52.021018  7678 net.cpp:137] Memory required for data: 3709187584
I0117 06:44:52.021031  7678 layer_factory.hpp:77] Creating layer wh_fc_724_wh_fc_724_0_split
I0117 06:44:52.021044  7678 net.cpp:84] Creating Layer wh_fc_724_wh_fc_724_0_split
I0117 06:44:52.021052  7678 net.cpp:406] wh_fc_724_wh_fc_724_0_split <- wh_fc_724
I0117 06:44:52.021073  7678 net.cpp:380] wh_fc_724_wh_fc_724_0_split -> wh_fc_724_wh_fc_724_0_split_0
I0117 06:44:52.021137  7678 net.cpp:380] wh_fc_724_wh_fc_724_0_split -> wh_fc_724_wh_fc_724_0_split_1
I0117 06:44:52.021157  7678 net.cpp:380] wh_fc_724_wh_fc_724_0_split -> wh_fc_724_wh_fc_724_0_split_2
I0117 06:44:52.021306  7678 net.cpp:122] Setting up wh_fc_724_wh_fc_724_0_split
I0117 06:44:52.021319  7678 net.cpp:129] Top shape: 16 724 (11584)
I0117 06:44:52.021327  7678 net.cpp:129] Top shape: 16 724 (11584)
I0117 06:44:52.021337  7678 net.cpp:129] Top shape: 16 724 (11584)
I0117 06:44:52.021342  7678 net.cpp:137] Memory required for data: 3709326592
I0117 06:44:52.021348  7678 layer_factory.hpp:77] Creating layer loss
I0117 06:44:52.021366  7678 net.cpp:84] Creating Layer loss
I0117 06:44:52.021375  7678 net.cpp:406] loss <- wh_fc_724_wh_fc_724_0_split_0
I0117 06:44:52.021384  7678 net.cpp:406] loss <- label_data_1_split_0
I0117 06:44:52.021400  7678 net.cpp:380] loss -> loss
…
