…
I0117 06:38:29.764865  7669 caffe.cpp:279] GPU device name: Tesla P100-SXM2-16GB
I0117 06:38:31.112007  7669 net.cpp:51] Initializing net from parameters: 
name: "ResNet-50"
state {
  phase: TEST
  level: 0
  stage: ""
}
layer {
  name: "data"
  type: "Data"
  top: "data"
  top: "label"
  include {
    phase: TEST
  }
  transform_param {
    mirror: false
    crop_size: 224
    mean_file: "../newFood724_TEST/newFood724_aug_mean.binaryproto"
  }
  data_param {
    source: "../newFood724_TEST/newFood724_test_lmdb"
    batch_size: 16
    backend: LMDB
  }
}
layer {
  name: "conv1"
  type: "Convolution"
  bottom: "data"
  top: "conv1"
  convolution_param {
    num_output: 64
    pad: 3
    kernel_size: 7
    stride: 2
  }
}
layer {
  name: "bn_conv1"
  type: "BatchNorm"
  bottom: "conv1"
  top: "conv1"
  batch_norm_param {
    use_global_stats: true
  }
}
layer {
  name: "scale_conv1"
  type: "Scale"
  bottom: "conv1"
  top: "conv1"
  scale_param {
    bias_term: true
  }
}
layer {
  name: "conv1_relu"
  type: "ReLU"
  bottom: "conv1"
  top: "conv1"
}
layer {
  name: "pool1"
  type: "Pooling"
  bottom: "conv1"
  top: "pool1"
  pooling_param {
    pool: MAX
    kernel_size: 3
    stride: 2
  }
}
layer {
  name: "res2a_branch1"
  type: "Convolution"
  bottom: "pool1"
  top: "res2a_branch1"
  convolution_param {
    num_output: 256
    bias_term: false
    pad: 0
    kernel_size: 1
    stride: 1
  }
}
layer {
  name: "bn2a_branch1"
  type: "BatchNorm"
  bottom: "res2a_branch1"
  top: "res2a_branch1"
  batch_norm_param {
    use_global_stats: true
  }
}
layer {
  name: "scale2a_branch1"
  type: "Scale"
  bottom: "res2a_branch1"
  top: "res2a_branch1"
  scale_param {
    bias_term: true
  }
}
layer {
  name: "res2a_branch2a"
  type: "Convolution"
  bottom: "pool1"
  top: "res2a_branch2a"
  convolution_param {
    num_output: 64
    bias_term: false
    pad: 0
    kernel_size: 1
    stride: 1
  }
}
layer {
  name: "bn2a_branch2a"
  type: "BatchNorm"
  bottom: "res2a_branch2a"
  top: "res2a_branch2a"
  batch_norm_param {
    use_global_stats: true
  }
}
layer {
  name: "scale2a_branch2a"
  type: "Scale"
  bottom: "res2a_branch2a"
  top: "res2a_branch2a"
  scale_param {
    bias_term: true
  }
}
layer {
  name: "res2a_branch2a_relu"
  type: "ReLU"
  bottom: "res2a_branch2a"
  top: "res2a_branch2a"
}
layer {
  name: "res2a_branch2b"
  type: "Convolution"
  bottom: "res2a_branch2a"
  top: "res2a_branch2b"
  convolution_param {
    num_output: 64
    bias_term: false
    pad: 1
    kernel_size: 3
    stride: 1
  }
}
layer {
  name: "bn2a_branch2b"
  type: "BatchNorm"
  bottom: "res2a_branch2b"
  top: "res2a_branch2b"
  batch_norm_param {
    use_global_stats: true
  }
}
layer {
  name: "scale2a_branch2b"
  type: "Scale"
  bottom: "res2a_branch2b"
  top: "res2a_branch2b"
  scale_param {
    bias_term: true
  }
}
layer {
  name: "res2a_branch2b_relu"
  type: "ReLU"
  bottom: "res2a_branch2b"
  top: "res2a_branch2b"
}
layer {
  name: "res2a_branch2c"
  type: "Convolution"
  bottom: "res2a_branch2b"
  top: "res2a_branch2c"
  convolution_param {
    num_output: 256
    bias_term: false
    pad: 0
    kernel_size: 1
    stride: 1
  }
}
layer {
  name: "bn2a_branch2c"
  type: "BatchNorm"
  bottom: "res2a_branch2c"
  top: "res2a_branch2c"
  batch_norm_param {
    use_global_stats: true
  }
}
layer {
  name: "scale2a_branch2c"
  type: "Scale"
  bottom: "res2a_branch2c"
  top: "res2a_branch2c"
  scale_param {
    bias_term: true
  }
}
layer {
  name: "res2a"
  type: "Eltwise"
  bottom: "res2a_branch1"
  bottom: "res2a_branch2c"
  top: "res2a"
}
layer {
  name: "res2a_relu"
  type: "ReLU"
  bottom: "res2a"
  top: "res2a"
}
layer {
  name: "res2b_branch2a"
  type: "Convolution"
  bottom: "res2a"
  top: "res2b_branch2a"
  convolution_param {
    num_output: 64
    bias_term: false
    pad: 0
    kernel_size: 1
    stride: 1
  }
}
layer {
  name: "bn2b_branch2a"
  type: "BatchNorm"
  bottom: "res2b_branch2a"
  top: "res2b_branch2a"
  batch_norm_param {
    use_global_stats: true
  }
}
layer {
  name: "scale2b_branch2a"
  type: "Scale"
  bottom: "res2b_branch2a"
  top: "res2b_branch2a"
  scale_param {
    bias_term: true
  }
}
layer {
  name: "res2b_branch2a_relu"
  type: "ReLU"
  bottom: "res2b_branch2a"
  top: "res2b_branch2a"
}
layer {
  name: "res2b_branch2b"
  type: "Convolution"
  bottom: "res2b_branch2a"
  top: "res2b_branch2b"
  convolution_param {
    num_output: 64
    bias_term: false
    pad: 1
    kernel_size: 3
    stride: 1
  }
}
layer {
  name: "bn2b_branch2b"
  type: "BatchNorm"
  bottom: "res2b_branch2b"
  top: "res2b_branch2b"
  batch_norm_param {
    use_global_stats: true
  }
}
layer {
  name: "scale2b_branch2b"
  type: "Scale"
  bottom: "res2b_branch2b"
  top: "res2b_branch2b"
  scale_param {
    bias_term: true
  }
}
layer {
  name: "res2b_branch2b_relu"
  type: "ReLU"
  bottom: "res2b_branch2b"
  top: "res2b_branch2b"
}
layer {
  name: "res2b_branch2c"
  type: "Convolution"
  bottom: "res2b_branch2b"
  top: "res2b_branch2c"
  convolution_param {
    num_output: 256
    bias_term: false
    pad: 0
    kernel_size: 1
    stride: 1
  }
}
layer {
  name: "bn2b_branch2c"
  type: "BatchNorm"
  bottom: "res2b_branch2c"
  top: "res2b_branch2c"
  batch_norm_param {
    use_global_stats: true
  }
}
layer {
  name: "scale2b_branch2c"
  type: "Scale"
  bottom: "res2b_branch2c"
  top: "res2b_branch2c"
  scale_param {
    bias_term: true
  }
}
layer {
  name: "res2b"
  type: "Eltwise"
  bottom: "res2a"
  bottom: "res2b_branch2c"
  top: "res2b"
}
layer {
  name: "res2b_relu"
  type: "ReLU"
  bottom: "res2b"
  top: "res2b"
}
layer {
  name: "res2c_branch2a"
  type: "Convolution"
  bottom: "res2b"
  top: "res2c_branch2a"
  convolution_param {
    num_output: 64
    bias_term: false
    pad: 0
    kernel_size: 1
    stride: 1
  }
}
layer {
  name: "bn2c_branch2a"
  type: "BatchNorm"
  bottom: "res2c_branch2a"
  top: "res2c_branch2a"
  batch_norm_param {
    use_global_stats: true
  }
}
layer {
  name: "scale2c_branch2a"
  type: "Scale"
  bottom: "res2c_branch2a"
  top: "res2c_branch2a"
  scale_param {
    bias_term: true
  }
}
layer {
  name: "res2c_branch2a_relu"
  type: "ReLU"
  bottom: "res2c_branch2a"
  top: "res2c_branch2a"
}
layer {
  name: "res2c_branch2b"
  type: "Convolution"
  bottom: "res2c_branch2a"
  top: "res2c_branch2b"
  convolution_param {
    num_output: 64
    bias_term: false
    pad: 1
    kernel_size: 3
    stride: 1
  }
}
layer {
  name: "bn2c_branch2b"
  type: "BatchNorm"
  bottom: "res2c_branch2b"
  top: "res2c_branch2b"
  batch_norm_param {
    use_global_stats: true
  }
}
layer {
  name: "scale2c_branch2b"
  type: "Scale"
  bottom: "res2c_branch2b"
  top: "res2c_branch2b"
  scale_param {
    bias_term: true
  }
}
layer {
  name: "res2c_branch2b_relu"
  type: "ReLU"
  bottom: "res2c_branch2b"
  top: "res2c_branch2b"
}
layer {
  name: "res2c_branch2c"
  type: "Convolution"
  bottom: "res2c_branch2b"
  top: "res2c_branch2c"
  convolution_param {
    num_output: 256
    bias_term: false
    pad: 0
    kernel_size: 1
    stride: 1
  }
}
layer {
  name: "bn2c_branch2c"
  type: "BatchNorm"
  bottom: "res2c_branch2c"
  top: "res2c_branch2c"
  batch_norm_param {
    use_global_stats: true
  }
}
layer {
  name: "scale2c_branch2c"
  type: "Scale"
  bottom: "res2c_branch2c"
  top: "res2c_branch2c"
  scale_param {
    bias_term: true
  }
}
layer {
  name: "res2c"
  type: "Eltwise"
  bottom: "res2b"
  bottom: "res2c_branch2c"
  top: "res2c"
}
layer {
  name: "res2c_relu"
  type: "ReLU"
  bottom: "res2c"
  top: "res2c"
}
layer {
  name: "res3a_branch1"
  type: "Convolution"
  bottom: "res2c"
  top: "res3a_branch1"
  convolution_param {
    num_output: 512
    bias_term: false
    pad: 0
    kernel_size: 1
    stride: 2
  }
}
layer {
  name: "bn3a_branch1"
  type: "BatchNorm"
  bottom: "res3a_branch1"
  top: "res3a_branch1"
  batch_norm_param {
    use_global_stats: true
  }
}
layer {
  name: "scale3a_branch1"
  type: "Scale"
  bottom: "res3a_branch1"
  top: "res3a_branch1"
  scale_param {
    bias_term: true
  }
}
layer {
  name: "res3a_branch2a"
  type: "Convolution"
  bottom: "res2c"
  top: "res3a_branch2a"
  convolution_param {
    num_output: 128
    bias_term: false
    pad: 0
    kernel_size: 1
    stride: 2
  }
}
layer {
  name: "bn3a_branch2a"
  type: "BatchNorm"
  bottom: "res3a_branch2a"
  top: "res3a_branch2a"
  batch_norm_param {
    use_global_stats: true
  }
}
layer {
  name: "scale3a_branch2a"
  type: "Scale"
  bottom: "res3a_branch2a"
  top: "res3a_branch2a"
  scale_param {
    bias_term: true
  }
}
layer {
  name: "res3a_branch2a_relu"
  type: "ReLU"
  bottom: "res3a_branch2a"
  top: "res3a_branch2a"
}
layer {
  name: "res3a_branch2b"
  type: "Convolution"
  bottom: "res3a_branch2a"
  top: "res3a_branch2b"
  convolution_param {
    num_output: 128
    bias_term: false
    pad: 1
    kernel_size: 3
    stride: 1
  }
}
layer {
  name: "bn3a_branch2b"
  type: "BatchNorm"
  bottom: "res3a_branch2b"
  top: "res3a_branch2b"
  batch_norm_param {
    use_global_stats: true
  }
}
layer {
  name: "scale3a_branch2b"
  type: "Scale"
  bottom: "res3a_branch2b"
  top: "res3a_branch2b"
  scale_param {
    bias_term: true
  }
}
layer {
  name: "res3a_branch2b_relu"
  type: "ReLU"
  bottom: "res3a_branch2b"
  top: "res3a_branch2b"
}
layer {
  name: "res3a_branch2c"
  type: "Convolution"
  bottom: "res3a_branch2b"
  top: "res3a_branch2c"
  convolution_param {
    num_output: 512
    bias_term: false
    pad: 0
    kernel_size: 1
    stride: 1
  }
}
layer {
  name: "bn3a_branch2c"
  type: "BatchNorm"
  bottom: "res3a_branch2c"
  top: "res3a_branch2c"
  batch_norm_param {
    use_global_stats: true
  }
}
layer {
  name: "scale3a_branch2c"
  type: "Scale"
  bottom: "res3a_branch2c"
  top: "res3a_branch2c"
  scale_param {
    bias_term: true
  }
}
layer {
  name: "res3a"
  type: "Eltwise"
  bottom: "res3a_branch1"
  bottom: "res3a_branch2c"
  top: "res3a"
}
layer {
  name: "res3a_relu"
  type: "ReLU"
  bottom: "res3a"
  top: "res3a"
}
layer {
  name: "res3b_branch2a"
  type: "Convolution"
  bottom: "res3a"
  top: "res3b_branch2a"
  convolution_param {
    num_output: 128
    bias_term: false
    pad: 0
    kernel_size: 1
    stride: 1
  }
}
layer {
  name: "bn3b_branch2a"
  type: "BatchNorm"
  bottom: "res3b_branch2a"
  top: "res3b_branch2a"
  batch_norm_param {
    use_global_stats: true
  }
}
layer {
  name: "scale3b_branch2a"
  type: "Scale"
  bottom: "res3b_branch2a"
  top: "res3b_branch2a"
  scale_param {
    bias_term: true
  }
}
layer {
  name: "res3b_branch2a_relu"
  type: "ReLU"
  bottom: "res3b_branch2a"
  top: "res3b_branch2a"
}
layer {
  name: "res3b_branch2b"
  type: "Convolution"
  bottom: "res3b_branch2a"
  top: "res3b_branch2b"
  convolution_param {
    num_output: 128
    bias_term: false
    pad: 1
    kernel_size: 3
    stride: 1
  }
}
layer {
  name: "bn3b_branch2b"
  type: "BatchNorm"
  bottom: "res3b_branch2b"
  top: "res3b_branch2b"
  batch_norm_param {
    use_global_stats: true
  }
}
layer {
  name: "scale3b_branch2b"
  type: "Scale"
  bottom: "res3b_branch2b"
  top: "res3b_branch2b"
  scale_param {
    bias_term: true
  }
}
layer {
  name: "res3b_branch2b_relu"
  type: "ReLU"
  bottom: "res3b_branch2b"
  top: "res3b_branch2b"
}
layer {
  name: "res3b_branch2c"
  type: "Convolution"
  bottom: "res3b_branch2b"
  top: "res3b_branch2c"
  convolution_param {
    num_output: 512
    bias_term: false
    pad: 0
    kernel_size: 1
    stride: 1
  }
}
layer {
  name: "bn3b_branch2c"
  type: "BatchNorm"
  bottom: "res3b_branch2c"
  top: "res3b_branch2c"
  batch_norm_param {
    use_global_stats: true
  }
}
layer {
  name: "scale3b_branch2c"
  type: "Scale"
  bottom: "res3b_branch2c"
  top: "res3b_branch2c"
  scale_param {
    bias_term: true
  }
}
layer {
  name: "res3b"
  type: "Eltwise"
  bottom: "res3a"
  bottom: "res3b_branch2c"
  top: "res3b"
}
layer {
  name: "res3b_relu"
  type: "ReLU"
  bottom: "res3b"
  top: "res3b"
}
layer {
  name: "res3c_branch2a"
  type: "Convolution"
  bottom: "res3b"
  top: "res3c_branch2a"
  convolution_param {
    num_output: 128
    bias_term: false
    pad: 0
    kernel_size: 1
    stride: 1
  }
}
layer {
  name: "bn3c_branch2a"
  type: "BatchNorm"
  bottom: "res3c_branch2a"
  top: "res3c_branch2a"
  batch_norm_param {
    use_global_stats: true
  }
}
layer {
  name: "scale3c_branch2a"
  type: "Scale"
  bottom: "res3c_branch2a"
  top: "res3c_branch2a"
  scale_param {
    bias_term: true
  }
}
layer {
  name: "res3c_branch2a_relu"
  type: "ReLU"
  bottom: "res3c_branch2a"
  top: "res3c_branch2a"
}
layer {
  name: "res3c_branch2b"
  type: "Convolution"
  bottom: "res3c_branch2a"
  top: "res3c_branch2b"
  convolution_param {
    num_output: 128
    bias_term: false
    pad: 1
    kernel_size: 3
    stride: 1
  }
}
layer {
  name: "bn3c_branch2b"
  type: "BatchNorm"
  bottom: "res3c_branch2b"
  top: "res3c_branch2b"
  batch_norm_param {
    use_global_stats: true
  }
}
layer {
  name: "scale3c_branch2b"
  type: "Scale"
  bottom: "res3c_branch2b"
  top: "res3c_branch2b"
  scale_param {
    bias_term: true
  }
}
layer {
  name: "res3c_branch2b_relu"
  type: "ReLU"
  bottom: "res3c_branch2b"
  top: "res3c_branch2b"
}
layer {
  name: "res3c_branch2c"
  type: "Convolution"
  bottom: "res3c_branch2b"
  top: "res3c_branch2c"
  convolution_param {
    num_output: 512
    bias_term: false
    pad: 0
    kernel_size: 1
    stride: 1
  }
}
layer {
  name: "bn3c_branch2c"
  type: "BatchNorm"
  bottom: "res3c_branch2c"
  top: "res3c_branch2c"
  batch_norm_param {
    use_global_stats: true
  }
}
layer {
  name: "scale3c_branch2c"
  type: "Scale"
  bottom: "res3c_branch2c"
  top: "res3c_branch2c"
  scale_param {
    bias_term: true
  }
}
layer {
  name: "res3c"
  type: "Eltwise"
  bottom: "res3b"
  bottom: "res3c_branch2c"
  top: "res3c"
}
layer {
  name: "res3c_relu"
  type: "ReLU"
  bottom: "res3c"
  top: "res3c"
}
layer {
  name: "res3d_branch2a"
  type: "Convolution"
  bottom: "res3c"
  top: "res3d_branch2a"
  convolution_param {
    num_output: 128
    bias_term: false
    pad: 0
    kernel_size: 1
    stride: 1
  }
}
layer {
  name: "bn3d_branch2a"
  type: "BatchNorm"
  bottom: "res3d_branch2a"
  top: "res3d_branch2a"
  batch_norm_param {
    use_global_stats: true
  }
}
layer {
  name: "scale3d_branch2a"
  type: "Scale"
  bottom: "res3d_branch2a"
  top: "res3d_branch2a"
  scale_param {
    bias_term: true
  }
}
layer {
  name: "res3d_branch2a_relu"
  type: "ReLU"
  bottom: "res3d_branch2a"
  top: "res3d_branch2a"
}
layer {
  name: "res3d_branch2b"
  type: "Convolution"
  bottom: "res3d_branch2a"
  top: "res3d_branch2b"
  convolution_param {
    num_output: 128
    bias_term: false
    pad: 1
    kernel_size: 3
    stride: 1
  }
}
layer {
  name: "bn3d_branch2b"
  type: "BatchNorm"
  bottom: "res3d_branch2b"
  top: "res3d_branch2b"
  batch_norm_param {
    use_global_stats: true
  }
}
layer {
  name: "scale3d_branch2b"
  type: "Scale"
  bottom: "res3d_branch2b"
  top: "res3d_branch2b"
  scale_param {
    bias_term: true
  }
}
layer {
  name: "res3d_branch2b_relu"
  type: "ReLU"
  bottom: "res3d_branch2b"
  top: "res3d_branch2b"
}
layer {
  name: "res3d_branch2c"
  type: "Convolution"
  bottom: "res3d_branch2b"
  top: "res3d_branch2c"
  convolution_param {
    num_output: 512
    bias_term: false
    pad: 0
    kernel_size: 1
    stride: 1
  }
}
layer {
  name: "bn3d_branch2c"
  type: "BatchNorm"
  bottom: "res3d_branch2c"
  top: "res3d_branch2c"
  batch_norm_param {
    use_global_stats: true
  }
}
layer {
  name: "scale3d_branch2c"
  type: "Scale"
  bottom: "res3d_branch2c"
  top: "res3d_branch2c"
  scale_param {
    bias_term: true
  }
}
layer {
  name: "res3d"
  type: "Eltwise"
  bottom: "res3c"
  bottom: "res3d_branch2c"
  top: "res3d"
}
layer {
  name: "res3d_relu"
  type: "ReLU"
  bottom: "res3d"
  top: "res3d"
}
layer {
  name: "res4a_branch1"
  type: "Convolution"
  bottom: "res3d"
  top: "res4a_branch1"
  convolution_param {
    num_output: 1024
    bias_term: false
    pad: 0
    kernel_size: 1
    stride: 2
  }
}
layer {
  name: "bn4a_branch1"
  type: "BatchNorm"
  bottom: "res4a_branch1"
  top: "res4a_branch1"
  batch_norm_param {
    use_global_stats: true
  }
}
layer {
  name: "scale4a_branch1"
  type: "Scale"
  bottom: "res4a_branch1"
  top: "res4a_branch1"
  scale_param {
    bias_term: true
  }
}
layer {
  name: "res4a_branch2a"
  type: "Convolution"
  bottom: "res3d"
  top: "res4a_branch2a"
  convolution_param {
    num_output: 256
    bias_term: false
    pad: 0
    kernel_size: 1
    stride: 2
  }
}
layer {
  name: "bn4a_branch2a"
  type: "BatchNorm"
  bottom: "res4a_branch2a"
  top: "res4a_branch2a"
  batch_norm_param {
    use_global_stats: true
  }
}
layer {
  name: "scale4a_branch2a"
  type: "Scale"
  bottom: "res4a_branch2a"
  top: "res4a_branch2a"
  scale_param {
    bias_term: true
  }
}
layer {
  name: "res4a_branch2a_relu"
  type: "ReLU"
  bottom: "res4a_branch2a"
  top: "res4a_branch2a"
}
layer {
  name: "res4a_branch2b"
  type: "Convolution"
  bottom: "res4a_branch2a"
  top: "res4a_branch2b"
  convolution_param {
    num_output: 256
    bias_term: false
    pad: 1
    kernel_size: 3
    stride: 1
  }
}
layer {
  name: "bn4a_branch2b"
  type: "BatchNorm"
  bottom: "res4a_branch2b"
  top: "res4a_branch2b"
  batch_norm_param {
    use_global_stats: true
  }
}
layer {
  name: "scale4a_branch2b"
  type: "Scale"
  bottom: "res4a_branch2b"
  top: "res4a_branch2b"
  scale_param {
    bias_term: true
  }
}
layer {
  name: "res4a_branch2b_relu"
  type: "ReLU"
  bottom: "res4a_branch2b"
  top: "res4a_branch2b"
}
layer {
  name: "res4a_branch2c"
  type: "Convolution"
  bottom: "res4a_branch2b"
  top: "res4a_branch2c"
  convolution_param {
    num_output: 1024
    bias_term: false
    pad: 0
    kernel_size: 1
    stride: 1
  }
}
layer {
  name: "bn4a_branch2c"
  type: "BatchNorm"
  bottom: "res4a_branch2c"
  top: "res4a_branch2c"
  batch_norm_param {
    use_global_stats: true
  }
}
layer {
  name: "scale4a_branch2c"
  type: "Scale"
  bottom: "res4a_branch2c"
  top: "res4a_branch2c"
  scale_param {
    bias_term: true
  }
}
layer {
  name: "res4a"
  type: "Eltwise"
  bottom: "res4a_branch1"
  bottom: "res4a_branch2c"
  top: "res4a"
}
layer {
  name: "res4a_relu"
  type: "ReLU"
  bottom: "res4a"
  top: "res4a"
}
layer {
  name: "res4b_branch2a"
  type: "Convolution"
  bottom: "res4a"
  top: "res4b_branch2a"
  convolution_param {
    num_output: 256
    bias_term: false
    pad: 0
    kernel_size: 1
    stride: 1
  }
}
layer {
  name: "bn4b_branch2a"
  type: "BatchNorm"
  bottom: "res4b_branch2a"
  top: "res4b_branch2a"
  batch_norm_param {
    use_global_stats: true
  }
}
layer {
  name: "scale4b_branch2a"
  type: "Scale"
  bottom: "res4b_branch2a"
  top: "res4b_branch2a"
  scale_param {
    bias_term: true
  }
}
layer {
  name: "res4b_branch2a_relu"
  type: "ReLU"
  bottom: "res4b_branch2a"
  top: "res4b_branch2a"
}
layer {
  name: "res4b_branch2b"
  type: "Convolution"
  bottom: "res4b_branch2a"
  top: "res4b_branch2b"
  convolution_param {
    num_output: 256
    bias_term: false
    pad: 1
    kernel_size: 3
    stride: 1
  }
}
layer {
  name: "bn4b_branch2b"
  type: "BatchNorm"
  bottom: "res4b_branch2b"
  top: "res4b_branch2b"
  batch_norm_param {
    use_global_stats: true
  }
}
layer {
  name: "scale4b_branch2b"
  type: "Scale"
  bottom: "res4b_branch2b"
  top: "res4b_branch2b"
  scale_param {
    bias_term: true
  }
}
layer {
  name: "res4b_branch2b_relu"
  type: "ReLU"
  bottom: "res4b_branch2b"
  top: "res4b_branch2b"
}
layer {
  name: "res4b_branch2c"
  type: "Convolution"
  bottom: "res4b_branch2b"
  top: "res4b_branch2c"
  convolution_param {
    num_output: 1024
    bias_term: false
    pad: 0
    kernel_size: 1
    stride: 1
  }
}
layer {
  name: "bn4b_branch2c"
  type: "BatchNorm"
  bottom: "res4b_branch2c"
  top: "res4b_branch2c"
  batch_norm_param {
    use_global_stats: true
  }
}
layer {
  name: "scale4b_branch2c"
  type: "Scale"
  bottom: "res4b_branch2c"
  top: "res4b_branch2c"
  scale_param {
    bias_term: true
  }
}
layer {
  name: "res4b"
  type: "Eltwise"
  bottom: "res4a"
  bottom: "res4b_branch2c"
  top: "res4b"
}
layer {
  name: "res4b_relu"
  type: "ReLU"
  bottom: "res4b"
  top: "res4b"
}
layer {
  name: "res4c_branch2a"
  type: "Convolution"
  bottom: "res4b"
  top: "res4c_branch2a"
  convolution_param {
    num_output: 256
    bias_term: false
    pad: 0
    kernel_size: 1
    stride: 1
  }
}
layer {
  name: "bn4c_branch2a"
  type: "BatchNorm"
  bottom: "res4c_branch2a"
  top: "res4c_branch2a"
  batch_norm_param {
    use_global_stats: true
  }
}
layer {
  name: "scale4c_branch2a"
  type: "Scale"
  bottom: "res4c_branch2a"
  top: "res4c_branch2a"
  scale_param {
    bias_term: true
  }
}
layer {
  name: "res4c_branch2a_relu"
  type: "ReLU"
  bottom: "res4c_branch2a"
  top: "res4c_branch2a"
}
layer {
  name: "res4c_branch2b"
  type: "Convolution"
  bottom: "res4c_branch2a"
  top: "res4c_branch2b"
  convolution_param {
    num_output: 256
    bias_term: false
    pad: 1
    kernel_size: 3
    stride: 1
  }
}
layer {
  name: "bn4c_branch2b"
  type: "BatchNorm"
  bottom: "res4c_branch2b"
  top: "res4c_branch2b"
  batch_norm_param {
    use_global_stats: true
  }
}
layer {
  name: "scale4c_branch2b"
  type: "Scale"
  bottom: "res4c_branch2b"
  top: "res4c_branch2b"
  scale_param {
    bias_term: true
  }
}
layer {
  name: "res4c_branch2b_relu"
  type: "ReLU"
  bottom: "res4c_branch2b"
  top: "res4c_branch2b"
}
layer {
  name: "res4c_branch2c"
  type: "Convolution"
  bottom: "res4c_branch2b"
  top: "res4c_branch2c"
  convolution_param {
    num_output: 1024
    bias_term: false
    pad: 0
    kernel_size: 1
    stride: 1
  }
}
layer {
  name: "bn4c_branch2c"
  type: "BatchNorm"
  bottom: "res4c_branch2c"
  top: "res4c_branch2c"
  batch_norm_param {
    use_global_stats: true
  }
}
layer {
  name: "scale4c_branch2c"
  type: "Scale"
  bottom: "res4c_branch2c"
  top: "res4c_branch2c"
  scale_param {
    bias_term: true
  }
}
layer {
  name: "res4c"
  type: "Eltwise"
  bottom: "res4b"
  bottom: "res4c_branch2c"
  top: "res4c"
}
layer {
  name: "res4c_relu"
  type: "ReLU"
  bottom: "res4c"
  top: "res4c"
}
layer {
  name: "res4d_branch2a"
  type: "Convolution"
  bottom: "res4c"
  top: "res4d_branch2a"
  convolution_param {
    num_output: 256
    bias_term: false
    pad: 0
    kernel_size: 1
    stride: 1
  }
}
layer {
  name: "bn4d_branch2a"
  type: "BatchNorm"
  bottom: "res4d_branch2a"
  top: "res4d_branch2a"
  batch_norm_param {
    use_global_stats: true
  }
}
layer {
  name: "scale4d_branch2a"
  type: "Scale"
  bottom: "res4d_branch2a"
  top: "res4d_branch2a"
  scale_param {
    bias_term: true
  }
}
layer {
  name: "res4d_branch2a_relu"
  type: "ReLU"
  bottom: "res4d_branch2a"
  top: "res4d_branch2a"
}
layer {
  name: "res4d_branch2b"
  type: "Convolution"
  bottom: "res4d_branch2a"
  top: "res4d_branch2b"
  convolution_param {
    num_output: 256
    bias_term: false
    pad: 1
    kernel_size: 3
    stride: 1
  }
}
layer {
  name: "bn4d_branch2b"
  type: "BatchNorm"
  bottom: "res4d_branch2b"
  top: "res4d_branch2b"
  batch_norm_param {
    use_global_stats: true
  }
}
layer {
  name: "scale4d_branch2b"
  type: "Scale"
  bottom: "res4d_branch2b"
  top: "res4d_branch2b"
  scale_param {
    bias_term: true
  }
}
layer {
  name: "res4d_branch2b_relu"
  type: "ReLU"
  bottom: "res4d_branch2b"
  top: "res4d_branch2b"
}
layer {
  name: "res4d_branch2c"
  type: "Convolution"
  bottom: "res4d_branch2b"
  top: "res4d_branch2c"
  convolution_param {
    num_output: 1024
    bias_term: false
    pad: 0
    kernel_size: 1
    stride: 1
  }
}
layer {
  name: "bn4d_branch2c"
  type: "BatchNorm"
  bottom: "res4d_branch2c"
  top: "res4d_branch2c"
  batch_norm_param {
    use_global_stats: true
  }
}
layer {
  name: "scale4d_branch2c"
  type: "Scale"
  bottom: "res4d_branch2c"
  top: "res4d_branch2c"
  scale_param {
    bias_term: true
  }
}
layer {
  name: "res4d"
  type: "Eltwise"
  bottom: "res4c"
  bottom: "res4d_branch2c"
  top: "res4d"
}
layer {
  name: "res4d_relu"
  type: "ReLU"
  bottom: "res4d"
  top: "res4d"
}
layer {
  name: "res4e_branch2a"
  type: "Convolution"
  bottom: "res4d"
  top: "res4e_branch2a"
  convolution_param {
    num_output: 256
    bias_term: false
    pad: 0
    kernel_size: 1
    stride: 1
  }
}
layer {
  name: "bn4e_branch2a"
  type: "BatchNorm"
  bottom: "res4e_branch2a"
  top: "res4e_branch2a"
  batch_norm_param {
    use_global_stats: true
  }
}
layer {
  name: "scale4e_branch2a"
  type: "Scale"
  bottom: "res4e_branch2a"
  top: "res4e_branch2a"
  scale_param {
    bias_term: true
  }
}
layer {
  name: "res4e_branch2a_relu"
  type: "ReLU"
  bottom: "res4e_branch2a"
  top: "res4e_branch2a"
}
layer {
  name: "res4e_branch2b"
  type: "Convolution"
  bottom: "res4e_branch2a"
  top: "res4e_branch2b"
  convolution_param {
    num_output: 256
    bias_term: false
    pad: 1
    kernel_size: 3
    stride: 1
  }
}
layer {
  name: "bn4e_branch2b"
  type: "BatchNorm"
  bottom: "res4e_branch2b"
  top: "res4e_branch2b"
  batch_norm_param {
    use_global_stats: true
  }
}
layer {
  name: "scale4e_branch2b"
  type: "Scale"
  bottom: "res4e_branch2b"
  top: "res4e_branch2b"
  scale_param {
    bias_term: true
  }
}
layer {
  name: "res4e_branch2b_relu"
  type: "ReLU"
  bottom: "res4e_branch2b"
  top: "res4e_branch2b"
}
layer {
  name: "res4e_branch2c"
  type: "Convolution"
  bottom: "res4e_branch2b"
  top: "res4e_branch2c"
  convolution_param {
    num_output: 1024
    bias_term: false
    pad: 0
    kernel_size: 1
    stride: 1
  }
}
layer {
  name: "bn4e_branch2c"
  type: "BatchNorm"
  bottom: "res4e_branch2c"
  top: "res4e_branch2c"
  batch_norm_param {
    use_global_stats: true
  }
}
layer {
  name: "scale4e_branch2c"
  type: "Scale"
  bottom: "res4e_branch2c"
  top: "res4e_branch2c"
  scale_param {
    bias_term: true
  }
}
layer {
  name: "res4e"
  type: "Eltwise"
  bottom: "res4d"
  bottom: "res4e_branch2c"
  top: "res4e"
}
layer {
  name: "res4e_relu"
  type: "ReLU"
  bottom: "res4e"
  top: "res4e"
}
layer {
  name: "res4f_branch2a"
  type: "Convolution"
  bottom: "res4e"
  top: "res4f_branch2a"
  convolution_param {
    num_output: 256
    bias_term: false
    pad: 0
    kernel_size: 1
    stride: 1
  }
}
layer {
  name: "bn4f_branch2a"
  type: "BatchNorm"
  bottom: "res4f_branch2a"
  top: "res4f_branch2a"
  batch_norm_param {
    use_global_stats: true
  }
}
layer {
  name: "scale4f_branch2a"
  type: "Scale"
  bottom: "res4f_branch2a"
  top: "res4f_branch2a"
  scale_param {
    bias_term: true
  }
}
layer {
  name: "res4f_branch2a_relu"
  type: "ReLU"
  bottom: "res4f_branch2a"
  top: "res4f_branch2a"
}
layer {
  name: "res4f_branch2b"
  type: "Convolution"
  bottom: "res4f_branch2a"
  top: "res4f_branch2b"
  convolution_param {
    num_output: 256
    bias_term: false
    pad: 1
    kernel_size: 3
    stride: 1
  }
}
layer {
  name: "bn4f_branch2b"
  type: "BatchNorm"
  bottom: "res4f_branch2b"
  top: "res4f_branch2b"
  batch_norm_param {
    use_global_stats: true
  }
}
layer {
  name: "scale4f_branch2b"
  type: "Scale"
  bottom: "res4f_branch2b"
  top: "res4f_branch2b"
  scale_param {
    bias_term: true
  }
}
layer {
  name: "res4f_branch2b_relu"
  type: "ReLU"
  bottom: "res4f_branch2b"
  top: "res4f_branch2b"
}
layer {
  name: "res4f_branch2c"
  type: "Convolution"
  bottom: "res4f_branch2b"
  top: "res4f_branch2c"
  convolution_param {
    num_output: 1024
    bias_term: false
    pad: 0
    kernel_size: 1
    stride: 1
  }
}
layer {
  name: "bn4f_branch2c"
  type: "BatchNorm"
  bottom: "res4f_branch2c"
  top: "res4f_branch2c"
  batch_norm_param {
    use_global_stats: true
  }
}
layer {
  name: "scale4f_branch2c"
  type: "Scale"
  bottom: "res4f_branch2c"
  top: "res4f_branch2c"
  scale_param {
    bias_term: true
  }
}
layer {
  name: "res4f"
  type: "Eltwise"
  bottom: "res4e"
  bottom: "res4f_branch2c"
  top: "res4f"
}
layer {
  name: "res4f_relu"
  type: "ReLU"
  bottom: "res4f"
  top: "res4f"
}
layer {
  name: "res5a_branch1"
  type: "Convolution"
  bottom: "res4f"
  top: "res5a_branch1"
  convolution_param {
    num_output: 2048
    bias_term: false
    pad: 0
    kernel_size: 1
    stride: 2
  }
}
layer {
  name: "bn5a_branch1"
  type: "BatchNorm"
  bottom: "res5a_branch1"
  top: "res5a_branch1"
  batch_norm_param {
    use_global_stats: true
  }
}
layer {
  name: "scale5a_branch1"
  type: "Scale"
  bottom: "res5a_branch1"
  top: "res5a_branch1"
  scale_param {
    bias_term: true
  }
}
layer {
  name: "res5a_branch2a"
  type: "Convolution"
  bottom: "res4f"
  top: "res5a_branch2a"
  convolution_param {
    num_output: 512
    bias_term: false
    pad: 0
    kernel_size: 1
    stride: 2
  }
}
layer {
  name: "bn5a_branch2a"
  type: "BatchNorm"
  bottom: "res5a_branch2a"
  top: "res5a_branch2a"
  batch_norm_param {
    use_global_stats: true
  }
}
layer {
  name: "scale5a_branch2a"
  type: "Scale"
  bottom: "res5a_branch2a"
  top: "res5a_branch2a"
  scale_param {
    bias_term: true
  }
}
layer {
  name: "res5a_branch2a_relu"
  type: "ReLU"
  bottom: "res5a_branch2a"
  top: "res5a_branch2a"
}
layer {
  name: "res5a_branch2b"
  type: "Convolution"
  bottom: "res5a_branch2a"
  top: "res5a_branch2b"
  convolution_param {
    num_output: 512
    bias_term: false
    pad: 1
    kernel_size: 3
    stride: 1
  }
}
layer {
  name: "bn5a_branch2b"
  type: "BatchNorm"
  bottom: "res5a_branch2b"
  top: "res5a_branch2b"
  batch_norm_param {
    use_global_stats: true
  }
}
layer {
  name: "scale5a_branch2b"
  type: "Scale"
  bottom: "res5a_branch2b"
  top: "res5a_branch2b"
  scale_param {
    bias_term: true
  }
}
layer {
  name: "res5a_branch2b_relu"
  type: "ReLU"
  bottom: "res5a_branch2b"
  top: "res5a_branch2b"
}
layer {
  name: "res5a_branch2c"
  type: "Convolution"
  bottom: "res5a_branch2b"
  top: "res5a_branch2c"
  convolution_param {
    num_output: 2048
    bias_term: false
    pad: 0
    kernel_size: 1
    stride: 1
  }
}
layer {
  name: "bn5a_branch2c"
  type: "BatchNorm"
  bottom: "res5a_b
I0117 06:38:31.113095  7669 layer_factory.hpp:77] Creating layer data
I0117 06:38:31.119150  7669 db_lmdb.cpp:35] Opened lmdb ../newFood724_TEST/newFood724_test_lmdb
I0117 06:38:31.119767  7669 net.cpp:84] Creating Layer data
I0117 06:38:31.119802  7669 net.cpp:380] data -> data
I0117 06:38:31.119853  7669 net.cpp:380] data -> label
I0117 06:38:31.119877  7669 data_transformer.cpp:25] Loading mean file from: ../newFood724_TEST/newFood724_aug_mean.binaryproto
I0117 06:38:31.178535  7669 data_layer.cpp:45] output data size: 16,3,224,224
I0117 06:38:31.213376  7669 net.cpp:122] Setting up data
I0117 06:38:31.213423  7669 net.cpp:129] Top shape: 16 3 224 224 (2408448)
I0117 06:38:31.213431  7669 net.cpp:129] Top shape: 16 (16)
I0117 06:38:31.213435  7669 net.cpp:137] Memory required for data: 9633856
I0117 06:38:31.213449  7669 layer_factory.hpp:77] Creating layer label_data_1_split
I0117 06:38:31.213485  7669 net.cpp:84] Creating Layer label_data_1_split
I0117 06:38:31.213497  7669 net.cpp:406] label_data_1_split <- label
I0117 06:38:31.213526  7669 net.cpp:380] label_data_1_split -> label_data_1_split_0
I0117 06:38:31.213542  7669 net.cpp:380] label_data_1_split -> label_data_1_split_1
I0117 06:38:31.213551  7669 net.cpp:380] label_data_1_split -> label_data_1_split_2
I0117 06:38:31.213660  7669 net.cpp:122] Setting up label_data_1_split
I0117 06:38:31.213671  7669 net.cpp:129] Top shape: 16 (16)
I0117 06:38:31.213676  7669 net.cpp:129] Top shape: 16 (16)
I0117 06:38:31.213681  7669 net.cpp:129] Top shape: 16 (16)
I0117 06:38:31.213685  7669 net.cpp:137] Memory required for data: 9634048
I0117 06:38:31.213690  7669 layer_factory.hpp:77] Creating layer conv1
I0117 06:38:31.213707  7669 net.cpp:84] Creating Layer conv1
I0117 06:38:31.213714  7669 net.cpp:406] conv1 <- data
I0117 06:38:31.213723  7669 net.cpp:380] conv1 -> conv1
I0117 06:38:31.571593  7669 net.cpp:122] Setting up conv1
I0117 06:38:31.571629  7669 net.cpp:129] Top shape: 16 64 112 112 (12845056)
I0117 06:38:31.571637  7669 net.cpp:137] Memory required for data: 61014272
I0117 06:38:31.571667  7669 layer_factory.hpp:77] Creating layer bn_conv1
I0117 06:38:31.571682  7669 net.cpp:84] Creating Layer bn_conv1
I0117 06:38:31.571687  7669 net.cpp:406] bn_conv1 <- conv1
I0117 06:38:31.571697  7669 net.cpp:367] bn_conv1 -> conv1 (in-place)
I0117 06:38:31.571930  7669 net.cpp:122] Setting up bn_conv1
I0117 06:38:31.571941  7669 net.cpp:129] Top shape: 16 64 112 112 (12845056)
I0117 06:38:31.571945  7669 net.cpp:137] Memory required for data: 112394496
I0117 06:38:31.571959  7669 layer_factory.hpp:77] Creating layer scale_conv1
I0117 06:38:31.571980  7669 net.cpp:84] Creating Layer scale_conv1
I0117 06:38:31.572019  7669 net.cpp:406] scale_conv1 <- conv1
I0117 06:38:31.572026  7669 net.cpp:367] scale_conv1 -> conv1 (in-place)
I0117 06:38:31.572082  7669 layer_factory.hpp:77] Creating layer scale_conv1
I0117 06:38:31.572237  7669 net.cpp:122] Setting up scale_conv1
I0117 06:38:31.572247  7669 net.cpp:129] Top shape: 16 64 112 112 (12845056)
I0117 06:38:31.572252  7669 net.cpp:137] Memory required for data: 163774720
I0117 06:38:31.572259  7669 layer_factory.hpp:77] Creating layer conv1_relu
I0117 06:38:31.572266  7669 net.cpp:84] Creating Layer conv1_relu
I0117 06:38:31.572275  7669 net.cpp:406] conv1_relu <- conv1
I0117 06:38:31.572280  7669 net.cpp:367] conv1_relu -> conv1 (in-place)
I0117 06:38:31.572504  7669 net.cpp:122] Setting up conv1_relu
I0117 06:38:31.572516  7669 net.cpp:129] Top shape: 16 64 112 112 (12845056)
I0117 06:38:31.572520  7669 net.cpp:137] Memory required for data: 215154944
I0117 06:38:31.572523  7669 layer_factory.hpp:77] Creating layer pool1
I0117 06:38:31.572535  7669 net.cpp:84] Creating Layer pool1
I0117 06:38:31.572538  7669 net.cpp:406] pool1 <- conv1
I0117 06:38:31.572544  7669 net.cpp:380] pool1 -> pool1
I0117 06:38:31.572610  7669 net.cpp:122] Setting up pool1
I0117 06:38:31.572619  7669 net.cpp:129] Top shape: 16 64 56 56 (3211264)
I0117 06:38:31.572623  7669 net.cpp:137] Memory required for data: 228000000
I0117 06:38:31.572625  7669 layer_factory.hpp:77] Creating layer pool1_pool1_0_split
I0117 06:38:31.572633  7669 net.cpp:84] Creating Layer pool1_pool1_0_split
I0117 06:38:31.572636  7669 net.cpp:406] pool1_pool1_0_split <- pool1
I0117 06:38:31.572643  7669 net.cpp:380] pool1_pool1_0_split -> pool1_pool1_0_split_0
I0117 06:38:31.572649  7669 net.cpp:380] pool1_pool1_0_split -> pool1_pool1_0_split_1
I0117 06:38:31.572688  7669 net.cpp:122] Setting up pool1_pool1_0_split
I0117 06:38:31.572696  7669 net.cpp:129] Top shape: 16 64 56 56 (3211264)
I0117 06:38:31.572701  7669 net.cpp:129] Top shape: 16 64 56 56 (3211264)
I0117 06:38:31.572705  7669 net.cpp:137] Memory required for data: 253690112
I0117 06:38:31.572707  7669 layer_factory.hpp:77] Creating layer res2a_branch1
I0117 06:38:31.572718  7669 net.cpp:84] Creating Layer res2a_branch1
I0117 06:38:31.572724  7669 net.cpp:406] res2a_branch1 <- pool1_pool1_0_split_0
I0117 06:38:31.572731  7669 net.cpp:380] res2a_branch1 -> res2a_branch1
I0117 06:38:31.574157  7669 net.cpp:122] Setting up res2a_branch1
I0117 06:38:31.574175  7669 net.cpp:129] Top shape: 16 256 56 56 (12845056)
I0117 06:38:31.574179  7669 net.cpp:137] Memory required for data: 305070336
I0117 06:38:31.574187  7669 layer_factory.hpp:77] Creating layer bn2a_branch1
I0117 06:38:31.574193  7669 net.cpp:84] Creating Layer bn2a_branch1
I0117 06:38:31.574198  7669 net.cpp:406] bn2a_branch1 <- res2a_branch1
I0117 06:38:31.574204  7669 net.cpp:367] bn2a_branch1 -> res2a_branch1 (in-place)
I0117 06:38:31.576081  7669 net.cpp:122] Setting up bn2a_branch1
I0117 06:38:31.576099  7669 net.cpp:129] Top shape: 16 256 56 56 (12845056)
I0117 06:38:31.576103  7669 net.cpp:137] Memory required for data: 356450560
I0117 06:38:31.576124  7669 layer_factory.hpp:77] Creating layer scale2a_branch1
I0117 06:38:31.576131  7669 net.cpp:84] Creating Layer scale2a_branch1
I0117 06:38:31.576136  7669 net.cpp:406] scale2a_branch1 <- res2a_branch1
I0117 06:38:31.576143  7669 net.cpp:367] scale2a_branch1 -> res2a_branch1 (in-place)
I0117 06:38:31.576198  7669 layer_factory.hpp:77] Creating layer scale2a_branch1
I0117 06:38:31.576321  7669 net.cpp:122] Setting up scale2a_branch1
I0117 06:38:31.576330  7669 net.cpp:129] Top shape: 16 256 56 56 (12845056)
I0117 06:38:31.576334  7669 net.cpp:137] Memory required for data: 407830784
I0117 06:38:31.576341  7669 layer_factory.hpp:77] Creating layer res2a_branch2a
I0117 06:38:31.576350  7669 net.cpp:84] Creating Layer res2a_branch2a
I0117 06:38:31.576355  7669 net.cpp:406] res2a_branch2a <- pool1_pool1_0_split_1
I0117 06:38:31.576361  7669 net.cpp:380] res2a_branch2a -> res2a_branch2a
I0117 06:38:31.577803  7669 net.cpp:122] Setting up res2a_branch2a
I0117 06:38:31.577837  7669 net.cpp:129] Top shape: 16 64 56 56 (3211264)
I0117 06:38:31.577842  7669 net.cpp:137] Memory required for data: 420675840
I0117 06:38:31.577848  7669 layer_factory.hpp:77] Creating layer bn2a_branch2a
I0117 06:38:31.577857  7669 net.cpp:84] Creating Layer bn2a_branch2a
I0117 06:38:31.577860  7669 net.cpp:406] bn2a_branch2a <- res2a_branch2a
I0117 06:38:31.577867  7669 net.cpp:367] bn2a_branch2a -> res2a_branch2a (in-place)
I0117 06:38:31.578088  7669 net.cpp:122] Setting up bn2a_branch2a
I0117 06:38:31.578099  7669 net.cpp:129] Top shape: 16 64 56 56 (3211264)
I0117 06:38:31.578102  7669 net.cpp:137] Memory required for data: 433520896
I0117 06:38:31.578114  7669 layer_factory.hpp:77] Creating layer scale2a_branch2a
I0117 06:38:31.578125  7669 net.cpp:84] Creating Layer scale2a_branch2a
I0117 06:38:31.578128  7669 net.cpp:406] scale2a_branch2a <- res2a_branch2a
I0117 06:38:31.578135  7669 net.cpp:367] scale2a_branch2a -> res2a_branch2a (in-place)
I0117 06:38:31.578191  7669 layer_factory.hpp:77] Creating layer scale2a_branch2a
I0117 06:38:31.578330  7669 net.cpp:122] Setting up scale2a_branch2a
I0117 06:38:31.578341  7669 net.cpp:129] Top shape: 16 64 56 56 (3211264)
I0117 06:38:31.578344  7669 net.cpp:137] Memory required for data: 446365952
I0117 06:38:31.578352  7669 layer_factory.hpp:77] Creating layer res2a_branch2a_relu
I0117 06:38:31.578359  7669 net.cpp:84] Creating Layer res2a_branch2a_relu
I0117 06:38:31.578363  7669 net.cpp:406] res2a_branch2a_relu <- res2a_branch2a
I0117 06:38:31.578368  7669 net.cpp:367] res2a_branch2a_relu -> res2a_branch2a (in-place)
I0117 06:38:31.578574  7669 net.cpp:122] Setting up res2a_branch2a_relu
I0117 06:38:31.578585  7669 net.cpp:129] Top shape: 16 64 56 56 (3211264)
I0117 06:38:31.578589  7669 net.cpp:137] Memory required for data: 459211008
I0117 06:38:31.578593  7669 layer_factory.hpp:77] Creating layer res2a_branch2b
I0117 06:38:31.578601  7669 net.cpp:84] Creating Layer res2a_branch2b
I0117 06:38:31.578608  7669 net.cpp:406] res2a_branch2b <- res2a_branch2a
I0117 06:38:31.578614  7669 net.cpp:380] res2a_branch2b -> res2a_branch2b
I0117 06:38:31.581667  7669 net.cpp:122] Setting up res2a_branch2b
I0117 06:38:31.581686  7669 net.cpp:129] Top shape: 16 64 56 56 (3211264)
I0117 06:38:31.581691  7669 net.cpp:137] Memory required for data: 472056064
I0117 06:38:31.581696  7669 layer_factory.hpp:77] Creating layer bn2a_branch2b
I0117 06:38:31.581707  7669 net.cpp:84] Creating Layer bn2a_branch2b
I0117 06:38:31.581712  7669 net.cpp:406] bn2a_branch2b <- res2a_branch2b
I0117 06:38:31.581718  7669 net.cpp:367] bn2a_branch2b -> res2a_branch2b (in-place)
I0117 06:38:31.581938  7669 net.cpp:122] Setting up bn2a_branch2b
I0117 06:38:31.581949  7669 net.cpp:129] Top shape: 16 64 56 56 (3211264)
I0117 06:38:31.581953  7669 net.cpp:137] Memory required for data: 484901120
I0117 06:38:31.581960  7669 layer_factory.hpp:77] Creating layer scale2a_branch2b
I0117 06:38:31.581970  7669 net.cpp:84] Creating Layer scale2a_branch2b
I0117 06:38:31.581974  7669 net.cpp:406] scale2a_branch2b <- res2a_branch2b
I0117 06:38:31.581979  7669 net.cpp:367] scale2a_branch2b -> res2a_branch2b (in-place)
I0117 06:38:31.582026  7669 layer_factory.hpp:77] Creating layer scale2a_branch2b
I0117 06:38:31.582166  7669 net.cpp:122] Setting up scale2a_branch2b
I0117 06:38:31.582175  7669 net.cpp:129] Top shape: 16 64 56 56 (3211264)
I0117 06:38:31.582178  7669 net.cpp:137] Memory required for data: 497746176
I0117 06:38:31.582185  7669 layer_factory.hpp:77] Creating layer res2a_branch2b_relu
I0117 06:38:31.582192  7669 net.cpp:84] Creating Layer res2a_branch2b_relu
I0117 06:38:31.582196  7669 net.cpp:406] res2a_branch2b_relu <- res2a_branch2b
I0117 06:38:31.582201  7669 net.cpp:367] res2a_branch2b_relu -> res2a_branch2b (in-place)
I0117 06:38:31.582409  7669 net.cpp:122] Setting up res2a_branch2b_relu
I0117 06:38:31.582422  7669 net.cpp:129] Top shape: 16 64 56 56 (3211264)
I0117 06:38:31.582425  7669 net.cpp:137] Memory required for data: 510591232
I0117 06:38:31.582429  7669 layer_factory.hpp:77] Creating layer res2a_branch2c
I0117 06:38:31.582455  7669 net.cpp:84] Creating Layer res2a_branch2c
I0117 06:38:31.582463  7669 net.cpp:406] res2a_branch2c <- res2a_branch2b
I0117 06:38:31.582469  7669 net.cpp:380] res2a_branch2c -> res2a_branch2c
I0117 06:38:31.583889  7669 net.cpp:122] Setting up res2a_branch2c
I0117 06:38:31.583909  7669 net.cpp:129] Top shape: 16 256 56 56 (12845056)
I0117 06:38:31.583912  7669 net.cpp:137] Memory required for data: 561971456
I0117 06:38:31.583919  7669 layer_factory.hpp:77] Creating layer bn2a_branch2c
I0117 06:38:31.583926  7669 net.cpp:84] Creating Layer bn2a_branch2c
I0117 06:38:31.583931  7669 net.cpp:406] bn2a_branch2c <- res2a_branch2c
I0117 06:38:31.583937  7669 net.cpp:367] bn2a_branch2c -> res2a_branch2c (in-place)
I0117 06:38:31.584152  7669 net.cpp:122] Setting up bn2a_branch2c
I0117 06:38:31.584161  7669 net.cpp:129] Top shape: 16 256 56 56 (12845056)
I0117 06:38:31.584166  7669 net.cpp:137] Memory required for data: 613351680
I0117 06:38:31.584174  7669 layer_factory.hpp:77] Creating layer scale2a_branch2c
I0117 06:38:31.584182  7669 net.cpp:84] Creating Layer scale2a_branch2c
I0117 06:38:31.584185  7669 net.cpp:406] scale2a_branch2c <- res2a_branch2c
I0117 06:38:31.584190  7669 net.cpp:367] scale2a_branch2c -> res2a_branch2c (in-place)
I0117 06:38:31.584234  7669 layer_factory.hpp:77] Creating layer scale2a_branch2c
I0117 06:38:31.584367  7669 net.cpp:122] Setting up scale2a_branch2c
I0117 06:38:31.584375  7669 net.cpp:129] Top shape: 16 256 56 56 (12845056)
I0117 06:38:31.584378  7669 net.cpp:137] Memory required for data: 664731904
I0117 06:38:31.584385  7669 layer_factory.hpp:77] Creating layer res2a
I0117 06:38:31.584393  7669 net.cpp:84] Creating Layer res2a
I0117 06:38:31.584399  7669 net.cpp:406] res2a <- res2a_branch1
I0117 06:38:31.584405  7669 net.cpp:406] res2a <- res2a_branch2c
I0117 06:38:31.584410  7669 net.cpp:380] res2a -> res2a
I0117 06:38:31.584440  7669 net.cpp:122] Setting up res2a
I0117 06:38:31.584448  7669 net.cpp:129] Top shape: 16 256 56 56 (12845056)
I0117 06:38:31.584452  7669 net.cpp:137] Memory required for data: 716112128
I0117 06:38:31.584455  7669 layer_factory.hpp:77] Creating layer res2a_relu
I0117 06:38:31.584461  7669 net.cpp:84] Creating Layer res2a_relu
I0117 06:38:31.584465  7669 net.cpp:406] res2a_relu <- res2a
I0117 06:38:31.584470  7669 net.cpp:367] res2a_relu -> res2a (in-place)
I0117 06:38:31.584677  7669 net.cpp:122] Setting up res2a_relu
I0117 06:38:31.584688  7669 net.cpp:129] Top shape: 16 256 56 56 (12845056)
I0117 06:38:31.584692  7669 net.cpp:137] Memory required for data: 767492352
I0117 06:38:31.584695  7669 layer_factory.hpp:77] Creating layer res2a_res2a_relu_0_split
I0117 06:38:31.584702  7669 net.cpp:84] Creating Layer res2a_res2a_relu_0_split
I0117 06:38:31.584705  7669 net.cpp:406] res2a_res2a_relu_0_split <- res2a
I0117 06:38:31.584720  7669 net.cpp:380] res2a_res2a_relu_0_split -> res2a_res2a_relu_0_split_0
I0117 06:38:31.584729  7669 net.cpp:380] res2a_res2a_relu_0_split -> res2a_res2a_relu_0_split_1
I0117 06:38:31.584779  7669 net.cpp:122] Setting up res2a_res2a_relu_0_split
I0117 06:38:31.584786  7669 net.cpp:129] Top shape: 16 256 56 56 (12845056)
I0117 06:38:31.584791  7669 net.cpp:129] Top shape: 16 256 56 56 (12845056)
I0117 06:38:31.584795  7669 net.cpp:137] Memory required for data: 870252800
I0117 06:38:31.584798  7669 layer_factory.hpp:77] Creating layer res2b_branch2a
I0117 06:38:31.584806  7669 net.cpp:84] Creating Layer res2b_branch2a
I0117 06:38:31.584810  7669 net.cpp:406] res2b_branch2a <- res2a_res2a_relu_0_split_0
I0117 06:38:31.584816  7669 net.cpp:380] res2b_branch2a -> res2b_branch2a
I0117 06:38:31.586309  7669 net.cpp:122] Setting up res2b_branch2a
I0117 06:38:31.586338  7669 net.cpp:129] Top shape: 16 64 56 56 (3211264)
I0117 06:38:31.586341  7669 net.cpp:137] Memory required for data: 883097856
I0117 06:38:31.586349  7669 layer_factory.hpp:77] Creating layer bn2b_branch2a
I0117 06:38:31.586355  7669 net.cpp:84] Creating Layer bn2b_branch2a
I0117 06:38:31.586359  7669 net.cpp:406] bn2b_branch2a <- res2b_branch2a
I0117 06:38:31.586385  7669 net.cpp:367] bn2b_branch2a -> res2b_branch2a (in-place)
I0117 06:38:31.586642  7669 net.cpp:122] Setting up bn2b_branch2a
I0117 06:38:31.586654  7669 net.cpp:129] Top shape: 16 64 56 56 (3211264)
I0117 06:38:31.586658  7669 net.cpp:137] Memory required for data: 895942912
I0117 06:38:31.586673  7669 layer_factory.hpp:77] Creating layer scale2b_branch2a
I0117 06:38:31.586683  7669 net.cpp:84] Creating Layer scale2b_branch2a
I0117 06:38:31.586686  7669 net.cpp:406] scale2b_branch2a <- res2b_branch2a
I0117 06:38:31.586693  7669 net.cpp:367] scale2b_branch2a -> res2b_branch2a (in-place)
I0117 06:38:31.586743  7669 layer_factory.hpp:77] Creating layer scale2b_branch2a
I0117 06:38:31.586887  7669 net.cpp:122] Setting up scale2b_branch2a
I0117 06:38:31.586897  7669 net.cpp:129] Top shape: 16 64 56 56 (3211264)
I0117 06:38:31.586900  7669 net.cpp:137] Memory required for data: 908787968
I0117 06:38:31.586907  7669 layer_factory.hpp:77] Creating layer res2b_branch2a_relu
I0117 06:38:31.586913  7669 net.cpp:84] Creating Layer res2b_branch2a_relu
I0117 06:38:31.586917  7669 net.cpp:406] res2b_branch2a_relu <- res2b_branch2a
I0117 06:38:31.586922  7669 net.cpp:367] res2b_branch2a_relu -> res2b_branch2a (in-place)
I0117 06:38:31.587159  7669 net.cpp:122] Setting up res2b_branch2a_relu
I0117 06:38:31.587170  7669 net.cpp:129] Top shape: 16 64 56 56 (3211264)
I0117 06:38:31.587173  7669 net.cpp:137] Memory required for data: 921633024
I0117 06:38:31.587177  7669 layer_factory.hpp:77] Creating layer res2b_branch2b
I0117 06:38:31.587189  7669 net.cpp:84] Creating Layer res2b_branch2b
I0117 06:38:31.587195  7669 net.cpp:406] res2b_branch2b <- res2b_branch2a
I0117 06:38:31.587203  7669 net.cpp:380] res2b_branch2b -> res2b_branch2b
I0117 06:38:31.588709  7669 net.cpp:122] Setting up res2b_branch2b
I0117 06:38:31.588731  7669 net.cpp:129] Top shape: 16 64 56 56 (3211264)
I0117 06:38:31.588734  7669 net.cpp:137] Memory required for data: 934478080
I0117 06:38:31.588740  7669 layer_factory.hpp:77] Creating layer bn2b_branch2b
I0117 06:38:31.588748  7669 net.cpp:84] Creating Layer bn2b_branch2b
I0117 06:38:31.588752  7669 net.cpp:406] bn2b_branch2b <- res2b_branch2b
I0117 06:38:31.588760  7669 net.cpp:367] bn2b_branch2b -> res2b_branch2b (in-place)
I0117 06:38:31.589020  7669 net.cpp:122] Setting up bn2b_branch2b
I0117 06:38:31.589031  7669 net.cpp:129] Top shape: 16 64 56 56 (3211264)
I0117 06:38:31.589035  7669 net.cpp:137] Memory required for data: 947323136
I0117 06:38:31.589042  7669 layer_factory.hpp:77] Creating layer scale2b_branch2b
I0117 06:38:31.589049  7669 net.cpp:84] Creating Layer scale2b_branch2b
I0117 06:38:31.589063  7669 net.cpp:406] scale2b_branch2b <- res2b_branch2b
I0117 06:38:31.589071  7669 net.cpp:367] scale2b_branch2b -> res2b_branch2b (in-place)
I0117 06:38:31.589117  7669 layer_factory.hpp:77] Creating layer scale2b_branch2b
I0117 06:38:31.589264  7669 net.cpp:122] Setting up scale2b_branch2b
I0117 06:38:31.589284  7669 net.cpp:129] Top shape: 16 64 56 56 (3211264)
I0117 06:38:31.589288  7669 net.cpp:137] Memory required for data: 960168192
I0117 06:38:31.589294  7669 layer_factory.hpp:77] Creating layer res2b_branch2b_relu
I0117 06:38:31.589308  7669 net.cpp:84] Creating Layer res2b_branch2b_relu
I0117 06:38:31.589311  7669 net.cpp:406] res2b_branch2b_relu <- res2b_branch2b
I0117 06:38:31.589318  7669 net.cpp:367] res2b_branch2b_relu -> res2b_branch2b (in-place)
I0117 06:38:31.590101  7669 net.cpp:122] Setting up res2b_branch2b_relu
I0117 06:38:31.590118  7669 net.cpp:129] Top shape: 16 64 56 56 (3211264)
I0117 06:38:31.590122  7669 net.cpp:137] Memory required for data: 973013248
I0117 06:38:31.590126  7669 layer_factory.hpp:77] Creating layer res2b_branch2c
I0117 06:38:31.590139  7669 net.cpp:84] Creating Layer res2b_branch2c
I0117 06:38:31.590143  7669 net.cpp:406] res2b_branch2c <- res2b_branch2b
I0117 06:38:31.590152  7669 net.cpp:380] res2b_branch2c -> res2b_branch2c
I0117 06:38:31.591704  7669 net.cpp:122] Setting up res2b_branch2c
I0117 06:38:31.591722  7669 net.cpp:129] Top shape: 16 256 56 56 (12845056)
I0117 06:38:31.591742  7669 net.cpp:137] Memory required for data: 1024393472
I0117 06:38:31.591748  7669 layer_factory.hpp:77] Creating layer bn2b_branch2c
I0117 06:38:31.591760  7669 net.cpp:84] Creating Layer bn2b_branch2c
I0117 06:38:31.591768  7669 net.cpp:406] bn2b_branch2c <- res2b_branch2c
I0117 06:38:31.591785  7669 net.cpp:367] bn2b_branch2c -> res2b_branch2c (in-place)
I0117 06:38:31.592026  7669 net.cpp:122] Setting up bn2b_branch2c
I0117 06:38:31.592036  7669 net.cpp:129] Top shape: 16 256 56 56 (12845056)
I0117 06:38:31.592039  7669 net.cpp:137] Memory required for data: 1075773696
I0117 06:38:31.592048  7669 layer_factory.hpp:77] Creating layer scale2b_branch2c
I0117 06:38:31.592056  7669 net.cpp:84] Creating Layer scale2b_branch2c
I0117 06:38:31.592058  7669 net.cpp:406] scale2b_branch2c <- res2b_branch2c
I0117 06:38:31.592064  7669 net.cpp:367] scale2b_branch2c -> res2b_branch2c (in-place)
I0117 06:38:31.592123  7669 layer_factory.hpp:77] Creating layer scale2b_branch2c
I0117 06:38:31.592262  7669 net.cpp:122] Setting up scale2b_branch2c
I0117 06:38:31.592270  7669 net.cpp:129] Top shape: 16 256 56 56 (12845056)
I0117 06:38:31.592273  7669 net.cpp:137] Memory required for data: 1127153920
I0117 06:38:31.592280  7669 layer_factory.hpp:77] Creating layer res2b
I0117 06:38:31.592288  7669 net.cpp:84] Creating Layer res2b
I0117 06:38:31.592295  7669 net.cpp:406] res2b <- res2a_res2a_relu_0_split_1
I0117 06:38:31.592300  7669 net.cpp:406] res2b <- res2b_branch2c
I0117 06:38:31.592306  7669 net.cpp:380] res2b -> res2b
I0117 06:38:31.592339  7669 net.cpp:122] Setting up res2b
I0117 06:38:31.592347  7669 net.cpp:129] Top shape: 16 256 56 56 (12845056)
I0117 06:38:31.592350  7669 net.cpp:137] Memory required for data: 1178534144
I0117 06:38:31.592353  7669 layer_factory.hpp:77] Creating layer res2b_relu
I0117 06:38:31.592360  7669 net.cpp:84] Creating Layer res2b_relu
I0117 06:38:31.592363  7669 net.cpp:406] res2b_relu <- res2b
I0117 06:38:31.592370  7669 net.cpp:367] res2b_relu -> res2b (in-place)
I0117 06:38:31.592595  7669 net.cpp:122] Setting up res2b_relu
I0117 06:38:31.592607  7669 net.cpp:129] Top shape: 16 256 56 56 (12845056)
I0117 06:38:31.592610  7669 net.cpp:137] Memory required for data: 1229914368
I0117 06:38:31.592613  7669 layer_factory.hpp:77] Creating layer res2b_res2b_relu_0_split
I0117 06:38:31.592619  7669 net.cpp:84] Creating Layer res2b_res2b_relu_0_split
I0117 06:38:31.592623  7669 net.cpp:406] res2b_res2b_relu_0_split <- res2b
I0117 06:38:31.592631  7669 net.cpp:380] res2b_res2b_relu_0_split -> res2b_res2b_relu_0_split_0
I0117 06:38:31.592638  7669 net.cpp:380] res2b_res2b_relu_0_split -> res2b_res2b_relu_0_split_1
I0117 06:38:31.592689  7669 net.cpp:122] Setting up res2b_res2b_relu_0_split
I0117 06:38:31.592696  7669 net.cpp:129] Top shape: 16 256 56 56 (12845056)
I0117 06:38:31.592700  7669 net.cpp:129] Top shape: 16 256 56 56 (12845056)
I0117 06:38:31.592703  7669 net.cpp:137] Memory required for data: 1332674816
I0117 06:38:31.592706  7669 layer_factory.hpp:77] Creating layer res2c_branch2a
I0117 06:38:31.592718  7669 net.cpp:84] Creating Layer res2c_branch2a
I0117 06:38:31.592725  7669 net.cpp:406] res2c_branch2a <- res2b_res2b_relu_0_split_0
I0117 06:38:31.592730  7669 net.cpp:380] res2c_branch2a -> res2c_branch2a
I0117 06:38:31.594239  7669 net.cpp:122] Setting up res2c_branch2a
I0117 06:38:31.594257  7669 net.cpp:129] Top shape: 16 64 56 56 (3211264)
I0117 06:38:31.594260  7669 net.cpp:137] Memory required for data: 1345519872
I0117 06:38:31.594277  7669 layer_factory.hpp:77] Creating layer bn2c_branch2a
I0117 06:38:31.594285  7669 net.cpp:84] Creating Layer bn2c_branch2a
I0117 06:38:31.594290  7669 net.cpp:406] bn2c_branch2a <- res2c_branch2a
I0117 06:38:31.594297  7669 net.cpp:367] bn2c_branch2a -> res2c_branch2a (in-place)
I0117 06:38:31.594555  7669 net.cpp:122] Setting up bn2c_branch2a
I0117 06:38:31.594565  7669 net.cpp:129] Top shape: 16 64 56 56 (3211264)
I0117 06:38:31.594569  7669 net.cpp:137] Memory required for data: 1358364928
I0117 06:38:31.594595  7669 layer_factory.hpp:77] Creating layer scale2c_branch2a
I0117 06:38:31.594607  7669 net.cpp:84] Creating Layer scale2c_branch2a
I0117 06:38:31.594614  7669 net.cpp:406] scale2c_branch2a <- res2c_branch2a
I0117 06:38:31.594620  7669 net.cpp:367] scale2c_branch2a -> res2c_branch2a (in-place)
I0117 06:38:31.594671  7669 layer_factory.hpp:77] Creating layer scale2c_branch2a
I0117 06:38:31.594823  7669 net.cpp:122] Setting up scale2c_branch2a
I0117 06:38:31.594835  7669 net.cpp:129] Top shape: 16 64 56 56 (3211264)
I0117 06:38:31.594837  7669 net.cpp:137] Memory required for data: 1371209984
I0117 06:38:31.594843  7669 layer_factory.hpp:77] Creating layer res2c_branch2a_relu
I0117 06:38:31.594852  7669 net.cpp:84] Creating Layer res2c_branch2a_relu
I0117 06:38:31.594856  7669 net.cpp:406] res2c_branch2a_relu <- res2c_branch2a
I0117 06:38:31.594871  7669 net.cpp:367] res2c_branch2a_relu -> res2c_branch2a (in-place)
I0117 06:38:31.595090  7669 net.cpp:122] Setting up res2c_branch2a_relu
I0117 06:38:31.595103  7669 net.cpp:129] Top shape: 16 64 56 56 (3211264)
I0117 06:38:31.595109  7669 net.cpp:137] Memory required for data: 1384055040
I0117 06:38:31.595113  7669 layer_factory.hpp:77] Creating layer res2c_branch2b
I0117 06:38:31.595121  7669 net.cpp:84] Creating Layer res2c_branch2b
I0117 06:38:31.595125  7669 net.cpp:406] res2c_branch2b <- res2c_branch2a
I0117 06:38:31.595134  7669 net.cpp:380] res2c_branch2b -> res2c_branch2b
I0117 06:38:31.596683  7669 net.cpp:122] Setting up res2c_branch2b
I0117 06:38:31.596700  7669 net.cpp:129] Top shape: 16 64 56 56 (3211264)
I0117 06:38:31.596704  7669 net.cpp:137] Memory required for data: 1396900096
I0117 06:38:31.596710  7669 layer_factory.hpp:77] Creating layer bn2c_branch2b
I0117 06:38:31.596720  7669 net.cpp:84] Creating Layer bn2c_branch2b
I0117 06:38:31.596725  7669 net.cpp:406] bn2c_branch2b <- res2c_branch2b
I0117 06:38:31.596732  7669 net.cpp:367] bn2c_branch2b -> res2c_branch2b (in-place)
I0117 06:38:31.596972  7669 net.cpp:122] Setting up bn2c_branch2b
I0117 06:38:31.596982  7669 net.cpp:129] Top shape: 16 64 56 56 (3211264)
I0117 06:38:31.596985  7669 net.cpp:137] Memory required for data: 1409745152
I0117 06:38:31.596993  7669 layer_factory.hpp:77] Creating layer scale2c_branch2b
I0117 06:38:31.597002  7669 net.cpp:84] Creating Layer scale2c_branch2b
I0117 06:38:31.597005  7669 net.cpp:406] scale2c_branch2b <- res2c_branch2b
I0117 06:38:31.597013  7669 net.cpp:367] scale2c_branch2b -> res2c_branch2b (in-place)
I0117 06:38:31.597064  7669 layer_factory.hpp:77] Creating layer scale2c_branch2b
I0117 06:38:31.597214  7669 net.cpp:122] Setting up scale2c_branch2b
I0117 06:38:31.597225  7669 net.cpp:129] Top shape: 16 64 56 56 (3211264)
I0117 06:38:31.597231  7669 net.cpp:137] Memory required for data: 1422590208
I0117 06:38:31.597239  7669 layer_factory.hpp:77] Creating layer res2c_branch2b_relu
I0117 06:38:31.597244  7669 net.cpp:84] Creating Layer res2c_branch2b_relu
I0117 06:38:31.597249  7669 net.cpp:406] res2c_branch2b_relu <- res2c_branch2b
I0117 06:38:31.597254  7669 net.cpp:367] res2c_branch2b_relu -> res2c_branch2b (in-place)
I0117 06:38:31.597476  7669 net.cpp:122] Setting up res2c_branch2b_relu
I0117 06:38:31.597487  7669 net.cpp:129] Top shape: 16 64 56 56 (3211264)
I0117 06:38:31.597491  7669 net.cpp:137] Memory required for data: 1435435264
I0117 06:38:31.597494  7669 layer_factory.hpp:77] Creating layer res2c_branch2c
I0117 06:38:31.597506  7669 net.cpp:84] Creating Layer res2c_branch2c
I0117 06:38:31.597512  7669 net.cpp:406] res2c_branch2c <- res2c_branch2b
I0117 06:38:31.597519  7669 net.cpp:380] res2c_branch2c -> res2c_branch2c
I0117 06:38:31.599107  7669 net.cpp:122] Setting up res2c_branch2c
I0117 06:38:31.599125  7669 net.cpp:129] Top shape: 16 256 56 56 (12845056)
I0117 06:38:31.599139  7669 net.cpp:137] Memory required for data: 1486815488
I0117 06:38:31.599145  7669 layer_factory.hpp:77] Creating layer bn2c_branch2c
I0117 06:38:31.599155  7669 net.cpp:84] Creating Layer bn2c_branch2c
I0117 06:38:31.599160  7669 net.cpp:406] bn2c_branch2c <- res2c_branch2c
I0117 06:38:31.599192  7669 net.cpp:367] bn2c_branch2c -> res2c_branch2c (in-place)
I0117 06:38:31.599463  7669 net.cpp:122] Setting up bn2c_branch2c
I0117 06:38:31.599472  7669 net.cpp:129] Top shape: 16 256 56 56 (12845056)
I0117 06:38:31.599476  7669 net.cpp:137] Memory required for data: 1538195712
I0117 06:38:31.599494  7669 layer_factory.hpp:77] Creating layer scale2c_branch2c
I0117 06:38:31.599503  7669 net.cpp:84] Creating Layer scale2c_branch2c
I0117 06:38:31.599508  7669 net.cpp:406] scale2c_branch2c <- res2c_branch2c
I0117 06:38:31.599514  7669 net.cpp:367] scale2c_branch2c -> res2c_branch2c (in-place)
I0117 06:38:31.599565  7669 layer_factory.hpp:77] Creating layer scale2c_branch2c
I0117 06:38:31.599706  7669 net.cpp:122] Setting up scale2c_branch2c
I0117 06:38:31.599715  7669 net.cpp:129] Top shape: 16 256 56 56 (12845056)
I0117 06:38:31.599720  7669 net.cpp:137] Memory required for data: 1589575936
I0117 06:38:31.599725  7669 layer_factory.hpp:77] Creating layer res2c
I0117 06:38:31.599731  7669 net.cpp:84] Creating Layer res2c
I0117 06:38:31.599738  7669 net.cpp:406] res2c <- res2b_res2b_relu_0_split_1
I0117 06:38:31.599743  7669 net.cpp:406] res2c <- res2c_branch2c
I0117 06:38:31.599751  7669 net.cpp:380] res2c -> res2c
I0117 06:38:31.599778  7669 net.cpp:122] Setting up res2c
I0117 06:38:31.599786  7669 net.cpp:129] Top shape: 16 256 56 56 (12845056)
I0117 06:38:31.599789  7669 net.cpp:137] Memory required for data: 1640956160
I0117 06:38:31.599793  7669 layer_factory.hpp:77] Creating layer res2c_relu
I0117 06:38:31.599800  7669 net.cpp:84] Creating Layer res2c_relu
I0117 06:38:31.599807  7669 net.cpp:406] res2c_relu <- res2c
I0117 06:38:31.599812  7669 net.cpp:367] res2c_relu -> res2c (in-place)
I0117 06:38:31.600047  7669 net.cpp:122] Setting up res2c_relu
I0117 06:38:31.600059  7669 net.cpp:129] Top shape: 16 256 56 56 (12845056)
I0117 06:38:31.600066  7669 net.cpp:137] Memory required for data: 1692336384
I0117 06:38:31.600070  7669 layer_factory.hpp:77] Creating layer res2c_res2c_relu_0_split
I0117 06:38:31.600076  7669 net.cpp:84] Creating Layer res2c_res2c_relu_0_split
I0117 06:38:31.600080  7669 net.cpp:406] res2c_res2c_relu_0_split <- res2c
I0117 06:38:31.600086  7669 net.cpp:380] res2c_res2c_relu_0_split -> res2c_res2c_relu_0_split_0
I0117 06:38:31.600093  7669 net.cpp:380] res2c_res2c_relu_0_split -> res2c_res2c_relu_0_split_1
I0117 06:38:31.600145  7669 net.cpp:122] Setting up res2c_res2c_relu_0_split
I0117 06:38:31.600153  7669 net.cpp:129] Top shape: 16 256 56 56 (12845056)
I0117 06:38:31.600157  7669 net.cpp:129] Top shape: 16 256 56 56 (12845056)
I0117 06:38:31.600160  7669 net.cpp:137] Memory required for data: 1795096832
I0117 06:38:31.600163  7669 layer_factory.hpp:77] Creating layer res3a_branch1
I0117 06:38:31.600172  7669 net.cpp:84] Creating Layer res3a_branch1
I0117 06:38:31.600178  7669 net.cpp:406] res3a_branch1 <- res2c_res2c_relu_0_split_0
I0117 06:38:31.600184  7669 net.cpp:380] res3a_branch1 -> res3a_branch1
I0117 06:38:31.602480  7669 net.cpp:122] Setting up res3a_branch1
I0117 06:38:31.602497  7669 net.cpp:129] Top shape: 16 512 28 28 (6422528)
I0117 06:38:31.602501  7669 net.cpp:137] Memory required for data: 1820786944
I0117 06:38:31.602509  7669 layer_factory.hpp:77] Creating layer bn3a_branch1
I0117 06:38:31.602519  7669 net.cpp:84] Creating Layer bn3a_branch1
I0117 06:38:31.602525  7669 net.cpp:406] bn3a_branch1 <- res3a_branch1
I0117 06:38:31.602531  7669 net.cpp:367] bn3a_branch1 -> res3a_branch1 (in-place)
I0117 06:38:31.604427  7669 net.cpp:122] Setting up bn3a_branch1
I0117 06:38:31.604452  7669 net.cpp:129] Top shape: 16 512 28 28 (6422528)
I0117 06:38:31.604456  7669 net.cpp:137] Memory required for data: 1846477056
I0117 06:38:31.604465  7669 layer_factory.hpp:77] Creating layer scale3a_branch1
I0117 06:38:31.604473  7669 net.cpp:84] Creating Layer scale3a_branch1
I0117 06:38:31.604477  7669 net.cpp:406] scale3a_branch1 <- res3a_branch1
I0117 06:38:31.604483  7669 net.cpp:367] scale3a_branch1 -> res3a_branch1 (in-place)
I0117 06:38:31.604566  7669 layer_factory.hpp:77] Creating layer scale3a_branch1
I0117 06:38:31.604707  7669 net.cpp:122] Setting up scale3a_branch1
I0117 06:38:31.604717  7669 net.cpp:129] Top shape: 16 512 28 28 (6422528)
I0117 06:38:31.604719  7669 net.cpp:137] Memory required for data: 1872167168
I0117 06:38:31.604730  7669 layer_factory.hpp:77] Creating layer res3a_branch2a
I0117 06:38:31.604743  7669 net.cpp:84] Creating Layer res3a_branch2a
I0117 06:38:31.604761  7669 net.cpp:406] res3a_branch2a <- res2c_res2c_relu_0_split_1
I0117 06:38:31.604768  7669 net.cpp:380] res3a_branch2a -> res3a_branch2a
I0117 06:38:31.606374  7669 net.cpp:122] Setting up res3a_branch2a
I0117 06:38:31.606408  7669 net.cpp:129] Top shape: 16 128 28 28 (1605632)
I0117 06:38:31.606412  7669 net.cpp:137] Memory required for data: 1878589696
I0117 06:38:31.606418  7669 layer_factory.hpp:77] Creating layer bn3a_branch2a
I0117 06:38:31.606428  7669 net.cpp:84] Creating Layer bn3a_branch2a
I0117 06:38:31.606432  7669 net.cpp:406] bn3a_branch2a <- res3a_branch2a
I0117 06:38:31.606439  7669 net.cpp:367] bn3a_branch2a -> res3a_branch2a (in-place)
I0117 06:38:31.606686  7669 net.cpp:122] Setting up bn3a_branch2a
I0117 06:38:31.606696  7669 net.cpp:129] Top shape: 16 128 28 28 (1605632)
I0117 06:38:31.606699  7669 net.cpp:137] Memory required for data: 1885012224
I0117 06:38:31.606709  7669 layer_factory.hpp:77] Creating layer scale3a_branch2a
I0117 06:38:31.606720  7669 net.cpp:84] Creating Layer scale3a_branch2a
I0117 06:38:31.606724  7669 net.cpp:406] scale3a_branch2a <- res3a_branch2a
I0117 06:38:31.606729  7669 net.cpp:367] scale3a_branch2a -> res3a_branch2a (in-place)
I0117 06:38:31.606777  7669 layer_factory.hpp:77] Creating layer scale3a_branch2a
I0117 06:38:31.606938  7669 net.cpp:122] Setting up scale3a_branch2a
I0117 06:38:31.606947  7669 net.cpp:129] Top shape: 16 128 28 28 (1605632)
I0117 06:38:31.606950  7669 net.cpp:137] Memory required for data: 1891434752
I0117 06:38:31.606957  7669 layer_factory.hpp:77] Creating layer res3a_branch2a_relu
I0117 06:38:31.606966  7669 net.cpp:84] Creating Layer res3a_branch2a_relu
I0117 06:38:31.606971  7669 net.cpp:406] res3a_branch2a_relu <- res3a_branch2a
I0117 06:38:31.606978  7669 net.cpp:367] res3a_branch2a_relu -> res3a_branch2a (in-place)
I0117 06:38:31.607831  7669 net.cpp:122] Setting up res3a_branch2a_relu
I0117 06:38:31.607848  7669 net.cpp:129] Top shape: 16 128 28 28 (1605632)
I0117 06:38:31.607852  7669 net.cpp:137] Memory required for data: 1897857280
I0117 06:38:31.607856  7669 layer_factory.hpp:77] Creating layer res3a_branch2b
I0117 06:38:31.607867  7669 net.cpp:84] Creating Layer res3a_branch2b
I0117 06:38:31.607873  7669 net.cpp:406] res3a_branch2b <- res3a_branch2a
I0117 06:38:31.607880  7669 net.cpp:380] res3a_branch2b -> res3a_branch2b
I0117 06:38:31.610250  7669 net.cpp:122] Setting up res3a_branch2b
I0117 06:38:31.610273  7669 net.cpp:129] Top shape: 16 128 28 28 (1605632)
I0117 06:38:31.610277  7669 net.cpp:137] Memory required for data: 1904279808
I0117 06:38:31.610293  7669 layer_factory.hpp:77] Creating layer bn3a_branch2b
I0117 06:38:31.610303  7669 net.cpp:84] Creating Layer bn3a_branch2b
I0117 06:38:31.610308  7669 net.cpp:406] bn3a_branch2b <- res3a_branch2b
I0117 06:38:31.610314  7669 net.cpp:367] bn3a_branch2b -> res3a_branch2b (in-place)
I0117 06:38:31.610584  7669 net.cpp:122] Setting up bn3a_branch2b
I0117 06:38:31.610595  7669 net.cpp:129] Top shape: 16 128 28 28 (1605632)
I0117 06:38:31.610599  7669 net.cpp:137] Memory required for data: 1910702336
I0117 06:38:31.610607  7669 layer_factory.hpp:77] Creating layer scale3a_branch2b
I0117 06:38:31.610616  7669 net.cpp:84] Creating Layer scale3a_branch2b
I0117 06:38:31.610622  7669 net.cpp:406] scale3a_branch2b <- res3a_branch2b
I0117 06:38:31.610628  7669 net.cpp:367] scale3a_branch2b -> res3a_branch2b (in-place)
I0117 06:38:31.610687  7669 layer_factory.hpp:77] Creating layer scale3a_branch2b
I0117 06:38:31.610836  7669 net.cpp:122] Setting up scale3a_branch2b
I0117 06:38:31.610846  7669 net.cpp:129] Top shape: 16 128 28 28 (1605632)
I0117 06:38:31.610867  7669 net.cpp:137] Memory required for data: 1917124864
I0117 06:38:31.610873  7669 layer_factory.hpp:77] Creating layer res3a_branch2b_relu
I0117 06:38:31.610880  7669 net.cpp:84] Creating Layer res3a_branch2b_relu
I0117 06:38:31.610888  7669 net.cpp:406] res3a_branch2b_relu <- res3a_branch2b
I0117 06:38:31.610895  7669 net.cpp:367] res3a_branch2b_relu -> res3a_branch2b (in-place)
I0117 06:38:31.611716  7669 net.cpp:122] Setting up res3a_branch2b_relu
I0117 06:38:31.611732  7669 net.cpp:129] Top shape: 16 128 28 28 (1605632)
I0117 06:38:31.611735  7669 net.cpp:137] Memory required for data: 1923547392
I0117 06:38:31.611739  7669 layer_factory.hpp:77] Creating layer res3a_branch2c
I0117 06:38:31.611758  7669 net.cpp:84] Creating Layer res3a_branch2c
I0117 06:38:31.611763  7669 net.cpp:406] res3a_branch2c <- res3a_branch2b
I0117 06:38:31.611769  7669 net.cpp:380] res3a_branch2c -> res3a_branch2c
I0117 06:38:31.612819  7669 net.cpp:122] Setting up res3a_branch2c
I0117 06:38:31.612834  7669 net.cpp:129] Top shape: 16 512 28 28 (6422528)
I0117 06:38:31.612838  7669 net.cpp:137] Memory required for data: 1949237504
I0117 06:38:31.612846  7669 layer_factory.hpp:77] Creating layer bn3a_branch2c
I0117 06:38:31.612855  7669 net.cpp:84] Creating Layer bn3a_branch2c
I0117 06:38:31.612860  7669 net.cpp:406] bn3a_branch2c <- res3a_branch2c
I0117 06:38:31.612865  7669 net.cpp:367] bn3a_branch2c -> res3a_branch2c (in-place)
I0117 06:38:31.613109  7669 net.cpp:122] Setting up bn3a_branch2c
I0117 06:38:31.613118  7669 net.cpp:129] Top shape: 16 512 28 28 (6422528)
I0117 06:38:31.613122  7669 net.cpp:137] Memory required for data: 1974927616
I0117 06:38:31.613132  7669 layer_factory.hpp:77] Creating layer scale3a_branch2c
I0117 06:38:31.613145  7669 net.cpp:84] Creating Layer scale3a_branch2c
I0117 06:38:31.613149  7669 net.cpp:406] scale3a_branch2c <- res3a_branch2c
I0117 06:38:31.613154  7669 net.cpp:367] scale3a_branch2c -> res3a_branch2c (in-place)
I0117 06:38:31.613204  7669 layer_factory.hpp:77] Creating layer scale3a_branch2c
I0117 06:38:31.613355  7669 net.cpp:122] Setting up scale3a_branch2c
I0117 06:38:31.613375  7669 net.cpp:129] Top shape: 16 512 28 28 (6422528)
I0117 06:38:31.613380  7669 net.cpp:137] Memory required for data: 2000617728
I0117 06:38:31.613389  7669 layer_factory.hpp:77] Creating layer res3a
I0117 06:38:31.613397  7669 net.cpp:84] Creating Layer res3a
I0117 06:38:31.613401  7669 net.cpp:406] res3a <- res3a_branch1
I0117 06:38:31.613406  7669 net.cpp:406] res3a <- res3a_branch2c
I0117 06:38:31.613411  7669 net.cpp:380] res3a -> res3a
I0117 06:38:31.613466  7669 net.cpp:122] Setting up res3a
I0117 06:38:31.613476  7669 net.cpp:129] Top shape: 16 512 28 28 (6422528)
I0117 06:38:31.613478  7669 net.cpp:137] Memory required for data: 2026307840
I0117 06:38:31.613482  7669 layer_factory.hpp:77] Creating layer res3a_relu
I0117 06:38:31.613490  7669 net.cpp:84] Creating Layer res3a_relu
I0117 06:38:31.613497  7669 net.cpp:406] res3a_relu <- res3a
I0117 06:38:31.613502  7669 net.cpp:367] res3a_relu -> res3a (in-place)
I0117 06:38:31.614372  7669 net.cpp:122] Setting up res3a_relu
I0117 06:38:31.614403  7669 net.cpp:129] Top shape: 16 512 28 28 (6422528)
I0117 06:38:31.614406  7669 net.cpp:137] Memory required for data: 2051997952
I0117 06:38:31.614410  7669 layer_factory.hpp:77] Creating layer res3a_res3a_relu_0_split
I0117 06:38:31.614420  7669 net.cpp:84] Creating Layer res3a_res3a_relu_0_split
I0117 06:38:31.614428  7669 net.cpp:406] res3a_res3a_relu_0_split <- res3a
I0117 06:38:31.614435  7669 net.cpp:380] res3a_res3a_relu_0_split -> res3a_res3a_relu_0_split_0
I0117 06:38:31.614442  7669 net.cpp:380] res3a_res3a_relu_0_split -> res3a_res3a_relu_0_split_1
I0117 06:38:31.614498  7669 net.cpp:122] Setting up res3a_res3a_relu_0_split
I0117 06:38:31.614507  7669 net.cpp:129] Top shape: 16 512 28 28 (6422528)
I0117 06:38:31.614511  7669 net.cpp:129] Top shape: 16 512 28 28 (6422528)
I0117 06:38:31.614514  7669 net.cpp:137] Memory required for data: 2103378176
I0117 06:38:31.614517  7669 layer_factory.hpp:77] Creating layer res3b_branch2a
I0117 06:38:31.614545  7669 net.cpp:84] Creating Layer res3b_branch2a
I0117 06:38:31.614552  7669 net.cpp:406] res3b_branch2a <- res3a_res3a_relu_0_split_0
I0117 06:38:31.614559  7669 net.cpp:380] res3b_branch2a -> res3b_branch2a
I0117 06:38:31.616206  7669 net.cpp:122] Setting up res3b_branch2a
I0117 06:38:31.616225  7669 net.cpp:129] Top shape: 16 128 28 28 (1605632)
I0117 06:38:31.616230  7669 net.cpp:137] Memory required for data: 2109800704
I0117 06:38:31.616235  7669 layer_factory.hpp:77] Creating layer bn3b_branch2a
I0117 06:38:31.616245  7669 net.cpp:84] Creating Layer bn3b_branch2a
I0117 06:38:31.616250  7669 net.cpp:406] bn3b_branch2a <- res3b_branch2a
I0117 06:38:31.616255  7669 net.cpp:367] bn3b_branch2a -> res3b_branch2a (in-place)
I0117 06:38:31.616497  7669 net.cpp:122] Setting up bn3b_branch2a
I0117 06:38:31.616506  7669 net.cpp:129] Top shape: 16 128 28 28 (1605632)
I0117 06:38:31.616510  7669 net.cpp:137] Memory required for data: 2116223232
I0117 06:38:31.616518  7669 layer_factory.hpp:77] Creating layer scale3b_branch2a
I0117 06:38:31.616526  7669 net.cpp:84] Creating Layer scale3b_branch2a
I0117 06:38:31.616533  7669 net.cpp:406] scale3b_branch2a <- res3b_branch2a
I0117 06:38:31.616540  7669 net.cpp:367] scale3b_branch2a -> res3b_branch2a (in-place)
I0117 06:38:31.616588  7669 layer_factory.hpp:77] Creating layer scale3b_branch2a
I0117 06:38:31.616726  7669 net.cpp:122] Setting up scale3b_branch2a
I0117 06:38:31.616735  7669 net.cpp:129] Top shape: 16 128 28 28 (1605632)
I0117 06:38:31.616739  7669 net.cpp:137] Memory required for data: 2122645760
I0117 06:38:31.616745  7669 layer_factory.hpp:77] Creating layer res3b_branch2a_relu
I0117 06:38:31.616755  7669 net.cpp:84] Creating Layer res3b_branch2a_relu
I0117 06:38:31.616758  7669 net.cpp:406] res3b_branch2a_relu <- res3b_branch2a
I0117 06:38:31.616763  7669 net.cpp:367] res3b_branch2a_relu -> res3b_branch2a (in-place)
I0117 06:38:31.618090  7669 net.cpp:122] Setting up res3b_branch2a_relu
I0117 06:38:31.618104  7669 net.cpp:129] Top shape: 16 128 28 28 (1605632)
I0117 06:38:31.618108  7669 net.cpp:137] Memory required for data: 2129068288
I0117 06:38:31.618111  7669 layer_factory.hpp:77] Creating layer res3b_branch2b
I0117 06:38:31.618120  7669 net.cpp:84] Creating Layer res3b_branch2b
I0117 06:38:31.618125  7669 net.cpp:406] res3b_branch2b <- res3b_branch2a
I0117 06:38:31.618132  7669 net.cpp:380] res3b_branch2b -> res3b_branch2b
I0117 06:38:31.625839  7669 net.cpp:122] Setting up res3b_branch2b
I0117 06:38:31.625859  7669 net.cpp:129] Top shape: 16 128 28 28 (1605632)
I0117 06:38:31.625862  7669 net.cpp:137] Memory required for data: 2135490816
I0117 06:38:31.625881  7669 layer_factory.hpp:77] Creating layer bn3b_branch2b
I0117 06:38:31.625891  7669 net.cpp:84] Creating Layer bn3b_branch2b
I0117 06:38:31.625896  7669 net.cpp:406] bn3b_branch2b <- res3b_branch2b
I0117 06:38:31.625903  7669 net.cpp:367] bn3b_branch2b -> res3b_branch2b (in-place)
I0117 06:38:31.626155  7669 net.cpp:122] Setting up bn3b_branch2b
I0117 06:38:31.626166  7669 net.cpp:129] Top shape: 16 128 28 28 (1605632)
I0117 06:38:31.626169  7669 net.cpp:137] Memory required for data: 2141913344
I0117 06:38:31.626178  7669 layer_factory.hpp:77] Creating layer scale3b_branch2b
I0117 06:38:31.626185  7669 net.cpp:84] Creating Layer scale3b_branch2b
I0117 06:38:31.626189  7669 net.cpp:406] scale3b_branch2b <- res3b_branch2b
I0117 06:38:31.626195  7669 net.cpp:367] scale3b_branch2b -> res3b_branch2b (in-place)
I0117 06:38:31.626250  7669 layer_factory.hpp:77] Creating layer scale3b_branch2b
I0117 06:38:31.626394  7669 net.cpp:122] Setting up scale3b_branch2b
I0117 06:38:31.626404  7669 net.cpp:129] Top shape: 16 128 28 28 (1605632)
I0117 06:38:31.626407  7669 net.cpp:137] Memory required for data: 2148335872
I0117 06:38:31.626413  7669 layer_factory.hpp:77] Creating layer res3b_branch2b_relu
I0117 06:38:31.626420  7669 net.cpp:84] Creating Layer res3b_branch2b_relu
I0117 06:38:31.626423  7669 net.cpp:406] res3b_branch2b_relu <- res3b_branch2b
I0117 06:38:31.626449  7669 net.cpp:367] res3b_branch2b_relu -> res3b_branch2b (in-place)
I0117 06:38:31.627346  7669 net.cpp:122] Setting up res3b_branch2b_relu
I0117 06:38:31.627358  7669 net.cpp:129] Top shape: 16 128 28 28 (1605632)
I0117 06:38:31.627362  7669 net.cpp:137] Memory required for data: 2154758400
I0117 06:38:31.627365  7669 layer_factory.hpp:77] Creating layer res3b_branch2c
I0117 06:38:31.627375  7669 net.cpp:84] Creating Layer res3b_branch2c
I0117 06:38:31.627380  7669 net.cpp:406] res3b_branch2c <- res3b_branch2b
I0117 06:38:31.627387  7669 net.cpp:380] res3b_branch2c -> res3b_branch2c
I0117 06:38:31.634416  7669 net.cpp:122] Setting up res3b_branch2c
I0117 06:38:31.634434  7669 net.cpp:129] Top shape: 16 512 28 28 (6422528)
I0117 06:38:31.634438  7669 net.cpp:137] Memory required for data: 2180448512
I0117 06:38:31.634445  7669 layer_factory.hpp:77] Creating layer bn3b_branch2c
I0117 06:38:31.634459  7669 net.cpp:84] Creating Layer bn3b_branch2c
I0117 06:38:31.634467  7669 net.cpp:406] bn3b_branch2c <- res3b_branch2c
I0117 06:38:31.634474  7669 net.cpp:367] bn3b_branch2c -> res3b_branch2c (in-place)
I0117 06:38:31.634716  7669 net.cpp:122] Setting up bn3b_branch2c
I0117 06:38:31.634726  7669 net.cpp:129] Top shape: 16 512 28 28 (6422528)
I0117 06:38:31.634729  7669 net.cpp:137] Memory required for data: 2206138624
I0117 06:38:31.634737  7669 layer_factory.hpp:77] Creating layer scale3b_branch2c
I0117 06:38:31.634747  7669 net.cpp:84] Creating Layer scale3b_branch2c
I0117 06:38:31.634750  7669 net.cpp:406] scale3b_branch2c <- res3b_branch2c
I0117 06:38:31.634758  7669 net.cpp:367] scale3b_branch2c -> res3b_branch2c (in-place)
I0117 06:38:31.634809  7669 layer_factory.hpp:77] Creating layer scale3b_branch2c
I0117 06:38:31.634943  7669 net.cpp:122] Setting up scale3b_branch2c
I0117 06:38:31.634963  7669 net.cpp:129] Top shape: 16 512 28 28 (6422528)
I0117 06:38:31.634966  7669 net.cpp:137] Memory required for data: 2231828736
I0117 06:38:31.634973  7669 layer_factory.hpp:77] Creating layer res3b
I0117 06:38:31.634987  7669 net.cpp:84] Creating Layer res3b
I0117 06:38:31.634991  7669 net.cpp:406] res3b <- res3a_res3a_relu_0_split_1
I0117 06:38:31.634996  7669 net.cpp:406] res3b <- res3b_branch2c
I0117 06:38:31.635011  7669 net.cpp:380] res3b -> res3b
I0117 06:38:31.635051  7669 net.cpp:122] Setting up res3b
I0117 06:38:31.635061  7669 net.cpp:129] Top shape: 16 512 28 28 (6422528)
I0117 06:38:31.635066  7669 net.cpp:137] Memory required for data: 2257518848
I0117 06:38:31.635068  7669 layer_factory.hpp:77] Creating layer res3b_relu
I0117 06:38:31.635074  7669 net.cpp:84] Creating Layer res3b_relu
I0117 06:38:31.635077  7669 net.cpp:406] res3b_relu <- res3b
I0117 06:38:31.635082  7669 net.cpp:367] res3b_relu -> res3b (in-place)
I0117 06:38:31.636608  7669 net.cpp:122] Setting up res3b_relu
I0117 06:38:31.636620  7669 net.cpp:129] Top shape: 16 512 28 28 (6422528)
I0117 06:38:31.636622  7669 net.cpp:137] Memory required for data: 2283208960
I0117 06:38:31.636626  7669 layer_factory.hpp:77] Creating layer res3b_res3b_relu_0_split
I0117 06:38:31.636632  7669 net.cpp:84] Creating Layer res3b_res3b_relu_0_split
I0117 06:38:31.636636  7669 net.cpp:406] res3b_res3b_relu_0_split <- res3b
I0117 06:38:31.636644  7669 net.cpp:380] res3b_res3b_relu_0_split -> res3b_res3b_relu_0_split_0
I0117 06:38:31.636651  7669 net.cpp:380] res3b_res3b_relu_0_split -> res3b_res3b_relu_0_split_1
I0117 06:38:31.636701  7669 net.cpp:122] Setting up res3b_res3b_relu_0_split
I0117 06:38:31.636709  7669 net.cpp:129] Top shape: 16 512 28 28 (6422528)
I0117 06:38:31.636714  7669 net.cpp:129] Top shape: 16 512 28 28 (6422528)
I0117 06:38:31.636716  7669 net.cpp:137] Memory required for data: 2334589184
I0117 06:38:31.636720  7669 layer_factory.hpp:77] Creating layer res3c_branch2a
I0117 06:38:31.636729  7669 net.cpp:84] Creating Layer res3c_branch2a
I0117 06:38:31.636735  7669 net.cpp:406] res3c_branch2a <- res3b_res3b_relu_0_split_0
I0117 06:38:31.636741  7669 net.cpp:380] res3c_branch2a -> res3c_branch2a
I0117 06:38:31.643676  7669 net.cpp:122] Setting up res3c_branch2a
I0117 06:38:31.643710  7669 net.cpp:129] Top shape: 16 128 28 28 (1605632)
I0117 06:38:31.643726  7669 net.cpp:137] Memory required for data: 2341011712
I0117 06:38:31.643733  7669 layer_factory.hpp:77] Creating layer bn3c_branch2a
I0117 06:38:31.643740  7669 net.cpp:84] Creating Layer bn3c_branch2a
I0117 06:38:31.643745  7669 net.cpp:406] bn3c_branch2a <- res3c_branch2a
I0117 06:38:31.643764  7669 net.cpp:367] bn3c_branch2a -> res3c_branch2a (in-place)
I0117 06:38:31.644053  7669 net.cpp:122] Setting up bn3c_branch2a
I0117 06:38:31.644064  7669 net.cpp:129] Top shape: 16 128 28 28 (1605632)
I0117 06:38:31.644068  7669 net.cpp:137] Memory required for data: 2347434240
I0117 06:38:31.644076  7669 layer_factory.hpp:77] Creating layer scale3c_branch2a
I0117 06:38:31.644083  7669 net.cpp:84] Creating Layer scale3c_branch2a
I0117 06:38:31.644089  7669 net.cpp:406] scale3c_branch2a <- res3c_branch2a
I0117 06:38:31.644095  7669 net.cpp:367] scale3c_branch2a -> res3c_branch2a (in-place)
I0117 06:38:31.644145  7669 layer_factory.hpp:77] Creating layer scale3c_branch2a
I0117 06:38:31.644291  7669 net.cpp:122] Setting up scale3c_branch2a
I0117 06:38:31.644300  7669 net.cpp:129] Top shape: 16 128 28 28 (1605632)
I0117 06:38:31.644304  7669 net.cpp:137] Memory required for data: 2353856768
I0117 06:38:31.644310  7669 layer_factory.hpp:77] Creating layer res3c_branch2a_relu
I0117 06:38:31.644316  7669 net.cpp:84] Creating Layer res3c_branch2a_relu
I0117 06:38:31.644320  7669 net.cpp:406] res3c_branch2a_relu <- res3c_branch2a
I0117 06:38:31.644325  7669 net.cpp:367] res3c_branch2a_relu -> res3c_branch2a (in-place)
I0117 06:38:31.645889  7669 net.cpp:122] Setting up res3c_branch2a_relu
I0117 06:38:31.645900  7669 net.cpp:129] Top shape: 16 128 28 28 (1605632)
I0117 06:38:31.645903  7669 net.cpp:137] Memory required for data: 2360279296
I0117 06:38:31.645907  7669 layer_factory.hpp:77] Creating layer res3c_branch2b
I0117 06:38:31.645918  7669 net.cpp:84] Creating Layer res3c_branch2b
I0117 06:38:31.645923  7669 net.cpp:406] res3c_branch2b <- res3c_branch2a
I0117 06:38:31.645929  7669 net.cpp:380] res3c_branch2b -> res3c_branch2b
I0117 06:38:31.653558  7669 net.cpp:122] Setting up res3c_branch2b
I0117 06:38:31.653578  7669 net.cpp:129] Top shape: 16 128 28 28 (1605632)
I0117 06:38:31.653581  7669 net.cpp:137] Memory required for data: 2366701824
I0117 06:38:31.653595  7669 layer_factory.hpp:77] Creating layer bn3c_branch2b
I0117 06:38:31.653605  7669 net.cpp:84] Creating Layer bn3c_branch2b
I0117 06:38:31.653611  7669 net.cpp:406] bn3c_branch2b <- res3c_branch2b
I0117 06:38:31.653617  7669 net.cpp:367] bn3c_branch2b -> res3c_branch2b (in-place)
I0117 06:38:31.653889  7669 net.cpp:122] Setting up bn3c_branch2b
I0117 06:38:31.653900  7669 net.cpp:129] Top shape: 16 128 28 28 (1605632)
I0117 06:38:31.653903  7669 net.cpp:137] Memory required for data: 2373124352
I0117 06:38:31.653923  7669 layer_factory.hpp:77] Creating layer scale3c_branch2b
I0117 06:38:31.653934  7669 net.cpp:84] Creating Layer scale3c_branch2b
I0117 06:38:31.653937  7669 net.cpp:406] scale3c_branch2b <- res3c_branch2b
I0117 06:38:31.653942  7669 net.cpp:367] scale3c_branch2b -> res3c_branch2b (in-place)
I0117 06:38:31.653992  7669 layer_factory.hpp:77] Creating layer scale3c_branch2b
I0117 06:38:31.654142  7669 net.cpp:122] Setting up scale3c_branch2b
I0117 06:38:31.654151  7669 net.cpp:129] Top shape: 16 128 28 28 (1605632)
I0117 06:38:31.654155  7669 net.cpp:137] Memory required for data: 2379546880
I0117 06:38:31.654161  7669 layer_factory.hpp:77] Creating layer res3c_branch2b_relu
I0117 06:38:31.654170  7669 net.cpp:84] Creating Layer res3c_branch2b_relu
I0117 06:38:31.654173  7669 net.cpp:406] res3c_branch2b_relu <- res3c_branch2b
I0117 06:38:31.654178  7669 net.cpp:367] res3c_branch2b_relu -> res3c_branch2b (in-place)
I0117 06:38:31.655127  7669 net.cpp:122] Setting up res3c_branch2b_relu
I0117 06:38:31.655143  7669 net.cpp:129] Top shape: 16 128 28 28 (1605632)
I0117 06:38:31.655148  7669 net.cpp:137] Memory required for data: 2385969408
I0117 06:38:31.655167  7669 layer_factory.hpp:77] Creating layer res3c_branch2c
I0117 06:38:31.655179  7669 net.cpp:84] Creating Layer res3c_branch2c
I0117 06:38:31.655184  7669 net.cpp:406] res3c_branch2c <- res3c_branch2b
I0117 06:38:31.655192  7669 net.cpp:380] res3c_branch2c -> res3c_branch2c
I0117 06:38:31.662142  7669 net.cpp:122] Setting up res3c_branch2c
I0117 06:38:31.662158  7669 net.cpp:129] Top shape: 16 512 28 28 (6422528)
I0117 06:38:31.662160  7669 net.cpp:137] Memory required for data: 2411659520
I0117 06:38:31.662166  7669 layer_factory.hpp:77] Creating layer bn3c_branch2c
I0117 06:38:31.662175  7669 net.cpp:84] Creating Layer bn3c_branch2c
I0117 06:38:31.662180  7669 net.cpp:406] bn3c_branch2c <- res3c_branch2c
I0117 06:38:31.662189  7669 net.cpp:367] bn3c_branch2c -> res3c_branch2c (in-place)
I0117 06:38:31.662451  7669 net.cpp:122] Setting up bn3c_branch2c
I0117 06:38:31.662461  7669 net.cpp:129] Top shape: 16 512 28 28 (6422528)
I0117 06:38:31.662464  7669 net.cpp:137] Memory required for data: 2437349632
I0117 06:38:31.662473  7669 layer_factory.hpp:77] Creating layer scale3c_branch2c
I0117 06:38:31.662483  7669 net.cpp:84] Creating Layer scale3c_branch2c
I0117 06:38:31.662490  7669 net.cpp:406] scale3c_branch2c <- res3c_branch2c
I0117 06:38:31.662495  7669 net.cpp:367] scale3c_branch2c -> res3c_branch2c (in-place)
I0117 06:38:31.662547  7669 layer_factory.hpp:77] Creating layer scale3c_branch2c
I0117 06:38:31.662685  7669 net.cpp:122] Setting up scale3c_branch2c
I0117 06:38:31.662693  7669 net.cpp:129] Top shape: 16 512 28 28 (6422528)
I0117 06:38:31.662698  7669 net.cpp:137] Memory required for data: 2463039744
I0117 06:38:31.662704  7669 layer_factory.hpp:77] Creating layer res3c
I0117 06:38:31.662714  7669 net.cpp:84] Creating Layer res3c
I0117 06:38:31.662720  7669 net.cpp:406] res3c <- res3b_res3b_relu_0_split_1
I0117 06:38:31.662725  7669 net.cpp:406] res3c <- res3c_branch2c
I0117 06:38:31.662730  7669 net.cpp:380] res3c -> res3c
I0117 06:38:31.662761  7669 net.cpp:122] Setting up res3c
I0117 06:38:31.662768  7669 net.cpp:129] Top shape: 16 512 28 28 (6422528)
I0117 06:38:31.662772  7669 net.cpp:137] Memory required for data: 2488729856
I0117 06:38:31.662776  7669 layer_factory.hpp:77] Creating layer res3c_relu
I0117 06:38:31.662781  7669 net.cpp:84] Creating Layer res3c_relu
I0117 06:38:31.662786  7669 net.cpp:406] res3c_relu <- res3c
I0117 06:38:31.662792  7669 net.cpp:367] res3c_relu -> res3c (in-place)
I0117 06:38:31.664165  7669 net.cpp:122] Setting up res3c_relu
I0117 06:38:31.664181  7669 net.cpp:129] Top shape: 16 512 28 28 (6422528)
I0117 06:38:31.664186  7669 net.cpp:137] Memory required for data: 2514419968
I0117 06:38:31.664196  7669 layer_factory.hpp:77] Creating layer res3c_res3c_relu_0_split
I0117 06:38:31.664202  7669 net.cpp:84] Creating Layer res3c_res3c_relu_0_split
I0117 06:38:31.664207  7669 net.cpp:406] res3c_res3c_relu_0_split <- res3c
I0117 06:38:31.664213  7669 net.cpp:380] res3c_res3c_relu_0_split -> res3c_res3c_relu_0_split_0
I0117 06:38:31.664223  7669 net.cpp:380] res3c_res3c_relu_0_split -> res3c_res3c_relu_0_split_1
I0117 06:38:31.664283  7669 net.cpp:122] Setting up res3c_res3c_relu_0_split
I0117 06:38:31.664290  7669 net.cpp:129] Top shape: 16 512 28 28 (6422528)
I0117 06:38:31.664295  7669 net.cpp:129] Top shape: 16 512 28 28 (6422528)
I0117 06:38:31.664299  7669 net.cpp:137] Memory required for data: 2565800192
I0117 06:38:31.664302  7669 layer_factory.hpp:77] Creating layer res3d_branch2a
I0117 06:38:31.664312  7669 net.cpp:84] Creating Layer res3d_branch2a
I0117 06:38:31.664316  7669 net.cpp:406] res3d_branch2a <- res3c_res3c_relu_0_split_0
I0117 06:38:31.664330  7669 net.cpp:380] res3d_branch2a -> res3d_branch2a
I0117 06:38:31.671447  7669 net.cpp:122] Setting up res3d_branch2a
I0117 06:38:31.671468  7669 net.cpp:129] Top shape: 16 128 28 28 (1605632)
I0117 06:38:31.671481  7669 net.cpp:137] Memory required for data: 2572222720
I0117 06:38:31.671489  7669 layer_factory.hpp:77] Creating layer bn3d_branch2a
I0117 06:38:31.671499  7669 net.cpp:84] Creating Layer bn3d_branch2a
I0117 06:38:31.671528  7669 net.cpp:406] bn3d_branch2a <- res3d_branch2a
I0117 06:38:31.671537  7669 net.cpp:367] bn3d_branch2a -> res3d_branch2a (in-place)
I0117 06:38:31.671792  7669 net.cpp:122] Setting up bn3d_branch2a
I0117 06:38:31.671803  7669 net.cpp:129] Top shape: 16 128 28 28 (1605632)
I0117 06:38:31.671806  7669 net.cpp:137] Memory required for data: 2578645248
I0117 06:38:31.671850  7669 layer_factory.hpp:77] Creating layer scale3d_branch2a
I0117 06:38:31.671861  7669 net.cpp:84] Creating Layer scale3d_branch2a
I0117 06:38:31.671869  7669 net.cpp:406] scale3d_branch2a <- res3d_branch2a
I0117 06:38:31.671875  7669 net.cpp:367] scale3d_branch2a -> res3d_branch2a (in-place)
I0117 06:38:31.671928  7669 layer_factory.hpp:77] Creating layer scale3d_branch2a
I0117 06:38:31.672093  7669 net.cpp:122] Setting up scale3d_branch2a
I0117 06:38:31.672103  7669 net.cpp:129] Top shape: 16 128 28 28 (1605632)
I0117 06:38:31.672106  7669 net.cpp:137] Memory required for data: 2585067776
I0117 06:38:31.672113  7669 layer_factory.hpp:77] Creating layer res3d_branch2a_relu
I0117 06:38:31.672119  7669 net.cpp:84] Creating Layer res3d_branch2a_relu
I0117 06:38:31.672123  7669 net.cpp:406] res3d_branch2a_relu <- res3d_branch2a
I0117 06:38:31.672130  7669 net.cpp:367] res3d_branch2a_relu -> res3d_branch2a (in-place)
I0117 06:38:31.673643  7669 net.cpp:122] Setting up res3d_branch2a_relu
I0117 06:38:31.673655  7669 net.cpp:129] Top shape: 16 128 28 28 (1605632)
I0117 06:38:31.673660  7669 net.cpp:137] Memory required for data: 2591490304
I0117 06:38:31.673674  7669 layer_factory.hpp:77] Creating layer res3d_branch2b
I0117 06:38:31.673683  7669 net.cpp:84] Creating Layer res3d_branch2b
I0117 06:38:31.673687  7669 net.cpp:406] res3d_branch2b <- res3d_branch2a
I0117 06:38:31.673693  7669 net.cpp:380] res3d_branch2b -> res3d_branch2b
I0117 06:38:31.681377  7669 net.cpp:122] Setting up res3d_branch2b
I0117 06:38:31.681396  7669 net.cpp:129] Top shape: 16 128 28 28 (1605632)
I0117 06:38:31.681401  7669 net.cpp:137] Memory required for data: 2597912832
I0117 06:38:31.681416  7669 layer_factory.hpp:77] Creating layer bn3d_branch2b
I0117 06:38:31.681427  7669 net.cpp:84] Creating Layer bn3d_branch2b
I0117 06:38:31.681430  7669 net.cpp:406] bn3d_branch2b <- res3d_branch2b
I0117 06:38:31.681437  7669 net.cpp:367] bn3d_branch2b -> res3d_branch2b (in-place)
I0117 06:38:31.681716  7669 net.cpp:122] Setting up bn3d_branch2b
I0117 06:38:31.681736  7669 net.cpp:129] Top shape: 16 128 28 28 (1605632)
I0117 06:38:31.681740  7669 net.cpp:137] Memory required for data: 2604335360
I0117 06:38:31.681759  7669 layer_factory.hpp:77] Creating layer scale3d_branch2b
I0117 06:38:31.681766  7669 net.cpp:84] Creating Layer scale3d_branch2b
I0117 06:38:31.681776  7669 net.cpp:406] scale3d_branch2b <- res3d_branch2b
I0117 06:38:31.681782  7669 net.cpp:367] scale3d_branch2b -> res3d_branch2b (in-place)
I0117 06:38:31.681838  7669 layer_factory.hpp:77] Creating layer scale3d_branch2b
I0117 06:38:31.681998  7669 net.cpp:122] Setting up scale3d_branch2b
I0117 06:38:31.682008  7669 net.cpp:129] Top shape: 16 128 28 28 (1605632)
I0117 06:38:31.682010  7669 net.cpp:137] Memory required for data: 2610757888
I0117 06:38:31.682018  7669 layer_factory.hpp:77] Creating layer res3d_branch2b_relu
I0117 06:38:31.682024  7669 net.cpp:84] Creating Layer res3d_branch2b_relu
I0117 06:38:31.682029  7669 net.cpp:406] res3d_branch2b_relu <- res3d_branch2b
I0117 06:38:31.682037  7669 net.cpp:367] res3d_branch2b_relu -> res3d_branch2b (in-place)
I0117 06:38:31.682950  7669 net.cpp:122] Setting up res3d_branch2b_relu
I0117 06:38:31.682965  7669 net.cpp:129] Top shape: 16 128 28 28 (1605632)
I0117 06:38:31.682968  7669 net.cpp:137] Memory required for data: 2617180416
I0117 06:38:31.682971  7669 layer_factory.hpp:77] Creating layer res3d_branch2c
I0117 06:38:31.682981  7669 net.cpp:84] Creating Layer res3d_branch2c
I0117 06:38:31.682984  7669 net.cpp:406] res3d_branch2c <- res3d_branch2b
I0117 06:38:31.682991  7669 net.cpp:380] res3d_branch2c -> res3d_branch2c
I0117 06:38:31.690021  7669 net.cpp:122] Setting up res3d_branch2c
I0117 06:38:31.690040  7669 net.cpp:129] Top shape: 16 512 28 28 (6422528)
I0117 06:38:31.690055  7669 net.cpp:137] Memory required for data: 2642870528
I0117 06:38:31.690062  7669 layer_factory.hpp:77] Creating layer bn3d_branch2c
I0117 06:38:31.690071  7669 net.cpp:84] Creating Layer bn3d_branch2c
I0117 06:38:31.690075  7669 net.cpp:406] bn3d_branch2c <- res3d_branch2c
I0117 06:38:31.690083  7669 net.cpp:367] bn3d_branch2c -> res3d_branch2c (in-place)
I0117 06:38:31.690395  7669 net.cpp:122] Setting up bn3d_branch2c
I0117 06:38:31.690405  7669 net.cpp:129] Top shape: 16 512 28 28 (6422528)
I0117 06:38:31.690408  7669 net.cpp:137] Memory required for data: 2668560640
I0117 06:38:31.690418  7669 layer_factory.hpp:77] Creating layer scale3d_branch2c
I0117 06:38:31.690423  7669 net.cpp:84] Creating Layer scale3d_branch2c
I0117 06:38:31.690428  7669 net.cpp:406] scale3d_branch2c <- res3d_branch2c
I0117 06:38:31.690433  7669 net.cpp:367] scale3d_branch2c -> res3d_branch2c (in-place)
I0117 06:38:31.690490  7669 layer_factory.hpp:77] Creating layer scale3d_branch2c
I0117 06:38:31.690629  7669 net.cpp:122] Setting up scale3d_branch2c
I0117 06:38:31.690639  7669 net.cpp:129] Top shape: 16 512 28 28 (6422528)
I0117 06:38:31.690642  7669 net.cpp:137] Memory required for data: 2694250752
I0117 06:38:31.690649  7669 layer_factory.hpp:77] Creating layer res3d
I0117 06:38:31.690657  7669 net.cpp:84] Creating Layer res3d
I0117 06:38:31.690661  7669 net.cpp:406] res3d <- res3c_res3c_relu_0_split_1
I0117 06:38:31.690666  7669 net.cpp:406] res3d <- res3d_branch2c
I0117 06:38:31.690676  7669 net.cpp:380] res3d -> res3d
I0117 06:38:31.690707  7669 net.cpp:122] Setting up res3d
I0117 06:38:31.690714  7669 net.cpp:129] Top shape: 16 512 28 28 (6422528)
I0117 06:38:31.690718  7669 net.cpp:137] Memory required for data: 2719940864
I0117 06:38:31.690721  7669 layer_factory.hpp:77] Creating layer res3d_relu
I0117 06:38:31.690729  7669 net.cpp:84] Creating Layer res3d_relu
I0117 06:38:31.690735  7669 net.cpp:406] res3d_relu <- res3d
I0117 06:38:31.690740  7669 net.cpp:367] res3d_relu -> res3d (in-place)
I0117 06:38:31.692239  7669 net.cpp:122] Setting up res3d_relu
I0117 06:38:31.692250  7669 net.cpp:129] Top shape: 16 512 28 28 (6422528)
I0117 06:38:31.692253  7669 net.cpp:137] Memory required for data: 2745630976
I0117 06:38:31.692267  7669 layer_factory.hpp:77] Creating layer res3d_res3d_relu_0_split
I0117 06:38:31.692276  7669 net.cpp:84] Creating Layer res3d_res3d_relu_0_split
I0117 06:38:31.692279  7669 net.cpp:406] res3d_res3d_relu_0_split <- res3d
I0117 06:38:31.692294  7669 net.cpp:380] res3d_res3d_relu_0_split -> res3d_res3d_relu_0_split_0
I0117 06:38:31.692301  7669 net.cpp:380] res3d_res3d_relu_0_split -> res3d_res3d_relu_0_split_1
I0117 06:38:31.692378  7669 net.cpp:122] Setting up res3d_res3d_relu_0_split
I0117 06:38:31.692396  7669 net.cpp:129] Top shape: 16 512 28 28 (6422528)
I0117 06:38:31.692401  7669 net.cpp:129] Top shape: 16 512 28 28 (6422528)
I0117 06:38:31.692404  7669 net.cpp:137] Memory required for data: 2797011200
I0117 06:38:31.692407  7669 layer_factory.hpp:77] Creating layer res4a_branch1
I0117 06:38:31.692422  7669 net.cpp:84] Creating Layer res4a_branch1
I0117 06:38:31.692428  7669 net.cpp:406] res4a_branch1 <- res3d_res3d_relu_0_split_0
I0117 06:38:31.692435  7669 net.cpp:380] res4a_branch1 -> res4a_branch1
I0117 06:38:31.699349  7669 net.cpp:122] Setting up res4a_branch1
I0117 06:38:31.699369  7669 net.cpp:129] Top shape: 16 1024 14 14 (3211264)
I0117 06:38:31.699373  7669 net.cpp:137] Memory required for data: 2809856256
I0117 06:38:31.699380  7669 layer_factory.hpp:77] Creating layer bn4a_branch1
I0117 06:38:31.699389  7669 net.cpp:84] Creating Layer bn4a_branch1
I0117 06:38:31.699394  7669 net.cpp:406] bn4a_branch1 <- res4a_branch1
I0117 06:38:31.699400  7669 net.cpp:367] bn4a_branch1 -> res4a_branch1 (in-place)
I0117 06:38:31.699671  7669 net.cpp:122] Setting up bn4a_branch1
I0117 06:38:31.699681  7669 net.cpp:129] Top shape: 16 1024 14 14 (3211264)
I0117 06:38:31.699700  7669 net.cpp:137] Memory required for data: 2822701312
I0117 06:38:31.699709  7669 layer_factory.hpp:77] Creating layer scale4a_branch1
I0117 06:38:31.699731  7669 net.cpp:84] Creating Layer scale4a_branch1
I0117 06:38:31.699738  7669 net.cpp:406] scale4a_branch1 <- res4a_branch1
I0117 06:38:31.699744  7669 net.cpp:367] scale4a_branch1 -> res4a_branch1 (in-place)
I0117 06:38:31.699795  7669 layer_factory.hpp:77] Creating layer scale4a_branch1
I0117 06:38:31.699939  7669 net.cpp:122] Setting up scale4a_branch1
I0117 06:38:31.699949  7669 net.cpp:129] Top shape: 16 1024 14 14 (3211264)
I0117 06:38:31.699951  7669 net.cpp:137] Memory required for data: 2835546368
I0117 06:38:31.699957  7669 layer_factory.hpp:77] Creating layer res4a_branch2a
I0117 06:38:31.699968  7669 net.cpp:84] Creating Layer res4a_branch2a
I0117 06:38:31.699975  7669 net.cpp:406] res4a_branch2a <- res3d_res3d_relu_0_split_1
I0117 06:38:31.699986  7669 net.cpp:380] res4a_branch2a -> res4a_branch2a
I0117 06:38:31.706333  7669 net.cpp:122] Setting up res4a_branch2a
I0117 06:38:31.706373  7669 net.cpp:129] Top shape: 16 256 14 14 (802816)
I0117 06:38:31.706377  7669 net.cpp:137] Memory required for data: 2838757632
I0117 06:38:31.706394  7669 layer_factory.hpp:77] Creating layer bn4a_branch2a
I0117 06:38:31.706404  7669 net.cpp:84] Creating Layer bn4a_branch2a
I0117 06:38:31.706409  7669 net.cpp:406] bn4a_branch2a <- res4a_branch2a
I0117 06:38:31.706418  7669 net.cpp:367] bn4a_branch2a -> res4a_branch2a (in-place)
I0117 06:38:31.706689  7669 net.cpp:122] Setting up bn4a_branch2a
I0117 06:38:31.706699  7669 net.cpp:129] Top shape: 16 256 14 14 (802816)
I0117 06:38:31.706702  7669 net.cpp:137] Memory required for data: 2841968896
I0117 06:38:31.706712  7669 layer_factory.hpp:77] Creating layer scale4a_branch2a
I0117 06:38:31.706723  7669 net.cpp:84] Creating Layer scale4a_branch2a
I0117 06:38:31.706730  7669 net.cpp:406] scale4a_branch2a <- res4a_branch2a
I0117 06:38:31.706737  7669 net.cpp:367] scale4a_branch2a -> res4a_branch2a (in-place)
I0117 06:38:31.706787  7669 layer_factory.hpp:77] Creating layer scale4a_branch2a
I0117 06:38:31.706955  7669 net.cpp:122] Setting up scale4a_branch2a
I0117 06:38:31.706964  7669 net.cpp:129] Top shape: 16 256 14 14 (802816)
I0117 06:38:31.706966  7669 net.cpp:137] Memory required for data: 2845180160
I0117 06:38:31.706974  7669 layer_factory.hpp:77] Creating layer res4a_branch2a_relu
I0117 06:38:31.706981  7669 net.cpp:84] Creating Layer res4a_branch2a_relu
I0117 06:38:31.706987  7669 net.cpp:406] res4a_branch2a_relu <- res4a_branch2a
I0117 06:38:31.706993  7669 net.cpp:367] res4a_branch2a_relu -> res4a_branch2a (in-place)
I0117 06:38:31.708581  7669 net.cpp:122] Setting up res4a_branch2a_relu
I0117 06:38:31.708593  7669 net.cpp:129] Top shape: 16 256 14 14 (802816)
I0117 06:38:31.708596  7669 net.cpp:137] Memory required for data: 2848391424
I0117 06:38:31.708600  7669 layer_factory.hpp:77] Creating layer res4a_branch2b
I0117 06:38:31.708611  7669 net.cpp:84] Creating Layer res4a_branch2b
I0117 06:38:31.708624  7669 net.cpp:406] res4a_branch2b <- res4a_branch2a
I0117 06:38:31.708631  7669 net.cpp:380] res4a_branch2b -> res4a_branch2b
I0117 06:38:31.716460  7669 net.cpp:122] Setting up res4a_branch2b
I0117 06:38:31.716480  7669 net.cpp:129] Top shape: 16 256 14 14 (802816)
I0117 06:38:31.716485  7669 net.cpp:137] Memory required for data: 2851602688
I0117 06:38:31.716491  7669 layer_factory.hpp:77] Creating layer bn4a_branch2b
I0117 06:38:31.716500  7669 net.cpp:84] Creating Layer bn4a_branch2b
I0117 06:38:31.716506  7669 net.cpp:406] bn4a_branch2b <- res4a_branch2b
I0117 06:38:31.716514  7669 net.cpp:367] bn4a_branch2b -> res4a_branch2b (in-place)
I0117 06:38:31.716787  7669 net.cpp:122] Setting up bn4a_branch2b
I0117 06:38:31.716797  7669 net.cpp:129] Top shape: 16 256 14 14 (802816)
I0117 06:38:31.716800  7669 net.cpp:137] Memory required for data: 2854813952
I0117 06:38:31.716809  7669 layer_factory.hpp:77] Creating layer scale4a_branch2b
I0117 06:38:31.716828  7669 net.cpp:84] Creating Layer scale4a_branch2b
I0117 06:38:31.716862  7669 net.cpp:406] scale4a_branch2b <- res4a_branch2b
I0117 06:38:31.716869  7669 net.cpp:367] scale4a_branch2b -> res4a_branch2b (in-place)
I0117 06:38:31.716925  7669 layer_factory.hpp:77] Creating layer scale4a_branch2b
I0117 06:38:31.717077  7669 net.cpp:122] Setting up scale4a_branch2b
I0117 06:38:31.717085  7669 net.cpp:129] Top shape: 16 256 14 14 (802816)
I0117 06:38:31.717089  7669 net.cpp:137] Memory required for data: 2858025216
I0117 06:38:31.717095  7669 layer_factory.hpp:77] Creating layer res4a_branch2b_relu
I0117 06:38:31.717104  7669 net.cpp:84] Creating Layer res4a_branch2b_relu
I0117 06:38:31.717108  7669 net.cpp:406] res4a_branch2b_relu <- res4a_branch2b
I0117 06:38:31.717115  7669 net.cpp:367] res4a_branch2b_relu -> res4a_branch2b (in-place)
I0117 06:38:31.717944  7669 net.cpp:122] Setting up res4a_branch2b_relu
I0117 06:38:31.717955  7669 net.cpp:129] Top shape: 16 256 14 14 (802816)
I0117 06:38:31.717959  7669 net.cpp:137] Memory required for data: 2861236480
I0117 06:38:31.717962  7669 layer_factory.hpp:77] Creating layer res4a_branch2c
I0117 06:38:31.717972  7669 net.cpp:84] Creating Layer res4a_branch2c
I0117 06:38:31.717977  7669 net.cpp:406] res4a_branch2c <- res4a_branch2b
I0117 06:38:31.717983  7669 net.cpp:380] res4a_branch2c -> res4a_branch2c
I0117 06:38:31.725016  7669 net.cpp:122] Setting up res4a_branch2c
I0117 06:38:31.725035  7669 net.cpp:129] Top shape: 16 1024 14 14 (3211264)
I0117 06:38:31.725039  7669 net.cpp:137] Memory required for data: 2874081536
I0117 06:38:31.725045  7669 layer_factory.hpp:77] Creating layer bn4a_branch2c
I0117 06:38:31.725054  7669 net.cpp:84] Creating Layer bn4a_branch2c
I0117 06:38:31.725059  7669 net.cpp:406] bn4a_branch2c <- res4a_branch2c
I0117 06:38:31.725065  7669 net.cpp:367] bn4a_branch2c -> res4a_branch2c (in-place)
I0117 06:38:31.725322  7669 net.cpp:122] Setting up bn4a_branch2c
I0117 06:38:31.725332  7669 net.cpp:129] Top shape: 16 1024 14 14 (3211264)
I0117 06:38:31.725337  7669 net.cpp:137] Memory required for data: 2886926592
I0117 06:38:31.725344  7669 layer_factory.hpp:77] Creating layer scale4a_branch2c
I0117 06:38:31.725364  7669 net.cpp:84] Creating Layer scale4a_branch2c
I0117 06:38:31.725368  7669 net.cpp:406] scale4a_branch2c <- res4a_branch2c
I0117 06:38:31.725375  7669 net.cpp:367] scale4a_branch2c -> res4a_branch2c (in-place)
I0117 06:38:31.725421  7669 layer_factory.hpp:77] Creating layer scale4a_branch2c
I0117 06:38:31.725570  7669 net.cpp:122] Setting up scale4a_branch2c
I0117 06:38:31.725580  7669 net.cpp:129] Top shape: 16 1024 14 14 (3211264)
I0117 06:38:31.725584  7669 net.cpp:137] Memory required for data: 2899771648
I0117 06:38:31.725591  7669 layer_factory.hpp:77] Creating layer res4a
I0117 06:38:31.725597  7669 net.cpp:84] Creating Layer res4a
I0117 06:38:31.725602  7669 net.cpp:406] res4a <- res4a_branch1
I0117 06:38:31.725607  7669 net.cpp:406] res4a <- res4a_branch2c
I0117 06:38:31.725615  7669 net.cpp:380] res4a -> res4a
I0117 06:38:31.725644  7669 net.cpp:122] Setting up res4a
I0117 06:38:31.725664  7669 net.cpp:129] Top shape: 16 1024 14 14 (3211264)
I0117 06:38:31.725667  7669 net.cpp:137] Memory required for data: 2912616704
I0117 06:38:31.725670  7669 layer_factory.hpp:77] Creating layer res4a_relu
I0117 06:38:31.725677  7669 net.cpp:84] Creating Layer res4a_relu
I0117 06:38:31.725680  7669 net.cpp:406] res4a_relu <- res4a
I0117 06:38:31.725685  7669 net.cpp:367] res4a_relu -> res4a (in-place)
I0117 06:38:31.727250  7669 net.cpp:122] Setting up res4a_relu
I0117 06:38:31.727278  7669 net.cpp:129] Top shape: 16 1024 14 14 (3211264)
I0117 06:38:31.727283  7669 net.cpp:137] Memory required for data: 2925461760
I0117 06:38:31.727286  7669 layer_factory.hpp:77] Creating layer res4a_res4a_relu_0_split
I0117 06:38:31.727316  7669 net.cpp:84] Creating Layer res4a_res4a_relu_0_split
I0117 06:38:31.727324  7669 net.cpp:406] res4a_res4a_relu_0_split <- res4a
I0117 06:38:31.727331  7669 net.cpp:380] res4a_res4a_relu_0_split -> res4a_res4a_relu_0_split_0
I0117 06:38:31.727339  7669 net.cpp:380] res4a_res4a_relu_0_split -> res4a_res4a_relu_0_split_1
I0117 06:38:31.727416  7669 net.cpp:122] Setting up res4a_res4a_relu_0_split
I0117 06:38:31.727425  7669 net.cpp:129] Top shape: 16 1024 14 14 (3211264)
I0117 06:38:31.727430  7669 net.cpp:129] Top shape: 16 1024 14 14 (3211264)
I0117 06:38:31.727433  7669 net.cpp:137] Memory required for data: 2951151872
I0117 06:38:31.727437  7669 layer_factory.hpp:77] Creating layer res4b_branch2a
I0117 06:38:31.727447  7669 net.cpp:84] Creating Layer res4b_branch2a
I0117 06:38:31.727453  7669 net.cpp:406] res4b_branch2a <- res4a_res4a_relu_0_split_0
I0117 06:38:31.727461  7669 net.cpp:380] res4b_branch2a -> res4b_branch2a
I0117 06:38:31.735051  7669 net.cpp:122] Setting up res4b_branch2a
I0117 06:38:31.735074  7669 net.cpp:129] Top shape: 16 256 14 14 (802816)
I0117 06:38:31.735080  7669 net.cpp:137] Memory required for data: 2954363136
I0117 06:38:31.735085  7669 layer_factory.hpp:77] Creating layer bn4b_branch2a
I0117 06:38:31.735095  7669 net.cpp:84] Creating Layer bn4b_branch2a
I0117 06:38:31.735100  7669 net.cpp:406] bn4b_branch2a <- res4b_branch2a
I0117 06:38:31.735106  7669 net.cpp:367] bn4b_branch2a -> res4b_branch2a (in-place)
I0117 06:38:31.735365  7669 net.cpp:122] Setting up bn4b_branch2a
I0117 06:38:31.735374  7669 net.cpp:129] Top shape: 16 256 14 14 (802816)
I0117 06:38:31.735378  7669 net.cpp:137] Memory required for data: 2957574400
I0117 06:38:31.735386  7669 layer_factory.hpp:77] Creating layer scale4b_branch2a
I0117 06:38:31.735394  7669 net.cpp:84] Creating Layer scale4b_branch2a
I0117 06:38:31.735397  7669 net.cpp:406] scale4b_branch2a <- res4b_branch2a
I0117 06:38:31.735404  7669 net.cpp:367] scale4b_branch2a -> res4b_branch2a (in-place)
I0117 06:38:31.735458  7669 layer_factory.hpp:77] Creating layer scale4b_branch2a
I0117 06:38:31.735605  7669 net.cpp:122] Setting up scale4b_branch2a
I0117 06:38:31.735615  7669 net.cpp:129] Top shape: 16 256 14 14 (802816)
I0117 06:38:31.735617  7669 net.cpp:137] Memory required for data: 2960785664
I0117 06:38:31.735623  7669 layer_factory.hpp:77] Creating layer res4b_branch2a_relu
I0117 06:38:31.735632  7669 net.cpp:84] Creating Layer res4b_branch2a_relu
I0117 06:38:31.735636  7669 net.cpp:406] res4b_branch2a_relu <- res4b_branch2a
I0117 06:38:31.735643  7669 net.cpp:367] res4b_branch2a_relu -> res4b_branch2a (in-place)
I0117 06:38:31.736513  7669 net.cpp:122] Setting up res4b_branch2a_relu
I0117 06:38:31.736524  7669 net.cpp:129] Top shape: 16 256 14 14 (802816)
I0117 06:38:31.736528  7669 net.cpp:137] Memory required for data: 2963996928
I0117 06:38:31.736538  7669 layer_factory.hpp:77] Creating layer res4b_branch2b
I0117 06:38:31.736546  7669 net.cpp:84] Creating Layer res4b_branch2b
I0117 06:38:31.736551  7669 net.cpp:406] res4b_branch2b <- res4b_branch2a
I0117 06:38:31.736558  7669 net.cpp:380] res4b_branch2b -> res4b_branch2b
I0117 06:38:31.744320  7669 net.cpp:122] Setting up res4b_branch2b
I0117 06:38:31.744339  7669 net.cpp:129] Top shape: 16 256 14 14 (802816)
I0117 06:38:31.744352  7669 net.cpp:137] Memory required for data: 2967208192
I0117 06:38:31.744359  7669 layer_factory.hpp:77] Creating layer bn4b_branch2b
I0117 06:38:31.744376  7669 net.cpp:84] Creating Layer bn4b_branch2b
I0117 06:38:31.744381  7669 net.cpp:406] bn4b_branch2b <- res4b_branch2b
I0117 06:38:31.744387  7669 net.cpp:367] bn4b_branch2b -> res4b_branch2b (in-place)
I0117 06:38:31.744690  7669 net.cpp:122] Setting up bn4b_branch2b
I0117 06:38:31.744710  7669 net.cpp:129] Top shape: 16 256 14 14 (802816)
I0117 06:38:31.744714  7669 net.cpp:137] Memory required for data: 2970419456
I0117 06:38:31.744724  7669 layer_factory.hpp:77] Creating layer scale4b_branch2b
I0117 06:38:31.744732  7669 net.cpp:84] Creating Layer scale4b_branch2b
I0117 06:38:31.744736  7669 net.cpp:406] scale4b_branch2b <- res4b_branch2b
I0117 06:38:31.744742  7669 net.cpp:367] scale4b_branch2b -> res4b_branch2b (in-place)
I0117 06:38:31.744796  7669 layer_factory.hpp:77] Creating layer scale4b_branch2b
I0117 06:38:31.744959  7669 net.cpp:122] Setting up scale4b_branch2b
I0117 06:38:31.744985  7669 net.cpp:129] Top shape: 16 256 14 14 (802816)
I0117 06:38:31.744989  7669 net.cpp:137] Memory required for data: 2973630720
I0117 06:38:31.744997  7669 layer_factory.hpp:77] Creating layer res4b_branch2b_relu
I0117 06:38:31.745002  7669 net.cpp:84] Creating Layer res4b_branch2b_relu
I0117 06:38:31.745007  7669 net.cpp:406] res4b_branch2b_relu <- res4b_branch2b
I0117 06:38:31.745014  7669 net.cpp:367] res4b_branch2b_relu -> res4b_branch2b (in-place)
I0117 06:38:31.745827  7669 net.cpp:122] Setting up res4b_branch2b_relu
I0117 06:38:31.745841  7669 net.cpp:129] Top shape: 16 256 14 14 (802816)
I0117 06:38:31.745844  7669 net.cpp:137] Memory required for data: 2976841984
I0117 06:38:31.745847  7669 layer_factory.hpp:77] Creating layer res4b_branch2c
I0117 06:38:31.745856  7669 net.cpp:84] Creating Layer res4b_branch2c
I0117 06:38:31.745859  7669 net.cpp:406] res4b_branch2c <- res4b_branch2b
I0117 06:38:31.745867  7669 net.cpp:380] res4b_branch2c -> res4b_branch2c
I0117 06:38:31.752907  7669 net.cpp:122] Setting up res4b_branch2c
I0117 06:38:31.752924  7669 net.cpp:129] Top shape: 16 1024 14 14 (3211264)
I0117 06:38:31.752928  7669 net.cpp:137] Memory required for data: 2989687040
I0117 06:38:31.752935  7669 layer_factory.hpp:77] Creating layer bn4b_branch2c
I0117 06:38:31.752944  7669 net.cpp:84] Creating Layer bn4b_branch2c
I0117 06:38:31.752949  7669 net.cpp:406] bn4b_branch2c <- res4b_branch2c
I0117 06:38:31.752955  7669 net.cpp:367] bn4b_branch2c -> res4b_branch2c (in-place)
I0117 06:38:31.753226  7669 net.cpp:122] Setting up bn4b_branch2c
I0117 06:38:31.753237  7669 net.cpp:129] Top shape: 16 1024 14 14 (3211264)
I0117 06:38:31.753240  7669 net.cpp:137] Memory required for data: 3002532096
I0117 06:38:31.753248  7669 layer_factory.hpp:77] Creating layer scale4b_branch2c
I0117 06:38:31.753259  7669 net.cpp:84] Creating Layer scale4b_branch2c
I0117 06:38:31.753265  7669 net.cpp:406] scale4b_branch2c <- res4b_branch2c
I0117 06:38:31.753271  7669 net.cpp:367] scale4b_branch2c -> res4b_branch2c (in-place)
I0117 06:38:31.753319  7669 layer_factory.hpp:77] Creating layer scale4b_branch2c
I0117 06:38:31.753469  7669 net.cpp:122] Setting up scale4b_branch2c
I0117 06:38:31.753479  7669 net.cpp:129] Top shape: 16 1024 14 14 (3211264)
I0117 06:38:31.753482  7669 net.cpp:137] Memory required for data: 3015377152
I0117 06:38:31.753489  7669 layer_factory.hpp:77] Creating layer res4b
I0117 06:38:31.753495  7669 net.cpp:84] Creating Layer res4b
I0117 06:38:31.753499  7669 net.cpp:406] res4b <- res4a_res4a_relu_0_split_1
I0117 06:38:31.753504  7669 net.cpp:406] res4b <- res4b_branch2c
I0117 06:38:31.753512  7669 net.cpp:380] res4b -> res4b
I0117 06:38:31.753543  7669 net.cpp:122] Setting up res4b
I0117 06:38:31.753552  7669 net.cpp:129] Top shape: 16 1024 14 14 (3211264)
I0117 06:38:31.753556  7669 net.cpp:137] Memory required for data: 3028222208
I0117 06:38:31.753558  7669 layer_factory.hpp:77] Creating layer res4b_relu
I0117 06:38:31.753563  7669 net.cpp:84] Creating Layer res4b_relu
I0117 06:38:31.753567  7669 net.cpp:406] res4b_relu <- res4b
I0117 06:38:31.753572  7669 net.cpp:367] res4b_relu -> res4b (in-place)
I0117 06:38:31.755141  7669 net.cpp:122] Setting up res4b_relu
I0117 06:38:31.755152  7669 net.cpp:129] Top shape: 16 1024 14 14 (3211264)
I0117 06:38:31.755156  7669 net.cpp:137] Memory required for data: 3041067264
I0117 06:38:31.755169  7669 layer_factory.hpp:77] Creating layer res4b_res4b_relu_0_split
I0117 06:38:31.755177  7669 net.cpp:84] Creating Layer res4b_res4b_relu_0_split
I0117 06:38:31.755182  7669 net.cpp:406] res4b_res4b_relu_0_split <- res4b
I0117 06:38:31.755192  7669 net.cpp:380] res4b_res4b_relu_0_split -> res4b_res4b_relu_0_split_0
I0117 06:38:31.755211  7669 net.cpp:380] res4b_res4b_relu_0_split -> res4b_res4b_relu_0_split_1
I0117 06:38:31.755277  7669 net.cpp:122] Setting up res4b_res4b_relu_0_split
I0117 06:38:31.755286  7669 net.cpp:129] Top shape: 16 1024 14 14 (3211264)
I0117 06:38:31.755290  7669 net.cpp:129] Top shape: 16 1024 14 14 (3211264)
I0117 06:38:31.755312  7669 net.cpp:137] Memory required for data: 3066757376
I0117 06:38:31.755327  7669 layer_factory.hpp:77] Creating layer res4c_branch2a
I0117 06:38:31.755337  7669 net.cpp:84] Creating Layer res4c_branch2a
I0117 06:38:31.755344  7669 net.cpp:406] res4c_branch2a <- res4b_res4b_relu_0_split_0
I0117 06:38:31.755350  7669 net.cpp:380] res4c_branch2a -> res4c_branch2a
I0117 06:38:31.762213  7669 net.cpp:122] Setting up res4c_branch2a
I0117 06:38:31.762233  7669 net.cpp:129] Top shape: 16 256 14 14 (802816)
I0117 06:38:31.762248  7669 net.cpp:137] Memory required for data: 3069968640
I0117 06:38:31.762254  7669 layer_factory.hpp:77] Creating layer bn4c_branch2a
I0117 06:38:31.762267  7669 net.cpp:84] Creating Layer bn4c_branch2a
I0117 06:38:31.762272  7669 net.cpp:406] bn4c_branch2a <- res4c_branch2a
I0117 06:38:31.762280  7669 net.cpp:367] bn4c_branch2a -> res4c_branch2a (in-place)
I0117 06:38:31.762579  7669 net.cpp:122] Setting up bn4c_branch2a
I0117 06:38:31.762589  7669 net.cpp:129] Top shape: 16 256 14 14 (802816)
I0117 06:38:31.762593  7669 net.cpp:137] Memory required for data: 3073179904
I0117 06:38:31.762601  7669 layer_factory.hpp:77] Creating layer scale4c_branch2a
I0117 06:38:31.762610  7669 net.cpp:84] Creating Layer scale4c_branch2a
I0117 06:38:31.762614  7669 net.cpp:406] scale4c_branch2a <- res4c_branch2a
I0117 06:38:31.762619  7669 net.cpp:367] scale4c_branch2a -> res4c_branch2a (in-place)
I0117 06:38:31.762676  7669 layer_factory.hpp:77] Creating layer scale4c_branch2a
I0117 06:38:31.762825  7669 net.cpp:122] Setting up scale4c_branch2a
I0117 06:38:31.762833  7669 net.cpp:129] Top shape: 16 256 14 14 (802816)
I0117 06:38:31.762837  7669 net.cpp:137] Memory required for data: 3076391168
I0117 06:38:31.762854  7669 layer_factory.hpp:77] Creating layer res4c_branch2a_relu
I0117 06:38:31.762862  7669 net.cpp:84] Creating Layer res4c_branch2a_relu
I0117 06:38:31.762866  7669 net.cpp:406] res4c_branch2a_relu <- res4c_branch2a
I0117 06:38:31.762874  7669 net.cpp:367] res4c_branch2a_relu -> res4c_branch2a (in-place)
I0117 06:38:31.764358  7669 net.cpp:122] Setting up res4c_branch2a_relu
I0117 06:38:31.764369  7669 net.cpp:129] Top shape: 16 256 14 14 (802816)
I0117 06:38:31.764372  7669 net.cpp:137] Memory required for data: 3079602432
I0117 06:38:31.764385  7669 layer_factory.hpp:77] Creating layer res4c_branch2b
I0117 06:38:31.764396  7669 net.cpp:84] Creating Layer res4c_branch2b
I0117 06:38:31.764411  7669 net.cpp:406] res4c_branch2b <- res4c_branch2a
I0117 06:38:31.764418  7669 net.cpp:380] res4c_branch2b -> res4c_branch2b
I0117 06:38:31.776441  7669 net.cpp:122] Setting up res4c_branch2b
I0117 06:38:31.776464  7669 net.cpp:129] Top shape: 16 256 14 14 (802816)
I0117 06:38:31.776479  7669 net.cpp:137] Memory required for data: 3082813696
I0117 06:38:31.776491  7669 layer_factory.hpp:77] Creating layer bn4c_branch2b
I0117 06:38:31.776509  7669 net.cpp:84] Creating Layer bn4c_branch2b
I0117 06:38:31.776525  7669 net.cpp:406] bn4c_branch2b <- res4c_branch2b
I0117 06:38:31.776545  7669 net.cpp:367] bn4c_branch2b -> res4c_branch2b (in-place)
I0117 06:38:31.776866  7669 net.cpp:122] Setting up bn4c_branch2b
I0117 06:38:31.776876  7669 net.cpp:129] Top shape: 16 256 14 14 (802816)
I0117 06:38:31.776880  7669 net.cpp:137] Memory required for data: 3086024960
I0117 06:38:31.776890  7669 layer_factory.hpp:77] Creating layer scale4c_branch2b
I0117 06:38:31.776902  7669 net.cpp:84] Creating Layer scale4c_branch2b
I0117 06:38:31.776908  7669 net.cpp:406] scale4c_branch2b <- res4c_branch2b
I0117 06:38:31.776913  7669 net.cpp:367] scale4c_branch2b -> res4c_branch2b (in-place)
I0117 06:38:31.776998  7669 layer_factory.hpp:77] Creating layer scale4c_branch2b
I0117 06:38:31.777145  7669 net.cpp:122] Setting up scale4c_branch2b
I0117 06:38:31.777153  7669 net.cpp:129] Top shape: 16 256 14 14 (802816)
I0117 06:38:31.777156  7669 net.cpp:137] Memory required for data: 3089236224
I0117 06:38:31.777163  7669 layer_factory.hpp:77] Creating layer res4c_branch2b_relu
I0117 06:38:31.777170  7669 net.cpp:84] Creating Layer res4c_branch2b_relu
I0117 06:38:31.777194  7669 net.cpp:406] res4c_branch2b_relu <- res4c_branch2b
I0117 06:38:31.777201  7669 net.cpp:367] res4c_branch2b_relu -> res4c_branch2b (in-place)
I0117 06:38:31.777487  7669 net.cpp:122] Setting up res4c_branch2b_relu
I0117 06:38:31.777499  7669 net.cpp:129] Top shape: 16 256 14 14 (802816)
I0117 06:38:31.777503  7669 net.cpp:137] Memory required for data: 3092447488
I0117 06:38:31.777506  7669 layer_factory.hpp:77] Creating layer res4c_branch2c
I0117 06:38:31.777518  7669 net.cpp:84] Creating Layer res4c_branch2c
I0117 06:38:31.777525  7669 net.cpp:406] res4c_branch2c <- res4c_branch2b
I0117 06:38:31.777531  7669 net.cpp:380] res4c_branch2c -> res4c_branch2c
I0117 06:38:31.782951  7669 net.cpp:122] Setting up res4c_branch2c
I0117 06:38:31.782969  7669 net.cpp:129] Top shape: 16 1024 14 14 (3211264)
I0117 06:38:31.782984  7669 net.cpp:137] Memory required for data: 3105292544
I0117 06:38:31.782990  7669 layer_factory.hpp:77] Creating layer bn4c_branch2c
I0117 06:38:31.782999  7669 net.cpp:84] Creating Layer bn4c_branch2c
I0117 06:38:31.783004  7669 net.cpp:406] bn4c_branch2c <- res4c_branch2c
I0117 06:38:31.783012  7669 net.cpp:367] bn4c_branch2c -> res4c_branch2c (in-place)
I0117 06:38:31.783335  7669 net.cpp:122] Setting up bn4c_branch2c
I0117 06:38:31.783345  7669 net.cpp:129] Top shape: 16 1024 14 14 (3211264)
I0117 06:38:31.783358  7669 net.cpp:137] Memory required for data: 3118137600
I0117 06:38:31.783366  7669 layer_factory.hpp:77] Creating layer scale4c_branch2c
I0117 06:38:31.783388  7669 net.cpp:84] Creating Layer scale4c_branch2c
I0117 06:38:31.783392  7669 net.cpp:406] scale4c_branch2c <- res4c_branch2c
I0117 06:38:31.783401  7669 net.cpp:367] scale4c_branch2c -> res4c_branch2c (in-place)
I0117 06:38:31.783457  7669 layer_factory.hpp:77] Creating layer scale4c_branch2c
I0117 06:38:31.783615  7669 net.cpp:122] Setting up scale4c_branch2c
I0117 06:38:31.783635  7669 net.cpp:129] Top shape: 16 1024 14 14 (3211264)
I0117 06:38:31.783638  7669 net.cpp:137] Memory required for data: 3130982656
I0117 06:38:31.783645  7669 layer_factory.hpp:77] Creating layer res4c
I0117 06:38:31.783651  7669 net.cpp:84] Creating Layer res4c
I0117 06:38:31.783655  7669 net.cpp:406] res4c <- res4b_res4b_relu_0_split_1
I0117 06:38:31.783660  7669 net.cpp:406] res4c <- res4c_branch2c
I0117 06:38:31.783666  7669 net.cpp:380] res4c -> res4c
I0117 06:38:31.783699  7669 net.cpp:122] Setting up res4c
I0117 06:38:31.783707  7669 net.cpp:129] Top shape: 16 1024 14 14 (3211264)
I0117 06:38:31.783710  7669 net.cpp:137] Memory required for data: 3143827712
I0117 06:38:31.783715  7669 layer_factory.hpp:77] Creating layer res4c_relu
I0117 06:38:31.783720  7669 net.cpp:84] Creating Layer res4c_relu
I0117 06:38:31.783726  7669 net.cpp:406] res4c_relu <- res4c
I0117 06:38:31.783731  7669 net.cpp:367] res4c_relu -> res4c (in-place)
I0117 06:38:31.785115  7669 net.cpp:122] Setting up res4c_relu
I0117 06:38:31.785132  7669 net.cpp:129] Top shape: 16 1024 14 14 (3211264)
I0117 06:38:31.785136  7669 net.cpp:137] Memory required for data: 3156672768
I0117 06:38:31.785140  7669 layer_factory.hpp:77] Creating layer res4c_res4c_relu_0_split
I0117 06:38:31.785147  7669 net.cpp:84] Creating Layer res4c_res4c_relu_0_split
I0117 06:38:31.785151  7669 net.cpp:406] res4c_res4c_relu_0_split <- res4c
I0117 06:38:31.785161  7669 net.cpp:380] res4c_res4c_relu_0_split -> res4c_res4c_relu_0_split_0
I0117 06:38:31.785168  7669 net.cpp:380] res4c_res4c_relu_0_split -> res4c_res4c_relu_0_split_1
I0117 06:38:31.785225  7669 net.cpp:122] Setting up res4c_res4c_relu_0_split
I0117 06:38:31.785238  7669 net.cpp:129] Top shape: 16 1024 14 14 (3211264)
I0117 06:38:31.785243  7669 net.cpp:129] Top shape: 16 1024 14 14 (3211264)
I0117 06:38:31.785246  7669 net.cpp:137] Memory required for data: 3182362880
I0117 06:38:31.785249  7669 layer_factory.hpp:77] Creating layer res4d_branch2a
I0117 06:38:31.785259  7669 net.cpp:84] Creating Layer res4d_branch2a
I0117 06:38:31.785262  7669 net.cpp:406] res4d_branch2a <- res4c_res4c_relu_0_split_0
I0117 06:38:31.785295  7669 net.cpp:380] res4d_branch2a -> res4d_branch2a
I0117 06:38:31.792220  7669 net.cpp:122] Setting up res4d_branch2a
I0117 06:38:31.792240  7669 net.cpp:129] Top shape: 16 256 14 14 (802816)
I0117 06:38:31.792254  7669 net.cpp:137] Memory required for data: 3185574144
I0117 06:38:31.792263  7669 layer_factory.hpp:77] Creating layer bn4d_branch2a
I0117 06:38:31.792273  7669 net.cpp:84] Creating Layer bn4d_branch2a
I0117 06:38:31.792279  7669 net.cpp:406] bn4d_branch2a <- res4d_branch2a
I0117 06:38:31.792284  7669 net.cpp:367] bn4d_branch2a -> res4d_branch2a (in-place)
I0117 06:38:31.792575  7669 net.cpp:122] Setting up bn4d_branch2a
I0117 06:38:31.792584  7669 net.cpp:129] Top shape: 16 256 14 14 (802816)
I0117 06:38:31.792588  7669 net.cpp:137] Memory required for data: 3188785408
I0117 06:38:31.792604  7669 layer_factory.hpp:77] Creating layer scale4d_branch2a
I0117 06:38:31.792613  7669 net.cpp:84] Creating Layer scale4d_branch2a
I0117 06:38:31.792615  7669 net.cpp:406] scale4d_branch2a <- res4d_branch2a
I0117 06:38:31.792626  7669 net.cpp:367] scale4d_branch2a -> res4d_branch2a (in-place)
I0117 06:38:31.792690  7669 layer_factory.hpp:77] Creating layer scale4d_branch2a
I0117 06:38:31.792852  7669 net.cpp:122] Setting up scale4d_branch2a
I0117 06:38:31.792866  7669 net.cpp:129] Top shape: 16 256 14 14 (802816)
I0117 06:38:31.792870  7669 net.cpp:137] Memory required for data: 3191996672
I0117 06:38:31.792876  7669 layer_factory.hpp:77] Creating layer res4d_branch2a_relu
I0117 06:38:31.792882  7669 net.cpp:84] Creating Layer res4d_branch2a_relu
I0117 06:38:31.792886  7669 net.cpp:406] res4d_branch2a_relu <- res4d_branch2a
I0117 06:38:31.792891  7669 net.cpp:367] res4d_branch2a_relu -> res4d_branch2a (in-place)
I0117 06:38:31.794423  7669 net.cpp:122] Setting up res4d_branch2a_relu
I0117 06:38:31.794435  7669 net.cpp:129] Top shape: 16 256 14 14 (802816)
I0117 06:38:31.794440  7669 net.cpp:137] Memory required for data: 3195207936
I0117 06:38:31.794442  7669 layer_factory.hpp:77] Creating layer res4d_branch2b
I0117 06:38:31.794454  7669 net.cpp:84] Creating Layer res4d_branch2b
I0117 06:38:31.794461  7669 net.cpp:406] res4d_branch2b <- res4d_branch2a
I0117 06:38:31.794466  7669 net.cpp:380] res4d_branch2b -> res4d_branch2b
I0117 06:38:31.802184  7669 net.cpp:122] Setting up res4d_branch2b
I0117 06:38:31.802204  7669 net.cpp:129] Top shape: 16 256 14 14 (802816)
I0117 06:38:31.802218  7669 net.cpp:137] Memory required for data: 3198419200
I0117 06:38:31.802224  7669 layer_factory.hpp:77] Creating layer bn4d_branch2b
I0117 06:38:31.802234  7669 net.cpp:84] Creating Layer bn4d_branch2b
I0117 06:38:31.802239  7669 net.cpp:406] bn4d_branch2b <- res4d_branch2b
I0117 06:38:31.802248  7669 net.cpp:367] bn4d_branch2b -> res4d_branch2b (in-place)
I0117 06:38:31.802551  7669 net.cpp:122] Setting up bn4d_branch2b
I0117 06:38:31.802561  7669 net.cpp:129] Top shape: 16 256 14 14 (802816)
I0117 06:38:31.802565  7669 net.cpp:137] Memory required for data: 3201630464
I0117 06:38:31.802573  7669 layer_factory.hpp:77] Creating layer scale4d_branch2b
I0117 06:38:31.802582  7669 net.cpp:84] Creating Layer scale4d_branch2b
I0117 06:38:31.802585  7669 net.cpp:406] scale4d_branch2b <- res4d_branch2b
I0117 06:38:31.802593  7669 net.cpp:367] scale4d_branch2b -> res4d_branch2b (in-place)
I0117 06:38:31.802646  7669 layer_factory.hpp:77] Creating layer scale4d_branch2b
I0117 06:38:31.802803  7669 net.cpp:122] Setting up scale4d_branch2b
I0117 06:38:31.802822  7669 net.cpp:129] Top shape: 16 256 14 14 (802816)
I0117 06:38:31.802825  7669 net.cpp:137] Memory required for data: 3204841728
I0117 06:38:31.802831  7669 layer_factory.hpp:77] Creating layer res4d_branch2b_relu
I0117 06:38:31.802837  7669 net.cpp:84] Creating Layer res4d_branch2b_relu
I0117 06:38:31.802841  7669 net.cpp:406] res4d_branch2b_relu <- res4d_branch2b
I0117 06:38:31.802846  7669 net.cpp:367] res4d_branch2b_relu -> res4d_branch2b (in-place)
I0117 06:38:31.803731  7669 net.cpp:122] Setting up res4d_branch2b_relu
I0117 06:38:31.803755  7669 net.cpp:129] Top shape: 16 256 14 14 (802816)
I0117 06:38:31.803781  7669 net.cpp:137] Memory required for data: 3208052992
I0117 06:38:31.803786  7669 layer_factory.hpp:77] Creating layer res4d_branch2c
I0117 06:38:31.803802  7669 net.cpp:84] Creating Layer res4d_branch2c
I0117 06:38:31.803807  7669 net.cpp:406] res4d_branch2c <- res4d_branch2b
I0117 06:38:31.803813  7669 net.cpp:380] res4d_branch2c -> res4d_branch2c
I0117 06:38:31.810806  7669 net.cpp:122] Setting up res4d_branch2c
I0117 06:38:31.810835  7669 net.cpp:129] Top shape: 16 1024 14 14 (3211264)
I0117 06:38:31.810839  7669 net.cpp:137] Memory required for data: 3220898048
I0117 06:38:31.810845  7669 layer_factory.hpp:77] Creating layer bn4d_branch2c
I0117 06:38:31.810866  7669 net.cpp:84] Creating Layer bn4d_branch2c
I0117 06:38:31.810871  7669 net.cpp:406] bn4d_branch2c <- res4d_branch2c
I0117 06:38:31.810887  7669 net.cpp:367] bn4d_branch2c -> res4d_branch2c (in-place)
I0117 06:38:31.811210  7669 net.cpp:122] Setting up bn4d_branch2c
I0117 06:38:31.811219  7669 net.cpp:129] Top shape: 16 1024 14 14 (3211264)
I0117 06:38:31.811223  7669 net.cpp:137] Memory required for data: 3233743104
I0117 06:38:31.811240  7669 layer_factory.hpp:77] Creating layer scale4d_branch2c
I0117 06:38:31.811247  7669 net.cpp:84] Creating Layer scale4d_branch2c
I0117 06:38:31.811250  7669 net.cpp:406] scale4d_branch2c <- res4d_branch2c
I0117 06:38:31.811262  7669 net.cpp:367] scale4d_branch2c -> res4d_branch2c (in-place)
I0117 06:38:31.811326  7669 layer_factory.hpp:77] Creating layer scale4d_branch2c
I0117 06:38:31.811483  7669 net.cpp:122] Setting up scale4d_branch2c
I0117 06:38:31.811492  7669 net.cpp:129] Top shape: 16 1024 14 14 (3211264)
I0117 06:38:31.811496  7669 net.cpp:137] Memory required for data: 3246588160
I0117 06:38:31.811502  7669 layer_factory.hpp:77] Creating layer res4d
I0117 06:38:31.811507  7669 net.cpp:84] Creating Layer res4d
I0117 06:38:31.811516  7669 net.cpp:406] res4d <- res4c_res4c_relu_0_split_1
I0117 06:38:31.811520  7669 net.cpp:406] res4d <- res4d_branch2c
I0117 06:38:31.811527  7669 net.cpp:380] res4d -> res4d
I0117 06:38:31.811583  7669 net.cpp:122] Setting up res4d
I0117 06:38:31.811591  7669 net.cpp:129] Top shape: 16 1024 14 14 (3211264)
I0117 06:38:31.811595  7669 net.cpp:137] Memory required for data: 3259433216
I0117 06:38:31.811599  7669 layer_factory.hpp:77] Creating layer res4d_relu
I0117 06:38:31.811606  7669 net.cpp:84] Creating Layer res4d_relu
I0117 06:38:31.811610  7669 net.cpp:406] res4d_relu <- res4d
I0117 06:38:31.811614  7669 net.cpp:367] res4d_relu -> res4d (in-place)
I0117 06:38:31.812997  7669 net.cpp:122] Setting up res4d_relu
I0117 06:38:31.813010  7669 net.cpp:129] Top shape: 16 1024 14 14 (3211264)
I0117 06:38:31.813014  7669 net.cpp:137] Memory required for data: 3272278272
I0117 06:38:31.813017  7669 layer_factory.hpp:77] Creating layer res4d_res4d_relu_0_split
I0117 06:38:31.813024  7669 net.cpp:84] Creating Layer res4d_res4d_relu_0_split
I0117 06:38:31.813027  7669 net.cpp:406] res4d_res4d_relu_0_split <- res4d
I0117 06:38:31.813033  7669 net.cpp:380] res4d_res4d_relu_0_split -> res4d_res4d_relu_0_split_0
I0117 06:38:31.813040  7669 net.cpp:380] res4d_res4d_relu_0_split -> res4d_res4d_relu_0_split_1
I0117 06:38:31.813096  7669 net.cpp:122] Setting up res4d_res4d_relu_0_split
I0117 06:38:31.813103  7669 net.cpp:129] Top shape: 16 1024 14 14 (3211264)
I0117 06:38:31.813107  7669 net.cpp:129] Top shape: 16 1024 14 14 (3211264)
I0117 06:38:31.813110  7669 net.cpp:137] Memory required for data: 3297968384
I0117 06:38:31.813115  7669 layer_factory.hpp:77] Creating layer res4e_branch2a
I0117 06:38:31.813125  7669 net.cpp:84] Creating Layer res4e_branch2a
I0117 06:38:31.813133  7669 net.cpp:406] res4e_branch2a <- res4d_res4d_relu_0_split_0
I0117 06:38:31.813140  7669 net.cpp:380] res4e_branch2a -> res4e_branch2a
I0117 06:38:31.820109  7669 net.cpp:122] Setting up res4e_branch2a
I0117 06:38:31.820139  7669 net.cpp:129] Top shape: 16 256 14 14 (802816)
I0117 06:38:31.820153  7669 net.cpp:137] Memory required for data: 3301179648
I0117 06:38:31.820160  7669 layer_factory.hpp:77] Creating layer bn4e_branch2a
I0117 06:38:31.820197  7669 net.cpp:84] Creating Layer bn4e_branch2a
I0117 06:38:31.820202  7669 net.cpp:406] bn4e_branch2a <- res4e_branch2a
I0117 06:38:31.820215  7669 net.cpp:367] bn4e_branch2a -> res4e_branch2a (in-place)
I0117 06:38:31.820492  7669 net.cpp:122] Setting up bn4e_branch2a
I0117 06:38:31.820502  7669 net.cpp:129] Top shape: 16 256 14 14 (802816)
I0117 06:38:31.820504  7669 net.cpp:137] Memory required for data: 3304390912
I0117 06:38:31.820513  7669 layer_factory.hpp:77] Creating layer scale4e_branch2a
I0117 06:38:31.820523  7669 net.cpp:84] Creating Layer scale4e_branch2a
I0117 06:38:31.820526  7669 net.cpp:406] scale4e_branch2a <- res4e_branch2a
I0117 06:38:31.820531  7669 net.cpp:367] scale4e_branch2a -> res4e_branch2a (in-place)
I0117 06:38:31.820590  7669 layer_factory.hpp:77] Creating layer scale4e_branch2a
I0117 06:38:31.820739  7669 net.cpp:122] Setting up scale4e_branch2a
I0117 06:38:31.820749  7669 net.cpp:129] Top shape: 16 256 14 14 (802816)
I0117 06:38:31.820751  7669 net.cpp:137] Memory required for data: 3307602176
I0117 06:38:31.820757  7669 layer_factory.hpp:77] Creating layer res4e_branch2a_relu
I0117 06:38:31.820766  7669 net.cpp:84] Creating Layer res4e_branch2a_relu
I0117 06:38:31.820770  7669 net.cpp:406] res4e_branch2a_relu <- res4e_branch2a
I0117 06:38:31.820778  7669 net.cpp:367] res4e_branch2a_relu -> res4e_branch2a (in-place)
I0117 06:38:31.822307  7669 net.cpp:122] Setting up res4e_branch2a_relu
I0117 06:38:31.822319  7669 net.cpp:129] Top shape: 16 256 14 14 (802816)
I0117 06:38:31.822336  7669 net.cpp:137] Memory required for data: 3310813440
I0117 06:38:31.822340  7669 layer_factory.hpp:77] Creating layer res4e_branch2b
I0117 06:38:31.822362  7669 net.cpp:84] Creating Layer res4e_branch2b
I0117 06:38:31.822366  7669 net.cpp:406] res4e_branch2b <- res4e_branch2a
I0117 06:38:31.822372  7669 net.cpp:380] res4e_branch2b -> res4e_branch2b
I0117 06:38:31.830063  7669 net.cpp:122] Setting up res4e_branch2b
I0117 06:38:31.830083  7669 net.cpp:129] Top shape: 16 256 14 14 (802816)
I0117 06:38:31.830087  7669 net.cpp:137] Memory required for data: 3314024704
I0117 06:38:31.830093  7669 layer_factory.hpp:77] Creating layer bn4e_branch2b
I0117 06:38:31.830103  7669 net.cpp:84] Creating Layer bn4e_branch2b
I0117 06:38:31.830108  7669 net.cpp:406] bn4e_branch2b <- res4e_branch2b
I0117 06:38:31.830116  7669 net.cpp:367] bn4e_branch2b -> res4e_branch2b (in-place)
I0117 06:38:31.830400  7669 net.cpp:122] Setting up bn4e_branch2b
I0117 06:38:31.830410  7669 net.cpp:129] Top shape: 16 256 14 14 (802816)
I0117 06:38:31.830413  7669 net.cpp:137] Memory required for data: 3317235968
I0117 06:38:31.830422  7669 layer_factory.hpp:77] Creating layer scale4e_branch2b
I0117 06:38:31.830431  7669 net.cpp:84] Creating Layer scale4e_branch2b
I0117 06:38:31.830435  7669 net.cpp:406] scale4e_branch2b <- res4e_branch2b
I0117 06:38:31.830440  7669 net.cpp:367] scale4e_branch2b -> res4e_branch2b (in-place)
I0117 06:38:31.830495  7669 layer_factory.hpp:77] Creating layer scale4e_branch2b
I0117 06:38:31.830648  7669 net.cpp:122] Setting up scale4e_branch2b
I0117 06:38:31.830657  7669 net.cpp:129] Top shape: 16 256 14 14 (802816)
I0117 06:38:31.830660  7669 net.cpp:137] Memory required for data: 3320447232
I0117 06:38:31.830667  7669 layer_factory.hpp:77] Creating layer res4e_branch2b_relu
I0117 06:38:31.830674  7669 net.cpp:84] Creating Layer res4e_branch2b_relu
I0117 06:38:31.830679  7669 net.cpp:406] res4e_branch2b_relu <- res4e_branch2b
I0117 06:38:31.830687  7669 net.cpp:367] res4e_branch2b_relu -> res4e_branch2b (in-place)
I0117 06:38:31.831606  7669 net.cpp:122] Setting up res4e_branch2b_relu
I0117 06:38:31.831619  7669 net.cpp:129] Top shape: 16 256 14 14 (802816)
I0117 06:38:31.831621  7669 net.cpp:137] Memory required for data: 3323658496
I0117 06:38:31.831625  7669 layer_factory.hpp:77] Creating layer res4e_branch2c
I0117 06:38:31.831635  7669 net.cpp:84] Creating Layer res4e_branch2c
I0117 06:38:31.831640  7669 net.cpp:406] res4e_branch2c <- res4e_branch2b
I0117 06:38:31.831665  7669 net.cpp:380] res4e_branch2c -> res4e_branch2c
I0117 06:38:31.838747  7669 net.cpp:122] Setting up res4e_branch2c
I0117 06:38:31.838766  7669 net.cpp:129] Top shape: 16 1024 14 14 (3211264)
I0117 06:38:31.838776  7669 net.cpp:137] Memory required for data: 3336503552
I0117 06:38:31.838785  7669 layer_factory.hpp:77] Creating layer bn4e_branch2c
I0117 06:38:31.838804  7669 net.cpp:84] Creating Layer bn4e_branch2c
I0117 06:38:31.838807  7669 net.cpp:406] bn4e_branch2c <- res4e_branch2c
I0117 06:38:31.838815  7669 net.cpp:367] bn4e_branch2c -> res4e_branch2c (in-place)
I0117 06:38:31.839121  7669 net.cpp:122] Setting up bn4e_branch2c
I0117 06:38:31.839131  7669 net.cpp:129] Top shape: 16 1024 14 14 (3211264)
I0117 06:38:31.839135  7669 net.cpp:137] Memory required for data: 3349348608
I0117 06:38:31.839143  7669 layer_factory.hpp:77] Creating layer scale4e_branch2c
I0117 06:38:31.839154  7669 net.cpp:84] Creating Layer scale4e_branch2c
I0117 06:38:31.839159  7669 net.cpp:406] scale4e_branch2c <- res4e_branch2c
I0117 06:38:31.839165  7669 net.cpp:367] scale4e_branch2c -> res4e_branch2c (in-place)
I0117 06:38:31.839216  7669 layer_factory.hpp:77] Creating layer scale4e_branch2c
I0117 06:38:31.839382  7669 net.cpp:122] Setting up scale4e_branch2c
I0117 06:38:31.839395  7669 net.cpp:129] Top shape: 16 1024 14 14 (3211264)
I0117 06:38:31.839398  7669 net.cpp:137] Memory required for data: 3362193664
I0117 06:38:31.839406  7669 layer_factory.hpp:77] Creating layer res4e
I0117 06:38:31.839411  7669 net.cpp:84] Creating Layer res4e
I0117 06:38:31.839416  7669 net.cpp:406] res4e <- res4d_res4d_relu_0_split_1
I0117 06:38:31.839421  7669 net.cpp:406] res4e <- res4e_branch2c
I0117 06:38:31.839426  7669 net.cpp:380] res4e -> res4e
I0117 06:38:31.839462  7669 net.cpp:122] Setting up res4e
I0117 06:38:31.839468  7669 net.cpp:129] Top shape: 16 1024 14 14 (3211264)
I0117 06:38:31.839471  7669 net.cpp:137] Memory required for data: 3375038720
I0117 06:38:31.839474  7669 layer_factory.hpp:77] Creating layer res4e_relu
I0117 06:38:31.839483  7669 net.cpp:84] Creating Layer res4e_relu
I0117 06:38:31.839486  7669 net.cpp:406] res4e_relu <- res4e
I0117 06:38:31.839491  7669 net.cpp:367] res4e_relu -> res4e (in-place)
I0117 06:38:31.840934  7669 net.cpp:122] Setting up res4e_relu
I0117 06:38:31.840951  7669 net.cpp:129] Top shape: 16 1024 14 14 (3211264)
I0117 06:38:31.840955  7669 net.cpp:137] Memory required for data: 3387883776
I0117 06:38:31.840960  7669 layer_factory.hpp:77] Creating layer res4e_res4e_relu_0_split
I0117 06:38:31.840968  7669 net.cpp:84] Creating Layer res4e_res4e_relu_0_split
I0117 06:38:31.840973  7669 net.cpp:406] res4e_res4e_relu_0_split <- res4e
I0117 06:38:31.840981  7669 net.cpp:380] res4e_res4e_relu_0_split -> res4e_res4e_relu_0_split_0
I0117 06:38:31.840992  7669 net.cpp:380] res4e_res4e_relu_0_split -> res4e_res4e_relu_0_split_1
I0117 06:38:31.841050  7669 net.cpp:122] Setting up res4e_res4e_relu_0_split
I0117 06:38:31.841061  7669 net.cpp:129] Top shape: 16 1024 14 14 (3211264)
I0117 06:38:31.841065  7669 net.cpp:129] Top shape: 16 1024 14 14 (3211264)
I0117 06:38:31.841068  7669 net.cpp:137] Memory required for data: 3413573888
I0117 06:38:31.841073  7669 layer_factory.hpp:77] Creating layer res4f_branch2a
I0117 06:38:31.841081  7669 net.cpp:84] Creating Layer res4f_branch2a
I0117 06:38:31.841087  7669 net.cpp:406] res4f_branch2a <- res4e_res4e_relu_0_split_0
I0117 06:38:31.841095  7669 net.cpp:380] res4f_branch2a -> res4f_branch2a
I0117 06:38:31.848075  7669 net.cpp:122] Setting up res4f_branch2a
I0117 06:38:31.848095  7669 net.cpp:129] Top shape: 16 256 14 14 (802816)
I0117 06:38:31.848109  7669 net.cpp:137] Memory required for data: 3416785152
I0117 06:38:31.848116  7669 layer_factory.hpp:77] Creating layer bn4f_branch2a
I0117 06:38:31.848129  7669 net.cpp:84] Creating Layer bn4f_branch2a
I0117 06:38:31.848134  7669 net.cpp:406] bn4f_branch2a <- res4f_branch2a
I0117 06:38:31.848140  7669 net.cpp:367] bn4f_branch2a -> res4f_branch2a (in-place)
I0117 06:38:31.848429  7669 net.cpp:122] Setting up bn4f_branch2a
I0117 06:38:31.848465  7669 net.cpp:129] Top shape: 16 256 14 14 (802816)
I0117 06:38:31.848469  7669 net.cpp:137] Memory required for data: 3419996416
I0117 06:38:31.848477  7669 layer_factory.hpp:77] Creating layer scale4f_branch2a
I0117 06:38:31.848490  7669 net.cpp:84] Creating Layer scale4f_branch2a
I0117 06:38:31.848495  7669 net.cpp:406] scale4f_branch2a <- res4f_branch2a
I0117 06:38:31.848511  7669 net.cpp:367] scale4f_branch2a -> res4f_branch2a (in-place)
I0117 06:38:31.848577  7669 layer_factory.hpp:77] Creating layer scale4f_branch2a
I0117 06:38:31.848739  7669 net.cpp:122] Setting up scale4f_branch2a
I0117 06:38:31.848748  7669 net.cpp:129] Top shape: 16 256 14 14 (802816)
I0117 06:38:31.848752  7669 net.cpp:137] Memory required for data: 3423207680
I0117 06:38:31.848757  7669 layer_factory.hpp:77] Creating layer res4f_branch2a_relu
I0117 06:38:31.848763  7669 net.cpp:84] Creating Layer res4f_branch2a_relu
I0117 06:38:31.848767  7669 net.cpp:406] res4f_branch2a_relu <- res4f_branch2a
I0117 06:38:31.848773  7669 net.cpp:367] res4f_branch2a_relu -> res4f_branch2a (in-place)
I0117 06:38:31.850289  7669 net.cpp:122] Setting up res4f_branch2a_relu
I0117 06:38:31.850301  7669 net.cpp:129] Top shape: 16 256 14 14 (802816)
I0117 06:38:31.850304  7669 net.cpp:137] Memory required for data: 3426418944
I0117 06:38:31.850309  7669 layer_factory.hpp:77] Creating layer res4f_branch2b
I0117 06:38:31.850320  7669 net.cpp:84] Creating Layer res4f_branch2b
I0117 06:38:31.850334  7669 net.cpp:406] res4f_branch2b <- res4f_branch2a
I0117 06:38:31.850342  7669 net.cpp:380] res4f_branch2b -> res4f_branch2b
I0117 06:38:31.858057  7669 net.cpp:122] Setting up res4f_branch2b
I0117 06:38:31.858078  7669 net.cpp:129] Top shape: 16 256 14 14 (802816)
I0117 06:38:31.858086  7669 net.cpp:137] Memory required for data: 3429630208
I0117 06:38:31.858093  7669 layer_factory.hpp:77] Creating layer bn4f_branch2b
I0117 06:38:31.858106  7669 net.cpp:84] Creating Layer bn4f_branch2b
I0117 06:38:31.858111  7669 net.cpp:406] bn4f_branch2b <- res4f_branch2b
I0117 06:38:31.858127  7669 net.cpp:367] bn4f_branch2b -> res4f_branch2b (in-place)
I0117 06:38:31.858453  7669 net.cpp:122] Setting up bn4f_branch2b
I0117 06:38:31.858464  7669 net.cpp:129] Top shape: 16 256 14 14 (802816)
I0117 06:38:31.858466  7669 net.cpp:137] Memory required for data: 3432841472
I0117 06:38:31.858475  7669 layer_factory.hpp:77] Creating layer scale4f_branch2b
I0117 06:38:31.858482  7669 net.cpp:84] Creating Layer scale4f_branch2b
I0117 06:38:31.858486  7669 net.cpp:406] scale4f_branch2b <- res4f_branch2b
I0117 06:38:31.858494  7669 net.cpp:367] scale4f_branch2b -> res4f_branch2b (in-place)
I0117 06:38:31.858549  7669 layer_factory.hpp:77] Creating layer scale4f_branch2b
I0117 06:38:31.858721  7669 net.cpp:122] Setting up scale4f_branch2b
I0117 06:38:31.858729  7669 net.cpp:129] Top shape: 16 256 14 14 (802816)
I0117 06:38:31.858739  7669 net.cpp:137] Memory required for data: 3436052736
I0117 06:38:31.858745  7669 layer_factory.hpp:77] Creating layer res4f_branch2b_relu
I0117 06:38:31.858760  7669 net.cpp:84] Creating Layer res4f_branch2b_relu
I0117 06:38:31.858764  7669 net.cpp:406] res4f_branch2b_relu <- res4f_branch2b
I0117 06:38:31.858769  7669 net.cpp:367] res4f_branch2b_relu -> res4f_branch2b (in-place)
I0117 06:38:31.859568  7669 net.cpp:122] Setting up res4f_branch2b_relu
I0117 06:38:31.859580  7669 net.cpp:129] Top shape: 16 256 14 14 (802816)
I0117 06:38:31.859583  7669 net.cpp:137] Memory required for data: 3439264000
I0117 06:38:31.859588  7669 layer_factory.hpp:77] Creating layer res4f_branch2c
I0117 06:38:31.859601  7669 net.cpp:84] Creating Layer res4f_branch2c
I0117 06:38:31.859606  7669 net.cpp:406] res4f_branch2c <- res4f_branch2b
I0117 06:38:31.859611  7669 net.cpp:380] res4f_branch2c -> res4f_branch2c
I0117 06:38:31.866616  7669 net.cpp:122] Setting up res4f_branch2c
I0117 06:38:31.866633  7669 net.cpp:129] Top shape: 16 1024 14 14 (3211264)
I0117 06:38:31.866637  7669 net.cpp:137] Memory required for data: 3452109056
I0117 06:38:31.866660  7669 layer_factory.hpp:77] Creating layer bn4f_branch2c
I0117 06:38:31.866672  7669 net.cpp:84] Creating Layer bn4f_branch2c
I0117 06:38:31.866675  7669 net.cpp:406] bn4f_branch2c <- res4f_branch2c
I0117 06:38:31.866688  7669 net.cpp:367] bn4f_branch2c -> res4f_branch2c (in-place)
I0117 06:38:31.867012  7669 net.cpp:122] Setting up bn4f_branch2c
I0117 06:38:31.867022  7669 net.cpp:129] Top shape: 16 1024 14 14 (3211264)
I0117 06:38:31.867024  7669 net.cpp:137] Memory required for data: 3464954112
I0117 06:38:31.867195  7669 layer_factory.hpp:77] Creating layer scale4f_branch2c
I0117 06:38:31.867207  7669 net.cpp:84] Creating Layer scale4f_branch2c
I0117 06:38:31.867210  7669 net.cpp:406] scale4f_branch2c <- res4f_branch2c
I0117 06:38:31.867216  7669 net.cpp:367] scale4f_branch2c -> res4f_branch2c (in-place)
I0117 06:38:31.867272  7669 layer_factory.hpp:77] Creating layer scale4f_branch2c
I0117 06:38:31.867432  7669 net.cpp:122] Setting up scale4f_branch2c
I0117 06:38:31.867441  7669 net.cpp:129] Top shape: 16 1024 14 14 (3211264)
I0117 06:38:31.867444  7669 net.cpp:137] Memory required for data: 3477799168
I0117 06:38:31.867451  7669 layer_factory.hpp:77] Creating layer res4f
I0117 06:38:31.867457  7669 net.cpp:84] Creating Layer res4f
I0117 06:38:31.867461  7669 net.cpp:406] res4f <- res4e_res4e_relu_0_split_1
I0117 06:38:31.867467  7669 net.cpp:406] res4f <- res4f_branch2c
I0117 06:38:31.867475  7669 net.cpp:380] res4f -> res4f
I0117 06:38:31.867512  7669 net.cpp:122] Setting up res4f
I0117 06:38:31.867522  7669 net.cpp:129] Top shape: 16 1024 14 14 (3211264)
I0117 06:38:31.867524  7669 net.cpp:137] Memory required for data: 3490644224
I0117 06:38:31.867527  7669 layer_factory.hpp:77] Creating layer res4f_relu
I0117 06:38:31.867535  7669 net.cpp:84] Creating Layer res4f_relu
I0117 06:38:31.867539  7669 net.cpp:406] res4f_relu <- res4f
I0117 06:38:31.867544  7669 net.cpp:367] res4f_relu -> res4f (in-place)
I0117 06:38:31.868831  7669 net.cpp:122] Setting up res4f_relu
I0117 06:38:31.868842  7669 net.cpp:129] Top shape: 16 1024 14 14 (3211264)
I0117 06:38:31.868845  7669 net.cpp:137] Memory required for data: 3503489280
I0117 06:38:31.868858  7669 layer_factory.hpp:77] Creating layer res4f_res4f_relu_0_split
I0117 06:38:31.868866  7669 net.cpp:84] Creating Layer res4f_res4f_relu_0_split
I0117 06:38:31.868870  7669 net.cpp:406] res4f_res4f_relu_0_split <- res4f
I0117 06:38:31.868875  7669 net.cpp:380] res4f_res4f_relu_0_split -> res4f_res4f_relu_0_split_0
I0117 06:38:31.868887  7669 net.cpp:380] res4f_res4f_relu_0_split -> res4f_res4f_relu_0_split_1
I0117 06:38:31.868954  7669 net.cpp:122] Setting up res4f_res4f_relu_0_split
I0117 06:38:31.868963  7669 net.cpp:129] Top shape: 16 1024 14 14 (3211264)
I0117 06:38:31.868968  7669 net.cpp:129] Top shape: 16 1024 14 14 (3211264)
I0117 06:38:31.868973  7669 net.cpp:137] Memory required for data: 3529179392
I0117 06:38:31.868975  7669 layer_factory.hpp:77] Creating layer res5a_branch1
I0117 06:38:31.868984  7669 net.cpp:84] Creating Layer res5a_branch1
I0117 06:38:31.868989  7669 net.cpp:406] res5a_branch1 <- res4f_res4f_relu_0_split_0
I0117 06:38:31.868995  7669 net.cpp:380] res5a_branch1 -> res5a_branch1
I0117 06:38:31.880090  7669 net.cpp:122] Setting up res5a_branch1
I0117 06:38:31.880120  7669 net.cpp:129] Top shape: 16 2048 7 7 (1605632)
I0117 06:38:31.880126  7669 net.cpp:137] Memory required for data: 3535601920
I0117 06:38:31.880139  7669 layer_factory.hpp:77] Creating layer bn5a_branch1
I0117 06:38:31.880146  7669 net.cpp:84] Creating Layer bn5a_branch1
I0117 06:38:31.880151  7669 net.cpp:406] bn5a_branch1 <- res5a_branch1
I0117 06:38:31.880157  7669 net.cpp:367] bn5a_branch1 -> res5a_branch1 (in-place)
I0117 06:38:31.880537  7669 net.cpp:122] Setting up bn5a_branch1
I0117 06:38:31.880548  7669 net.cpp:129] Top shape: 16 2048 7 7 (1605632)
I0117 06:38:31.880551  7669 net.cpp:137] Memory required for data: 3542024448
I0117 06:38:31.880559  7669 layer_factory.hpp:77] Creating layer scale5a_branch1
I0117 06:38:31.880569  7669 net.cpp:84] Creating Layer scale5a_branch1
I0117 06:38:31.880590  7669 net.cpp:406] scale5a_branch1 <- res5a_branch1
I0117 06:38:31.880597  7669 net.cpp:367] scale5a_branch1 -> res5a_branch1 (in-place)
I0117 06:38:31.880669  7669 layer_factory.hpp:77] Creating layer scale5a_branch1
I0117 06:38:31.880844  7669 net.cpp:122] Setting up scale5a_branch1
I0117 06:38:31.880853  7669 net.cpp:129] Top shape: 16 2048 7 7 (1605632)
I0117 06:38:31.880857  7669 net.cpp:137] Memory required for data: 3548446976
I0117 06:38:31.880864  7669 layer_factory.hpp:77] Creating layer res5a_branch2a
I0117 06:38:31.880878  7669 net.cpp:84] Creating Layer res5a_branch2a
I0117 06:38:31.880885  7669 net.cpp:406] res5a_branch2a <- res4f_res4f_relu_0_split_1
I0117 06:38:31.880894  7669 net.cpp:380] res5a_branch2a -> res5a_branch2a
I0117 06:38:31.884729  7669 net.cpp:122] Setting up res5a_branch2a
I0117 06:38:31.884748  7669 net.cpp:129] Top shape: 16 512 7 7 (401408)
I0117 06:38:31.884752  7669 net.cpp:137] Memory required for data: 3550052608
I0117 06:38:31.884760  7669 layer_factory.hpp:77] Creating layer bn5a_branch2a
I0117 06:38:31.884771  7669 net.cpp:84] Creating Layer bn5a_branch2a
I0117 06:38:31.884776  7669 net.cpp:406] bn5a_branch2a <- res5a_branch2a
I0117 06:38:31.884783  7669 net.cpp:367] bn5a_branch2a -> res5a_branch2a (in-place)
I0117 06:38:31.885088  7669 net.cpp:122] Setting up bn5a_branch2a
I0117 06:38:31.885107  7669 net.cpp:129] Top shape: 16 512 7 7 (401408)
I0117 06:38:31.885112  7669 net.cpp:137] Memory required for data: 3551658240
I0117 06:38:31.885133  7669 layer_factory.hpp:77] Creating layer scale5a_branch2a
I0117 06:38:31.885138  7669 net.cpp:84] Creating Layer scale5a_branch2a
I0117 06:38:31.885149  7669 net.cpp:406] scale5a_branch2a <- res5a_branch2a
I0117 06:38:31.885154  7669 net.cpp:367] scale5a_branch2a -> res5a_branch2a (in-place)
I0117 06:38:31.885242  7669 layer_factory.hpp:77] Creating layer scale5a_branch2a
I0117 06:38:31.885403  7669 net.cpp:122] Setting up scale5a_branch2a
I0117 06:38:31.885412  7669 net.cpp:129] Top shape: 16 512 7 7 (401408)
I0117 06:38:31.885416  7669 net.cpp:137] Memory required for data: 3553263872
I0117 06:38:31.885422  7669 layer_factory.hpp:77] Creating layer res5a_branch2a_relu
I0117 06:38:31.885429  7669 net.cpp:84] Creating Layer res5a_branch2a_relu
I0117 06:38:31.885433  7669 net.cpp:406] res5a_branch2a_relu <- res5a_branch2a
I0117 06:38:31.885439  7669 net.cpp:367] res5a_branch2a_relu -> res5a_branch2a (in-place)
I0117 06:38:31.886441  7669 net.cpp:122] Setting up res5a_branch2a_relu
I0117 06:38:31.886458  7669 net.cpp:129] Top shape: 16 512 7 7 (401408)
I0117 06:38:31.886462  7669 net.cpp:137] Memory required for data: 3554869504
I0117 06:38:31.886466  7669 layer_factory.hpp:77] Creating layer res5a_branch2b
I0117 06:38:31.886477  7669 net.cpp:84] Creating Layer res5a_branch2b
I0117 06:38:31.886482  7669 net.cpp:406] res5a_branch2b <- res5a_branch2a
I0117 06:38:31.886489  7669 net.cpp:380] res5a_branch2b -> res5a_branch2b
I0117 06:38:31.898272  7669 net.cpp:122] Setting up res5a_branch2b
I0117 06:38:31.898294  7669 net.cpp:129] Top shape: 16 512 7 7 (401408)
I0117 06:38:31.898298  7669 net.cpp:137] Memory required for data: 3556475136
I0117 06:38:31.898308  7669 layer_factory.hpp:77] Creating layer bn5a_branch2b
I0117 06:38:31.898315  7669 net.cpp:84] Creating Layer bn5a_branch2b
I0117 06:38:31.898319  7669 net.cpp:406] bn5a_branch2b <- res5a_branch2b
I0117 06:38:31.898337  7669 net.cpp:367] bn5a_branch2b -> res5a_branch2b (in-place)
I0117 06:38:31.898630  7669 net.cpp:122] Setting up bn5a_branch2b
I0117 06:38:31.898640  7669 net.cpp:129] Top shape: 16 512 7 7 (401408)
I0117 06:38:31.898643  7669 net.cpp:137] Memory required for data: 3558080768
I0117 06:38:31.898653  7669 layer_factory.hpp:77] Creating layer scale5a_branch2b
I0117 06:38:31.898661  7669 net.cpp:84] Creating Layer scale5a_branch2b
I0117 06:38:31.898665  7669 net.cpp:406] scale5a_branch2b <- res5a_branch2b
I0117 06:38:31.898670  7669 net.cpp:367] scale5a_branch2b -> res5a_branch2b (in-place)
I0117 06:38:31.898731  7669 layer_factory.hpp:77] Creating layer scale5a_branch2b
I0117 06:38:31.898921  7669 net.cpp:122] Setting up scale5a_branch2b
I0117 06:38:31.898932  7669 net.cpp:129] Top shape: 16 512 7 7 (401408)
I0117 06:38:31.898936  7669 net.cpp:137] Memory required for data: 3559686400
I0117 06:38:31.898942  7669 layer_factory.hpp:77] Creating layer res5a_branch2b_relu
I0117 06:38:31.898950  7669 net.cpp:84] Creating Layer res5a_branch2b_relu
I0117 06:38:31.898954  7669 net.cpp:406] res5a_branch2b_relu <- res5a_branch2b
I0117 06:38:31.898960  7669 net.cpp:367] res5a_branch2b_relu -> res5a_branch2b (in-place)
I0117 06:38:31.900463  7669 net.cpp:122] Setting up res5a_branch2b_relu
I0117 06:38:31.900475  7669 net.cpp:129] Top shape: 16 512 7 7 (401408)
I0117 06:38:31.900480  7669 net.cpp:137] Memory required for data: 3561292032
I0117 06:38:31.900482  7669 layer_factory.hpp:77] Creating layer res5a_branch2c
I0117 06:38:31.900498  7669 net.cpp:84] Creating Layer res5a_branch2c
I0117 06:38:31.900503  7669 net.cpp:406] res5a_branch2c <- res5a_branch2b
I0117 06:38:31.900517  7669 net.cpp:380] res5a_branch2c -> res5a_branch2c
I0117 06:38:31.909648  7669 net.cpp:122] Setting up res5a_branch2c
I0117 06:38:31.909665  7669 net.cpp:129] Top shape: 16 2048 7 7 (1605632)
I0117 06:38:31.909668  7669 net.cpp:137] Memory required for data: 3567714560
I0117 06:38:31.909674  7669 layer_factory.hpp:77] Creating layer bn5a_branch2c
I0117 06:38:31.909683  7669 net.cpp:84] Creating Layer bn5a_branch2c
I0117 06:38:31.909687  7669 net.cpp:406] bn5a_branch2c <- res5a_branch2c
I0117 06:38:31.909709  7669 net.cpp:367] bn5a_branch2c -> res5a_branch2c (in-place)
I0117 06:38:31.909955  7669 net.cpp:122] Setting up bn5a_branch2c
I0117 06:38:31.909978  7669 net.cpp:129] Top shape: 16 2048 7 7 (1605632)
I0117 06:38:31.909981  7669 net.cpp:137] Memory required for data: 3574137088
I0117 06:38:31.910002  7669 layer_factory.hpp:77] Creating layer scale5a_branch2c
I0117 06:38:31.910012  7669 net.cpp:84] Creating Layer scale5a_branch2c
I0117 06:38:31.910015  7669 net.cpp:406] scale5a_branch2c <- res5a_branch2c
I0117 06:38:31.910019  7669 net.cpp:367] scale5a_branch2c -> res5a_branch2c (in-place)
I0117 06:38:31.910065  7669 layer_factory.hpp:77] Creating layer scale5a_branch2c
I0117 06:38:31.910233  7669 net.cpp:122] Setting up scale5a_branch2c
I0117 06:38:31.910241  7669 net.cpp:129] Top shape: 16 2048 7 7 (1605632)
I0117 06:38:31.910244  7669 net.cpp:137] Memory required for data: 3580559616
I0117 06:38:31.910249  7669 layer_factory.hpp:77] Creating layer res5a
I0117 06:38:31.910254  7669 net.cpp:84] Creating Layer res5a
I0117 06:38:31.910259  7669 net.cpp:406] res5a <- res5a_branch1
I0117 06:38:31.910262  7669 net.cpp:406] res5a <- res5a_branch2c
I0117 06:38:31.910269  7669 net.cpp:380] res5a -> res5a
I0117 06:38:31.910351  7669 net.cpp:122] Setting up res5a
I0117 06:38:31.910359  7669 net.cpp:129] Top shape: 16 2048 7 7 (1605632)
I0117 06:38:31.910362  7669 net.cpp:137] Memory required for data: 3586982144
I0117 06:38:31.910365  7669 layer_factory.hpp:77] Creating layer res5a_relu
I0117 06:38:31.910372  7669 net.cpp:84] Creating Layer res5a_relu
I0117 06:38:31.910374  7669 net.cpp:406] res5a_relu <- res5a
I0117 06:38:31.910378  7669 net.cpp:367] res5a_relu -> res5a (in-place)
I0117 06:38:31.911810  7669 net.cpp:122] Setting up res5a_relu
I0117 06:38:31.911828  7669 net.cpp:129] Top shape: 16 2048 7 7 (1605632)
I0117 06:38:31.911830  7669 net.cpp:137] Memory required for data: 3593404672
I0117 06:38:31.911834  7669 layer_factory.hpp:77] Creating layer res5a_res5a_relu_0_split
I0117 06:38:31.911840  7669 net.cpp:84] Creating Layer res5a_res5a_relu_0_split
I0117 06:38:31.911844  7669 net.cpp:406] res5a_res5a_relu_0_split <- res5a
I0117 06:38:31.911849  7669 net.cpp:380] res5a_res5a_relu_0_split -> res5a_res5a_relu_0_split_0
I0117 06:38:31.911855  7669 net.cpp:380] res5a_res5a_relu_0_split -> res5a_res5a_relu_0_split_1
I0117 06:38:31.911908  7669 net.cpp:122] Setting up res5a_res5a_relu_0_split
I0117 06:38:31.911916  7669 net.cpp:129] Top shape: 16 2048 7 7 (1605632)
I0117 06:38:31.911921  7669 net.cpp:129] Top shape: 16 2048 7 7 (1605632)
I0117 06:38:31.911952  7669 net.cpp:137] Memory required for data: 3606249728
I0117 06:38:31.911957  7669 layer_factory.hpp:77] Creating layer res5b_branch2a
I0117 06:38:31.911965  7669 net.cpp:84] Creating Layer res5b_branch2a
I0117 06:38:31.911972  7669 net.cpp:406] res5b_branch2a <- res5a_res5a_relu_0_split_0
I0117 06:38:31.911978  7669 net.cpp:380] res5b_branch2a -> res5b_branch2a
I0117 06:38:31.918964  7669 net.cpp:122] Setting up res5b_branch2a
I0117 06:38:31.918982  7669 net.cpp:129] Top shape: 16 512 7 7 (401408)
I0117 06:38:31.918984  7669 net.cpp:137] Memory required for data: 3607855360
I0117 06:38:31.918990  7669 layer_factory.hpp:77] Creating layer bn5b_branch2a
I0117 06:38:31.919013  7669 net.cpp:84] Creating Layer bn5b_branch2a
I0117 06:38:31.919031  7669 net.cpp:406] bn5b_branch2a <- res5b_branch2a
I0117 06:38:31.919040  7669 net.cpp:367] bn5b_branch2a -> res5b_branch2a (in-place)
I0117 06:38:31.919292  7669 net.cpp:122] Setting up bn5b_branch2a
I0117 06:38:31.919301  7669 net.cpp:129] Top shape: 16 512 7 7 (401408)
I0117 06:38:31.919304  7669 net.cpp:137] Memory required for data: 3609460992
I0117 06:38:31.919311  7669 layer_factory.hpp:77] Creating layer scale5b_branch2a
I0117 06:38:31.919317  7669 net.cpp:84] Creating Layer scale5b_branch2a
I0117 06:38:31.919320  7669 net.cpp:406] scale5b_branch2a <- res5b_branch2a
I0117 06:38:31.919324  7669 net.cpp:367] scale5b_branch2a -> res5b_branch2a (in-place)
I0117 06:38:31.919386  7669 layer_factory.hpp:77] Creating layer scale5b_branch2a
I0117 06:38:31.919528  7669 net.cpp:122] Setting up scale5b_branch2a
I0117 06:38:31.919536  7669 net.cpp:129] Top shape: 16 512 7 7 (401408)
I0117 06:38:31.919538  7669 net.cpp:137] Memory required for data: 3611066624
I0117 06:38:31.919544  7669 layer_factory.hpp:77] Creating layer res5b_branch2a_relu
I0117 06:38:31.919551  7669 net.cpp:84] Creating Layer res5b_branch2a_relu
I0117 06:38:31.919558  7669 net.cpp:406] res5b_branch2a_relu <- res5b_branch2a
I0117 06:38:31.919562  7669 net.cpp:367] res5b_branch2a_relu -> res5b_branch2a (in-place)
I0117 06:38:31.921207  7669 net.cpp:122] Setting up res5b_branch2a_relu
I0117 06:38:31.921247  7669 net.cpp:129] Top shape: 16 512 7 7 (401408)
I0117 06:38:31.921249  7669 net.cpp:137] Memory required for data: 3612672256
I0117 06:38:31.921254  7669 layer_factory.hpp:77] Creating layer res5b_branch2b
I0117 06:38:31.921278  7669 net.cpp:84] Creating Layer res5b_branch2b
I0117 06:38:31.921283  7669 net.cpp:406] res5b_branch2b <- res5b_branch2a
I0117 06:38:31.921304  7669 net.cpp:380] res5b_branch2b -> res5b_branch2b
I0117 06:38:31.930514  7669 net.cpp:122] Setting up res5b_branch2b
I0117 06:38:31.930536  7669 net.cpp:129] Top shape: 16 512 7 7 (401408)
I0117 06:38:31.930541  7669 net.cpp:137] Memory required for data: 3614277888
I0117 06:38:31.930546  7669 layer_factory.hpp:77] Creating layer bn5b_branch2b
I0117 06:38:31.930554  7669 net.cpp:84] Creating Layer bn5b_branch2b
I0117 06:38:31.930558  7669 net.cpp:406] bn5b_branch2b <- res5b_branch2b
I0117 06:38:31.930564  7669 net.cpp:367] bn5b_branch2b -> res5b_branch2b (in-place)
I0117 06:38:31.930819  7669 net.cpp:122] Setting up bn5b_branch2b
I0117 06:38:31.930835  7669 net.cpp:129] Top shape: 16 512 7 7 (401408)
I0117 06:38:31.930836  7669 net.cpp:137] Memory required for data: 3615883520
I0117 06:38:31.930843  7669 layer_factory.hpp:77] Creating layer scale5b_branch2b
I0117 06:38:31.930850  7669 net.cpp:84] Creating Layer scale5b_branch2b
I0117 06:38:31.930852  7669 net.cpp:406] scale5b_branch2b <- res5b_branch2b
I0117 06:38:31.930857  7669 net.cpp:367] scale5b_branch2b -> res5b_branch2b (in-place)
I0117 06:38:31.930912  7669 layer_factory.hpp:77] Creating layer scale5b_branch2b
I0117 06:38:31.931051  7669 net.cpp:122] Setting up scale5b_branch2b
I0117 06:38:31.931059  7669 net.cpp:129] Top shape: 16 512 7 7 (401408)
I0117 06:38:31.931062  7669 net.cpp:137] Memory required for data: 3617489152
I0117 06:38:31.931067  7669 layer_factory.hpp:77] Creating layer res5b_branch2b_relu
I0117 06:38:31.931094  7669 net.cpp:84] Creating Layer res5b_branch2b_relu
I0117 06:38:31.931102  7669 net.cpp:406] res5b_branch2b_relu <- res5b_branch2b
I0117 06:38:31.931107  7669 net.cpp:367] res5b_branch2b_relu -> res5b_branch2b (in-place)
I0117 06:38:31.931321  7669 net.cpp:122] Setting up res5b_branch2b_relu
I0117 06:38:31.931332  7669 net.cpp:129] Top shape: 16 512 7 7 (401408)
I0117 06:38:31.931335  7669 net.cpp:137] Memory required for data: 3619094784
I0117 06:38:31.931339  7669 layer_factory.hpp:77] Creating layer res5b_branch2c
I0117 06:38:31.931349  7669 net.cpp:84] Creating Layer res5b_branch2c
I0117 06:38:31.931355  7669 net.cpp:406] res5b_branch2c <- res5b_branch2b
I0117 06:38:31.931360  7669 net.cpp:380] res5b_branch2c -> res5b_branch2c
I0117 06:38:31.937791  7669 net.cpp:122] Setting up res5b_branch2c
I0117 06:38:31.937806  7669 net.cpp:129] Top shape: 16 2048 7 7 (1605632)
I0117 06:38:31.937825  7669 net.cpp:137] Memory required for data: 3625517312
I0117 06:38:31.937830  7669 layer_factory.hpp:77] Creating layer bn5b_branch2c
I0117 06:38:31.937840  7669 net.cpp:84] Creating Layer bn5b_branch2c
I0117 06:38:31.937844  7669 net.cpp:406] bn5b_branch2c <- res5b_branch2c
I0117 06:38:31.937849  7669 net.cpp:367] bn5b_branch2c -> res5b_branch2c (in-place)
I0117 06:38:31.938136  7669 net.cpp:122] Setting up bn5b_branch2c
I0117 06:38:31.938144  7669 net.cpp:129] Top shape: 16 2048 7 7 (1605632)
I0117 06:38:31.938148  7669 net.cpp:137] Memory required for data: 3631939840
I0117 06:38:31.938164  7669 layer_factory.hpp:77] Creating layer scale5b_branch2c
I0117 06:38:31.938172  7669 net.cpp:84] Creating Layer scale5b_branch2c
I0117 06:38:31.938175  7669 net.cpp:406] scale5b_branch2c <- res5b_branch2c
I0117 06:38:31.938179  7669 net.cpp:367] scale5b_branch2c -> res5b_branch2c (in-place)
I0117 06:38:31.938238  7669 layer_factory.hpp:77] Creating layer scale5b_branch2c
I0117 06:38:31.938405  7669 net.cpp:122] Setting up scale5b_branch2c
I0117 06:38:31.938412  7669 net.cpp:129] Top shape: 16 2048 7 7 (1605632)
I0117 06:38:31.938416  7669 net.cpp:137] Memory required for data: 3638362368
I0117 06:38:31.938421  7669 layer_factory.hpp:77] Creating layer res5b
I0117 06:38:31.938427  7669 net.cpp:84] Creating Layer res5b
I0117 06:38:31.938433  7669 net.cpp:406] res5b <- res5a_res5a_relu_0_split_1
I0117 06:38:31.938438  7669 net.cpp:406] res5b <- res5b_branch2c
I0117 06:38:31.938444  7669 net.cpp:380] res5b -> res5b
I0117 06:38:31.938477  7669 net.cpp:122] Setting up res5b
I0117 06:38:31.938486  7669 net.cpp:129] Top shape: 16 2048 7 7 (1605632)
I0117 06:38:31.938491  7669 net.cpp:137] Memory required for data: 3644784896
I0117 06:38:31.938495  7669 layer_factory.hpp:77] Creating layer res5b_relu
I0117 06:38:31.938500  7669 net.cpp:84] Creating Layer res5b_relu
I0117 06:38:31.938503  7669 net.cpp:406] res5b_relu <- res5b
I0117 06:38:31.938508  7669 net.cpp:367] res5b_relu -> res5b (in-place)
I0117 06:38:31.939988  7669 net.cpp:122] Setting up res5b_relu
I0117 06:38:31.939998  7669 net.cpp:129] Top shape: 16 2048 7 7 (1605632)
I0117 06:38:31.940001  7669 net.cpp:137] Memory required for data: 3651207424
I0117 06:38:31.940004  7669 layer_factory.hpp:77] Creating layer res5b_res5b_relu_0_split
I0117 06:38:31.940012  7669 net.cpp:84] Creating Layer res5b_res5b_relu_0_split
I0117 06:38:31.940016  7669 net.cpp:406] res5b_res5b_relu_0_split <- res5b
I0117 06:38:31.940021  7669 net.cpp:380] res5b_res5b_relu_0_split -> res5b_res5b_relu_0_split_0
I0117 06:38:31.940026  7669 net.cpp:380] res5b_res5b_relu_0_split -> res5b_res5b_relu_0_split_1
I0117 06:38:31.940078  7669 net.cpp:122] Setting up res5b_res5b_relu_0_split
I0117 06:38:31.940084  7669 net.cpp:129] Top shape: 16 2048 7 7 (1605632)
I0117 06:38:31.940088  7669 net.cpp:129] Top shape: 16 2048 7 7 (1605632)
I0117 06:38:31.940090  7669 net.cpp:137] Memory required for data: 3664052480
I0117 06:38:31.940094  7669 layer_factory.hpp:77] Creating layer res5c_branch2a
I0117 06:38:31.940102  7669 net.cpp:84] Creating Layer res5c_branch2a
I0117 06:38:31.940105  7669 net.cpp:406] res5c_branch2a <- res5b_res5b_relu_0_split_0
I0117 06:38:31.940127  7669 net.cpp:380] res5c_branch2a -> res5c_branch2a
I0117 06:38:31.947012  7669 net.cpp:122] Setting up res5c_branch2a
I0117 06:38:31.947027  7669 net.cpp:129] Top shape: 16 512 7 7 (401408)
I0117 06:38:31.947031  7669 net.cpp:137] Memory required for data: 3665658112
I0117 06:38:31.947052  7669 layer_factory.hpp:77] Creating layer bn5c_branch2a
I0117 06:38:31.947059  7669 net.cpp:84] Creating Layer bn5c_branch2a
I0117 06:38:31.947063  7669 net.cpp:406] bn5c_branch2a <- res5c_branch2a
I0117 06:38:31.947067  7669 net.cpp:367] bn5c_branch2a -> res5c_branch2a (in-place)
I0117 06:38:31.947324  7669 net.cpp:122] Setting up bn5c_branch2a
I0117 06:38:31.947333  7669 net.cpp:129] Top shape: 16 512 7 7 (401408)
I0117 06:38:31.947335  7669 net.cpp:137] Memory required for data: 3667263744
I0117 06:38:31.947342  7669 layer_factory.hpp:77] Creating layer scale5c_branch2a
I0117 06:38:31.947352  7669 net.cpp:84] Creating Layer scale5c_branch2a
I0117 06:38:31.947355  7669 net.cpp:406] scale5c_branch2a <- res5c_branch2a
I0117 06:38:31.947360  7669 net.cpp:367] scale5c_branch2a -> res5c_branch2a (in-place)
I0117 06:38:31.947405  7669 layer_factory.hpp:77] Creating layer scale5c_branch2a
I0117 06:38:31.947562  7669 net.cpp:122] Setting up scale5c_branch2a
I0117 06:38:31.947571  7669 net.cpp:129] Top shape: 16 512 7 7 (401408)
I0117 06:38:31.947573  7669 net.cpp:137] Memory required for data: 3668869376
I0117 06:38:31.947578  7669 layer_factory.hpp:77] Creating layer res5c_branch2a_relu
I0117 06:38:31.947583  7669 net.cpp:84] Creating Layer res5c_branch2a_relu
I0117 06:38:31.947587  7669 net.cpp:406] res5c_branch2a_relu <- res5c_branch2a
I0117 06:38:31.947592  7669 net.cpp:367] res5c_branch2a_relu -> res5c_branch2a (in-place)
I0117 06:38:31.949239  7669 net.cpp:122] Setting up res5c_branch2a_relu
I0117 06:38:31.949247  7669 net.cpp:129] Top shape: 16 512 7 7 (401408)
I0117 06:38:31.949250  7669 net.cpp:137] Memory required for data: 3670475008
I0117 06:38:31.949252  7669 layer_factory.hpp:77] Creating layer res5c_branch2b
I0117 06:38:31.949275  7669 net.cpp:84] Creating Layer res5c_branch2b
I0117 06:38:31.949280  7669 net.cpp:406] res5c_branch2b <- res5c_branch2a
I0117 06:38:31.949285  7669 net.cpp:380] res5c_branch2b -> res5c_branch2b
I0117 06:38:31.959352  7669 net.cpp:122] Setting up res5c_branch2b
I0117 06:38:31.959368  7669 net.cpp:129] Top shape: 16 512 7 7 (401408)
I0117 06:38:31.959372  7669 net.cpp:137] Memory required for data: 3672080640
I0117 06:38:31.959383  7669 layer_factory.hpp:77] Creating layer bn5c_branch2b
I0117 06:38:31.959393  7669 net.cpp:84] Creating Layer bn5c_branch2b
I0117 06:38:31.959412  7669 net.cpp:406] bn5c_branch2b <- res5c_branch2b
I0117 06:38:31.959417  7669 net.cpp:367] bn5c_branch2b -> res5c_branch2b (in-place)
I0117 06:38:31.959714  7669 net.cpp:122] Setting up bn5c_branch2b
I0117 06:38:31.959738  7669 net.cpp:129] Top shape: 16 512 7 7 (401408)
I0117 06:38:31.959739  7669 net.cpp:137] Memory required for data: 3673686272
I0117 06:38:31.959763  7669 layer_factory.hpp:77] Creating layer scale5c_branch2b
I0117 06:38:31.959769  7669 net.cpp:84] Creating Layer scale5c_branch2b
I0117 06:38:31.959774  7669 net.cpp:406] scale5c_branch2b <- res5c_branch2b
I0117 06:38:31.959777  7669 net.cpp:367] scale5c_branch2b -> res5c_branch2b (in-place)
I0117 06:38:31.959836  7669 layer_factory.hpp:77] Creating layer scale5c_branch2b
I0117 06:38:31.960034  7669 net.cpp:122] Setting up scale5c_branch2b
I0117 06:38:31.960042  7669 net.cpp:129] Top shape: 16 512 7 7 (401408)
I0117 06:38:31.960045  7669 net.cpp:137] Memory required for data: 3675291904
I0117 06:38:31.960050  7669 layer_factory.hpp:77] Creating layer res5c_branch2b_relu
I0117 06:38:31.960057  7669 net.cpp:84] Creating Layer res5c_branch2b_relu
I0117 06:38:31.960059  7669 net.cpp:406] res5c_branch2b_relu <- res5c_branch2b
I0117 06:38:31.960065  7669 net.cpp:367] res5c_branch2b_relu -> res5c_branch2b (in-place)
I0117 06:38:31.961598  7669 net.cpp:122] Setting up res5c_branch2b_relu
I0117 06:38:31.961618  7669 net.cpp:129] Top shape: 16 512 7 7 (401408)
I0117 06:38:31.961645  7669 net.cpp:137] Memory required for data: 3676897536
I0117 06:38:31.961648  7669 layer_factory.hpp:77] Creating layer res5c_branch2c
I0117 06:38:31.961675  7669 net.cpp:84] Creating Layer res5c_branch2c
I0117 06:38:31.961683  7669 net.cpp:406] res5c_branch2c <- res5c_branch2b
I0117 06:38:31.961688  7669 net.cpp:380] res5c_branch2c -> res5c_branch2c
I0117 06:38:31.969051  7669 net.cpp:122] Setting up res5c_branch2c
I0117 06:38:31.969066  7669 net.cpp:129] Top shape: 16 2048 7 7 (1605632)
I0117 06:38:31.969085  7669 net.cpp:137] Memory required for data: 3683320064
I0117 06:38:31.969090  7669 layer_factory.hpp:77] Creating layer bn5c_branch2c
I0117 06:38:31.969100  7669 net.cpp:84] Creating Layer bn5c_branch2c
I0117 06:38:31.969105  7669 net.cpp:406] bn5c_branch2c <- res5c_branch2c
I0117 06:38:31.969110  7669 net.cpp:367] bn5c_branch2c -> res5c_branch2c (in-place)
I0117 06:38:31.969419  7669 net.cpp:122] Setting up bn5c_branch2c
I0117 06:38:31.969426  7669 net.cpp:129] Top shape: 16 2048 7 7 (1605632)
I0117 06:38:31.969444  7669 net.cpp:137] Memory required for data: 3689742592
I0117 06:38:31.969450  7669 layer_factory.hpp:77] Creating layer scale5c_branch2c
I0117 06:38:31.969477  7669 net.cpp:84] Creating Layer scale5c_branch2c
I0117 06:38:31.969480  7669 net.cpp:406] scale5c_branch2c <- res5c_branch2c
I0117 06:38:31.969485  7669 net.cpp:367] scale5c_branch2c -> res5c_branch2c (in-place)
I0117 06:38:31.969547  7669 layer_factory.hpp:77] Creating layer scale5c_branch2c
I0117 06:38:31.969704  7669 net.cpp:122] Setting up scale5c_branch2c
I0117 06:38:31.969712  7669 net.cpp:129] Top shape: 16 2048 7 7 (1605632)
I0117 06:38:31.969715  7669 net.cpp:137] Memory required for data: 3696165120
I0117 06:38:31.969720  7669 layer_factory.hpp:77] Creating layer res5c
I0117 06:38:31.969725  7669 net.cpp:84] Creating Layer res5c
I0117 06:38:31.969729  7669 net.cpp:406] res5c <- res5b_res5b_relu_0_split_1
I0117 06:38:31.969734  7669 net.cpp:406] res5c <- res5c_branch2c
I0117 06:38:31.969740  7669 net.cpp:380] res5c -> res5c
I0117 06:38:31.969769  7669 net.cpp:122] Setting up res5c
I0117 06:38:31.969784  7669 net.cpp:129] Top shape: 16 2048 7 7 (1605632)
I0117 06:38:31.969787  7669 net.cpp:137] Memory required for data: 3702587648
I0117 06:38:31.969790  7669 layer_factory.hpp:77] Creating layer res5c_relu
I0117 06:38:31.969799  7669 net.cpp:84] Creating Layer res5c_relu
I0117 06:38:31.969802  7669 net.cpp:406] res5c_relu <- res5c
I0117 06:38:31.969806  7669 net.cpp:367] res5c_relu -> res5c (in-place)
I0117 06:38:31.971308  7669 net.cpp:122] Setting up res5c_relu
I0117 06:38:31.971338  7669 net.cpp:129] Top shape: 16 2048 7 7 (1605632)
I0117 06:38:31.971341  7669 net.cpp:137] Memory required for data: 3709010176
I0117 06:38:31.971344  7669 layer_factory.hpp:77] Creating layer pool5
I0117 06:38:31.971354  7669 net.cpp:84] Creating Layer pool5
I0117 06:38:31.971372  7669 net.cpp:406] pool5 <- res5c
I0117 06:38:31.971398  7669 net.cpp:380] pool5 -> pool5
I0117 06:38:31.973635  7669 net.cpp:122] Setting up pool5
I0117 06:38:31.973647  7669 net.cpp:129] Top shape: 16 2048 1 1 (32768)
I0117 06:38:31.973650  7669 net.cpp:137] Memory required for data: 3709141248
I0117 06:38:31.973654  7669 layer_factory.hpp:77] Creating layer wh_fc_724
I0117 06:38:31.973660  7669 net.cpp:84] Creating Layer wh_fc_724
I0117 06:38:31.973664  7669 net.cpp:406] wh_fc_724 <- pool5
I0117 06:38:31.973670  7669 net.cpp:380] wh_fc_724 -> wh_fc_724
I0117 06:38:31.979318  7669 net.cpp:122] Setting up wh_fc_724
I0117 06:38:31.979337  7669 net.cpp:129] Top shape: 16 724 (11584)
I0117 06:38:31.979341  7669 net.cpp:137] Memory required for data: 3709187584
I0117 06:38:31.979348  7669 layer_factory.hpp:77] Creating layer wh_fc_724_wh_fc_724_0_split
I0117 06:38:31.979356  7669 net.cpp:84] Creating Layer wh_fc_724_wh_fc_724_0_split
I0117 06:38:31.979359  7669 net.cpp:406] wh_fc_724_wh_fc_724_0_split <- wh_fc_724
I0117 06:38:31.979364  7669 net.cpp:380] wh_fc_724_wh_fc_724_0_split -> wh_fc_724_wh_fc_724_0_split_0
I0117 06:38:31.979390  7669 net.cpp:380] wh_fc_724_wh_fc_724_0_split -> wh_fc_724_wh_fc_724_0_split_1
I0117 06:38:31.979398  7669 net.cpp:380] wh_fc_724_wh_fc_724_0_split -> wh_fc_724_wh_fc_724_0_split_2
I0117 06:38:31.979467  7669 net.cpp:122] Setting up wh_fc_724_wh_fc_724_0_split
I0117 06:38:31.979476  7669 net.cpp:129] Top shape: 16 724 (11584)
I0117 06:38:31.979480  7669 net.cpp:129] Top shape: 16 724 (11584)
I0117 06:38:31.979482  7669 net.cpp:129] Top shape: 16 724 (11584)
I0117 06:38:31.979485  7669 net.cpp:137] Memory required for data: 3709326592
I0117 06:38:31.979488  7669 layer_factory.hpp:77] Creating layer loss
I0117 06:38:31.979496  7669 net.cpp:84] Creating Layer loss
I0117 06:38:31.979499  7669 net.cpp:406] loss <- wh_fc_724_wh_fc_724_0_split_0
I0117 06:38:31.979504  7669 net.cpp:406] loss <- label_data_1_split_0
I0117 06:38:31.979511  7669 net.cpp:380] loss -> loss
…
